best_model.pth (torch, 151138 bytes, 11 tensors)

conv1.weight f4 [16, 1, 3]
0.34662932 -0.517507 0.013213991 -0.2937209 0.44877484 0.3994462 0.46247262 0.13068587
0.65122926 0.002328905 -0.4846124 -0.3059549 0.36865953 0.16809198 -0.47776827 0.4862975
-0.67426676 0.49385554 0.10684272 -0.39402714 0.21356851 0.38503173 0.5939091 -0.48927405
0.15623622 -0.49872944 -0.35560498 -0.43861675 0.36212903 -0.3057327 0.10282113 -0.48811555
0.52067715 0.58481634 -0.49537823 -0.09282094 -0.07977687 0.10914976 0.6720432 0.41481504
-0.13446735 -0.2944085 0.49530944 -0.25809705 0.70552486 -0.09462618 0.10927247 0.7111334
00000000: 6679 b13e 577b 04bf 7f7f 583c 9662 96be
00000010: d1c5 e53e 3684 cc3e 36c9 ec3e 84d2 053e
00000020: f6b6 263f 8ba0 183b 1e1f f8be 1fa6 9cbe
00000030: f1c0 bc3e 4e20 2c3e 0b9e f4be fcfb f83e
00000040: bf9c 2cbf a2da fc3e 5bd0 da3d edbd c9be
00000050: b4b1 5a3e e122 c53e 6d0a 183f 2182 fabe
00000060: 63fc 1f3e 7759 ffbe db11 b6be 6092 e0be
00000070: fa68 b93e ff88 9cbe e293 d23d 48ea f9be
00000080: 194b 053f 86b6 153f 37a2 fdbe e818 bebd
00000090: 0e62 a3bd e989 df3d 060b 2c3f a362 d43e
000000a0: cfb1 09be b6bc 96be 3399 fd3e 4c25 84be
000000b0: 479d 343f 5fcb c1bd 3fca df3d d70c 363f

conv1.bias f4 [16]
-0.15393855 0.44858226 0.08453206 -0.25491926 -0.16092546 0.045351077 0.39872387 0.022279628
-0.45663226 0.32678732 -0.32365927 -0.5797421 0.6802454 -0.17608325 -0.24988332 0.8519721
00000000: 11a2 1dbe 93ac e53e 251f ad3d c784 82be
00000010: a5c9 24be 0dc2 393d 8925 cc3e c483 b63c
00000020: b4cb e9be ab50 a73e abb6 a5be fa69 14bf
00000030: 9024 2e3f 2b4f 34be 6ae1 7fbe d81a 5a3f

conv2.weight f4 [32, 16, 3]
0.03503851 -0.1096419 0.1274158 0.08434663 -0.13808487 0.16870902 0.076667026 -0.07670928
0.117945135 -0.07065901 0.010186696 -0.03524825 0.082215436 -0.004828091 0.010006048 0.100709416
0.015770385 -0.08123546 -0.08697004 -0.13221616 0.08195847 0.006367037 -0.11763247 0.017716946
-0.0054927208 0.090771236 0.051288188 0.07392356 -0.015474672 0.08451971 -0.15073672 -0.21023828
-0.077280715 -0.12619069 0.097302414 0.071467996 0.019033186 -0.023288257 0.13464841 0.097000085
-0.077046186 -0.030499268 -0.09768823 -0.09396555 0.1095883 -0.13643532 -0.033352777 0.1509963
0.13202685 0.07166706 -0.033193685 -0.03054193 -0.07359779 -0.033599228 -0.10435485 0.045831516
-0.023132535 -0.12274019 -0.0005109075 0.048829313 0.12023848 0.023881169 -0.041657664 0.06822514
0.09488803 0.09335128 0.16195464 -0.055839952 0.15263218 -0.03444014 -0.08549937 0.22853287
0.011859165 -0.019426964 0.11143929 -0.11528509 0.07005659 0.09830866 0.022909375 0.08897159
0.18046309 -0.02680111 0.03990422 0.16970766 0.07340724 0.04365709 -0.08617876 0.120491825
-0.0026112075 0.1128651 -0.07996688 0.07852697 0.006591877 -0.047668915 -0.05669741 -0.018181281
-0.031589173 -0.08995303 0.15694149 0.15976188 0.121106885 -0.13179116 0.07355059 -0.01993124
-0.06856504 0.038759723 -0.01492982 -0.005692779 -0.026297817 0.074855 -0.10888984 -0.079683214
-0.007288605 0.16337813 0.06683735 -0.003302163 -0.0544247 -0.07410685 -0.013474504 0.10014107
-0.06625164 -0.069524094 0.08334532 0.052614644 -0.10748778 -0.03196864 0.16769366 -0.09040086
0.22087094 -0.0092093395 -0.011097907 0.08398812 0.1418118 -0.030628232 -0.10642839 0.043246504
-0.099668 0.113466874 0.08410634 0.011382225 0.12583044 0.115318485 -0.0427314 -0.075290136
-0.047334917 0.11332074 -0.07698489 -0.06310766 0.13699913 0.11381677 0.09260987 -0.024633044
0.16858937 0.15188316 -0.083621204 0.007246876 0.17041594 -0.0178884 0.016442072 0.070933945
-0.015138218 -0.040992703 0.09037214 -0.089074194 0.17067616 -0.017704124 0.0034086858 -0.02198564
-0.08837391 0.0028133956 -0.023140907 0.01902784 0.15497227 0.16456202 0.023566097 -0.09092402
-0.13345498 0.0027828282 0.027414905 0.08474453 0.04721265 -0.011677707 0.20114063 0.071329996
0.19218796 0.061627634 -0.10790334 0.02919625 0.20355575 -0.099783316 0.0043435027 0.13459574
0.020003565 0.004888067 0.02787469 -0.049480025 -0.1601398 -0.47252837 0.09964377 0.07808927
-0.02102732 -0.040541537 0.08753896 -0.124756455 0.060821332 0.08799141 -0.030407093 0.03581217
-0.07976046 0.3123635 -0.024998255 0.073282875 0.10189436 0.0051474087 -0.105524234 0.016269902
-0.099973775 -0.07738871 0.12528832 -0.017369855 0.11317713 0.1719901 0.1918684 0.16635475
0.19615106 -0.029351613 0.059292044 0.006051326 -0.08981889 -0.03453636 -0.36473322 -0.080313355
-0.035785116 -0.07506481 -0.07252385 -0.08858281 -0.012864633 0.0052214176 -0.051502418 -0.32111356
0.03123781 0.096202984 0.06994604 -0.024397641 -0.09392847 -0.244055 -0.09046058 0.016950686
0.12206017 -0.120369315 -0.009077865 0.08464224 -0.06570211 -0.04402738 -0.100159556 0.09856731
00000000: 8a84 0f3d ef8b e0bd 4a79 023e edbd ac3d
00000010: 1f66 0dbe 0fc2 2c3e 9a03 9d3d c119 9dbd
00000020: 388d f13d acb5 90bd 1ae6 263c 7860 10bd
00000030: 9160 a83d f634 9ebb 68f0 233c bd40 ce3d
00000040: e530 813c c75e a6bd 591d b2bd ac63 07be
00000050: d8d9 a73d 94a2 d03b 4be9 f0bd 2123 913c
00000060: 48fc b3bb 45e6 b93d 9013 523d 3c65 973d
00000070: 7b89 7dbc ab18 ad3d ba5a 1abe b448 57be
00000080: 5a45 9ebd 2238 01be 7d46 c73d d05d 923d
00000090: 7ceb 9b3c 04c7 bebc 46e1 093e fba7 c63d
000000a0: 64ca 9dbd 9ad9 f9bc c410 c8bd 0371 c0bd
000000b0: d56f e03d b3b5 0bbe ec9c 08bd c69e 1a3e
000000c0: 0c32 073e 2ec6 923d 1af6 07bd 1233 fabc
000000d0: 70ba 96bd 589f 09bd ffb7 d5bd d4b9 3b3d
000000e0: 7180 bdbc 355f fbbd 6cee 05ba 3f01 483d
000000f0: 983f f63d 71a2 c33c 3aa1 2abd 9fb9 8b3d
00000100: a854 c23d f52e bf3d 70d7 253e 6fb8 64bd
00000110: 9c4b 1c3e 1b11 0dbd 4b1a afbd 8504 6a3e
00000120: f14c 423c 4c25 9fbc 483a e43d 971a ecbd
00000130: d479 8f3d 0d56 c93d 71ac bb3c bd36 b63d
00000140: 51cb 383e 008e dbbc 9b72 233d d8c7 2d3e
00000150: 8956 963d c7d1 323d 7d7e b0bd 6bc4 f63d
00000160: cb20 2bbb d125 e73d adc5 a3bd c0d2 a03d
00000170: ac00 d83b 7b40 43bd 8b3b 68bd e9f0 94bc
00000180: a663 01bd 4b39 b8bd 45b5 203e 9e98 233e
00000190: e306 f83d 43f4 06be b1a1 963d d746 a3bc
000001a0: d46b 8cbd 84c2 1e3d 349c 74bc 7e8a babb
000001b0: 856e d7bc 944d 993d a301 dfbd f430 a3bd
000001c0: 40d5 eebb 994c 273e 05e2 883d 1a69 58bb
000001d0: 6fec 5ebd 55c5 97bd 2bc4 5cbc c316 cd3d
000001e0: f1ae 87bd a662 8ebd f3b0 aa3d 7482 573d
000001f0: 8e22 dcbd 8cf1 02bd e3b7 2b3e 1624 b9bd
00000200: fe2b 623e c5e2 16bc ffd3 35bc f701 ac3d
00000210: 1d37 113e 0fe8 fabc 21f7 d9bd 3f23 313d
00000220: bd1e ccbd 5261 e83d f23f ac3d 837c 3a3c
00000230: b2d9 003e 192c ec3d 1f07 2fbd b731 9abd
00000240: 42e2 41bd b414 e83d 41aa 9dbd 973e 81bd
00000250: 8049 0c3e c418 e93d 3eaa bd3d 3dcb c9bc
00000260: b1a2 2c3e 4287 1b3e 9841 abbd 3477 ed3b
00000270: 8481 2e3e b28a 92bc 86b1 863c d145 913d
00000280: 4a06 78bc f7e7 27bd 0715 b93d 886c b6bd
00000290: bbc5 2e3e 3d08 91bc 4264 5f3b 3b1b b4bc
000002a0: 61fd b4bd f260 383b 0092 bdbc 46e0 9b3c
000002b0: 0db1 1e3e f282 283e b00d c13c 5f36 babd
000002c0: 6ca8 08be 1c60 363b 3995 e03c 8a8e ad3d
000002d0: 0d62 413d da53 3fbc cff7 4d3e 7615 923d
000002e0: eccc 443e 426d 7c3d 6dfc dcbd f92c ef3c
000002f0: eb70 503e 325b ccbd f153 8e3b 77d3 093e
00000300: 84de a33c 142c a03b 7659 e43c 91ab 4abd
00000310: b0fb 23be 3def f1be 0812 cc3d 44ed 9f3d
00000320: 7c41 acbc e20e 26bd a047 b33d 5080 ffbd
00000330: ca1f 793d d734 b43d 4c18 f9bc c8af 123d
00000340: 7459 a3bd 1cee 9f3e 24c9 ccbc 5515 963d
00000350: fdad d03d 98ab a83b 171d d8bd 7548 853c
00000360: 0dbf ccbd f97d 9ebd 954b 003e 3a4b 8ebc
00000370: 69c9 e73d 2c1e 303e 2679 443e e658 2a3e
00000380: d3db 483e cb72 f0bc 37dc 723d 344a c63b
00000390: f7f2 b7bd 0076 0dbd 50be babe 547b a4bd
000003a0: 6a93 12bd 94bb 99bd 6287 94bd e76a b5bd
000003b0: 2fc6 52bc 6d18 ab3b 33f4 52bd ff68 a4be
000003c0: 70e6 ff3c 1206 c53d df3f 8f3d 90dd c7bc
000003d0: 925d c0bd 8ee9 79be 6643 b9bd 2adc 8a3c
000003e0: affa f93d 3084 f6bd 53bb 14bc e958 ad3d
000003f0: d48e 86bd 0e56 34bd 7420 cdbd a8dd c93d

conv2.bias f4 [32]
0.20016868 -0.19042884 -0.21548492 0.15690093 -0.10530953 -0.33314648 -0.044941902 0.32758158
-0.19449124 0.30616593 -0.026988976 0.6595139 -0.04720819 0.2579897 -0.06594368 0.028565703
0.010228166 0.14612602 -0.0424191 -0.019457374 -0.13944389 0.11336282 0.05169726 -0.09987287
-0.23257707 -0.020597901 -0.07282494 0.011434636 -0.022094265 0.09926259 0.08042575 0.22739868
00000000: 05f9 4c3e c7ff 42be 14a8 5cbe a3aa 203e
00000010: 86ac d7bd 2d92 aabe 0015 38bd c6b8 a73e
00000020: b628 47be c8c1 9c3e fc17 ddbc e7d5 283f
00000030: 605d 41bd 3a17 843e 7b0d 87bd 9f02 ea3c
00000040: 0a94 273c 0fa2 153e a6bf 2dbd 1265 9fbc
00000050: 61ca 0ebe c42a e83d 82c0 533d 268a ccbd
00000060: af28 6ebe eebc a8bc 3e25 95bd 5758 3b3c
00000070: 08ff b4bc 2f4a cb3d 41b6 a43d 33db 683e

conv3.weight f4 [64, 32, 3]
0.07847575 0.048989084 -0.022164574 0.090311624 -0.03743491 -0.060228504 -0.0036100312 -0.05378889
0.12599547 0.07652295 -0.07540534 0.041971423 -0.045220464 -0.03320645 0.13249232 -0.06290608
-0.056866013 -0.040251866 -0.08312436 0.049394906 -0.11330244 0.011653508 0.104087666 -0.07328645
-0.012067998 -0.035872 0.08202692 0.004488726 -0.078852475 -0.08914163 0.026584977 0.060490344
0.054315034 0.028732112 -0.094052196 0.015324677 -0.051353622 0.032589592 0.04185712 -0.02238517
-0.078319326 -0.014043485 0.035631813 -0.115381956 0.03815181 0.029294806 0.10984033 0.0029997283
-0.047473732 -0.070519686 0.06496281 -0.0722205 -0.10310132 -0.024651933 0.07150554 0.02769243
0.054809973 -0.09529613 -0.0167507 0.08343243 0.09724836 0.08095166 -0.0134261185 -0.068191886
0.07123591 0.11478733 -0.086299464 0.013411194 -0.08618265 -0.08020248 0.02937563 0.049801454
-0.04560576 -0.08479396 -0.029952368 -0.0025876428 0.024240734 -0.07030785 0.084104985 0.0075044082
-0.056045935 0.0050943983 0.0655165 0.07437579 0.12130413 -0.054763786 0.11602822 0.06970746
-0.0038284643 -0.04708871 0.10039709 0.07647229 -0.039444067 -0.009215512 0.0701699 -0.050980914
-0.008828185 0.036666516 -0.12810655 -0.071690485 0.063481666 0.108137585 -0.069007404 -0.018496212
-0.096340664 0.01295914 -0.0712817 -0.051360633 -0.09181088 -0.00066492474 0.06384266 -0.09784258
0.00041893765 -0.0722094 0.058342006 -0.036764223 -0.0115603795 -0.051786862 0.060676523 0.03255261
-0.08909375 0.080583364 0.07483703 -0.09235541 -0.13187282 -0.15421714 0.067386806 0.013771001
-0.066618025 -0.08703383 -0.08253875 -0.00556841 -0.017892513 0.057865236 -0.018292 -0.117124915
-0.099679105 -0.12644753 -0.08594011 -0.023837514 0.086460344 0.07210429 0.03046558 -0.05395177
0.0040505505 -0.10907056 -0.03215424 0.027790263 -0.071544245 -0.030253962 -0.031215886 -0.046031643
0.0078576105 0.023262715 0.069654375 0.18784095 0.018931113 0.038476177 0.045953296 -0.040230166
-0.093033925 0.03794882 0.055301014 0.041406732 0.0038111003 0.016108828 -0.047717933 0.0769358
0.006873707 -0.07234866 -0.036990844 -0.017698871 -0.059845712 0.0151309725 -0.06810712 0.012053743
0.05961999 0.066993214 -0.009416408 0.056911428 0.017809493 0.009124442 0.08878462 -0.100467734
0.051206462 0.006054593 -0.033406444 -0.07106624 -0.08582856 0.03564259 -0.022546725 -0.06172888
0.06410313 0.06711672 0.025657076 0.0855467 -0.03566224 -0.020083 0.10592508 0.016067708
-0.16519839 0.024808224 0.10994439 0.058880866 0.11014642 0.023878973 -0.05447314 -0.027703492
0.02105914 0.07966341 0.090036705 -0.07148198 -0.06273831 -0.03283791 0.062555455 -0.0501831
-0.034534506 -0.10268914 -0.037616923 0.0070491303 0.034989193 -0.09002118 0.065449186 0.0008698767
0.043221314 0.011714143 0.111154094 -0.059810296 0.015429438 -0.04801359 -0.11412052 -0.047045447
0.06618216 0.03436855 -0.02129214 0.098203816 -0.10005448 0.08475814 -0.07616501 -0.07144685
-0.024852142 0.07416799 -0.01032684 0.11297395 -0.007057557 -0.009135531 0.04567996 0.044822033
-0.141228 0.0341678 -0.046671703 -0.1730625 0.09286799 -0.010668234 0.0750977 0.0347268
00000000: e5b7 a03d c7a8 483d 7b92 b5bc 4df5 b83d
00000010: 5955 19bd 2ab2 76bd 4696 6cbb bd51 5cbd
00000020: f504 013e 10b8 9c3d 1d6e 9abd 3aea 2b3d
00000030: 1839 39bd 7d03 08bd 11ac 073e e7d4 80bd
00000040: 56ec 68bd 24df 24bd 1b3d aabd 5052 4a3d
00000050: 1c0b e8bd 5bee 3e3c ea2b d53d 3517 96bd
00000060: dab8 45bc 85ee 12bd bbfd a73d 2a16 933b
00000070: 687d a1bd e38f b6bd bdc8 d93c b9c4 773d
00000080: 7179 5e3d 9b5f eb3c 709e c0bd 5b14 7b3c
00000090: 2d58 52bd aa7c 053d 5f72 2b3d 1b61 b7bc
000000a0: e265 a0bd a516 66bc aaf2 113d 604d ecbd
000000b0: 1345 1c3d a9fb ef3c f8f3 e03d 1797 443b
000000c0: d173 42bd a06c 90bd 390b 853d 57e8 93bd
000000d0: c926 d3bd daf2 c9bc 7f71 923d 3cdb e23c
000000e0: 6c80 603d 9e2a c3bd c438 89bc 9fde aa3d
000000f0: 262a c73d fcc9 a53d 39f9 5bbc 30a8 8bbd
00000100: 22e4 913d 9f15 eb3d c6bd b0bd a0ba 5b3c
00000110: 8780 b0bd 3341 a4bd 29a5 f03c 9cfc 4b3d
00000120: 1bcd 3abd 75a8 adbd ab5e f5bc 7195 29bb
00000130: 8194 c63c 90fd 8fbd 3c3f ac3d 8ae7 f53b
00000140: 6c90 65bd e9ee a63b 842d 863d 5652 983d
00000150: 4d6e f83d fe4f 60bd 34a0 ed3d c9c2 8e3d
00000160: f9e6 7abb 17e0 40bd fd9c cd3d 819d 9c3d
00000170: 1a90 21bd a9fc 16bc 3db5 8f3d 5dd1 50bd
00000180: 17a4 10bc a12f 163d 5d2e 03be 76d2 92bd
00000190: ad02 823d 3d77 dd3d c153 8dbd 5e85 97bc
000001a0: 414e c5bd 9352 543c 24fc 91bd 875f 52bd
000001b0: 5807 bcbd 584e 2eba f1bf 823d b161 c8bd
000001c0: dca4 db39 86e2 93bd 07f8 6e3d 1596 16bd
000001d0: bf67 3dbc 761e 54bd f287 783d e355 053d
000001e0: c976 b6bd e408 a53d 2844 993d d524 bdbd
000001f0: ab09 07be 19eb 1dbe 1802 8a3d c49f 613c
00000200: 086f 88bd cb3e b2bd 130a a9bd 3577 b6bb
00000210: 5293 92bc 1904 6d3d 1bd9 95bc 30df efbd
00000220: 8f24 ccbd 767b 01be 5e01 b0bd e446 c3bc
00000230: 1f12 b13d 6aab 933d f492 f93c 88fc 5cbd
00000240: 7bba 843b 6360 dfbd 2ab4 03bd 68a8 e33c
00000250: ca85 92bd 28d7 f7bc 75b8 ffbc ad8b 3cbd
00000260: 35bd 003c 7391 be3c f4a6 8e3d 6159 403e
00000270: 6c15 9b3c 3299 1d3d 8639 3c3d 63c8 24bd
00000280: 9288 bebd 3970 1b3d 5183 623d 1b9a 293d
00000290: a7c3 793b a9f6 833c e173 43bd 8490 9d3d
000002a0: d53c e13b 892b 94bd b683 17bd 39fd 90bc
000002b0: c720 75bd e6e7 773c bf7b 8bbd 107d 453c
000002c0: 1734 743d bd33 893d 4747 1abc f51b 693d
000002d0: 37e5 913c af7e 153c b6d4 b53d 07c2 cdbd
000002e0: debd 513d 9b65 c63b 32d5 08bd 2d8b 91bd
000002f0: e2c6 afbd f7fd 113d e9b3 b8bc 6cd7 7cbd
00000300: 8048 833d 7e74 893d ca2e d23c 1c33 af3d
00000310: 9212 12bd 1b85 a4bc 40ef d83d 6da0 833c
00000320: c429 29be 9e3a cb3c 862a e13d 102d 713d
00000330: 7294 e13d d69d c33c 3a1f 5fbd 6ff2 e2bc
00000340: 3884 ac3c 9226 a33d 2a65 b83d 2565 92bd
00000350: f17c 80bd 0b81 06bd 131d 803d cb8c 4dbd
00000360: 0e74 0dbd af4e d2bd 3414 1abd 64fc e63b
00000370: d450 0f3d 065d b8bd 390a 863d 7008 643a
00000380: d508 313d adec 3f3c c2a4 e33d a4fb 74bd
00000390: c1cb 7c3c e6a9 44bd 05b8 e9bd bab2 40bd
000003a0: 838a 873d 09c6 0c3d db6c aebc 151f c93d
000003b0: 5de9 ccbd ad95 ad3d 67fc 9bbd ba52 92bd
000003c0: b896 cbbc 63e5 973d e831 29bc e35e e73d
000003d0: 1443 e7bb 32ad 15bc e91a 3b3d 4f97 373d
000003e0: 139e 10be 89f3 0b3d d42a 3fbd 4c37 31be
000003f0: 9331 be3d d1c9 2ebc d3cc 993d b03d 0e3d

conv3.bias f4 [64]
-0.10525858 0.09793621 0.11496628 -0.049747262 0.06818877 -0.10604216 0.09868306 0.27945673
0.08784051 -0.3075368 0.074938 -0.21910343 -0.05713527 -0.106569 -0.34833813 -0.3480157
-0.23522192 0.22694416 -0.010115847 -0.05722553 0.0722248 -0.0800533 -0.10608757 -0.00017352827
-0.05575228 0.34472203 -0.09793299 -0.23739783 -0.08609208 0.0040593776 -0.07967123 0.2796432
0.09508505 -0.13382205 0.28542754 -0.26725593 -0.11776154 0.12491443 -0.21918708 -0.06559298
-0.23433547 0.15004298 -0.05886493 -0.062396895 -0.19077314 -0.13078743 0.021308167 -0.065552846
0.08341391 -0.060006008 -0.14745545 -0.02301807 0.28112677 0.056864396 -0.30956128 -0.119264126
-0.35448796 -0.023837397 -0.06529818 0.40052453 0.12197767 -0.11245036 0.30623513 -0.027155092
00000000: cf91 d7bd c892 c83d 7173 eb3d c9c3 4bbd
00000010: 8ea6 8b3d a22c d9bd 581a ca3d f414 8f3e
00000020: bae5 b33d 7775 9dbe 1879 993d a65c 60be
00000030: ac06 6abd d940 dabd 6059 b2be 1d2f b2be
00000040: 04de 70be 0d64 683e f0bc 25bc 5165 6abd
00000050: 99ea 933d fcf2 a3bd 7144 d9bd 24f5 35b9
00000060: 815c 64bd 687f b03e 1791 c8bd 6b18 73be
00000070: 0b51 b0bd 8704 853b ab2a a3bd 652d 8f3e
00000080: f3bb c23d a608 09be 8f23 923e c5d5 88be
00000090: f62c f1bd 23d3 ff3d 9472 60be 9d55 86bd
000000a0: a3f5 6fbe dea4 193e 5a1c 71bd e393 7fbd
000000b0: 095a 43be 24ed 05be 778e ae3c 9240 86bd
000000c0: e9d4 aa3d dcc8 75bd 90fe 16be 6490 bcbc
000000d0: d9ef 8f3e a4ea 683d d17e 9ebe c040 f4bd
000000e0: 727f b5be a546 c3bc 0dbb 85bd 8d11 cd3e
000000f0: 6ecf f93d 604c e6bd daca 9c3e 5b74 debc

conv4.weight f4 [128, 64, 3]
-0.0065695173 -0.011536353 0.03943864 0.04179997 0.042632293 0.027181111 0.037953664 0.06638108
-0.006964487 -0.03030219 0.054717116 0.060952675 0.04213262 0.068103716 -0.09299229 -0.049253132
-0.018058173 -0.033051297 -0.014130527 -0.015185337 0.061381858 0.0053370125 0.044107713 -0.083058566
0.051644374 -0.007855793 0.11275559 -0.041559167 0.036845393 0.040628016 -0.040030126 0.065446004
-0.011490532 0.018343428 -0.005771815 -0.0039468114 0.0076284916 -0.075470604 0.000804894 -0.0858287
-0.08318121 0.12265049 -0.029968968 -0.036327012 0.041973114 -0.058438525 0.026454737 0.017847182
0.06200432 0.010586234 0.014766187 0.07635133 -0.061143648 0.060924545 -0.031675942 -0.061139703
0.039310746 -0.027035814 -0.02293616 0.0019668052 -0.01821596 -0.0051382044 0.048200157 0.076177076
0.065324046 -0.044722594 0.008262902 -0.032364428 -0.028101435 -0.053554848 -0.007933889 0.0037361598
-0.008689622 0.054847218 0.059470877 -0.020066064 -0.056700792 -0.06769899 0.010459438 -0.00049343193
-0.045086484 -0.029571172 0.04608747 0.036377504 0.045936417 -0.043955904 0.0547624 -0.042906325
0.045299616 0.087905504 -0.03232177 -0.07869508 0.1822234 -0.05738486 0.017692283 0.04957345
0.045221403 0.0029860202 -0.044502985 -0.037761733 0.03094761 0.08794817 -0.011855711 0.04627056
0.019970572 0.08143228 0.058343083 0.07140076 -0.046699774 -0.051172204 -0.05564431 0.05007021
0.029905984 -0.0677183 0.015468513 -0.0112706255 0.056885503 -0.022761904 -0.01746063 0.056423236
-0.005994273 0.06318349 0.0898212 -0.041647524 -0.04885247 -0.004331121 -0.06366165 -0.029302318
0.044230897 -0.03146318 -0.01557408 0.0139293885 -0.014266877 -0.009073147 0.065888986 0.080408916
0.07089278 0.019487718 0.014052042 0.04481637 -0.025343018 0.031917002 -0.0728581 -0.048212536
-0.029445942 -0.0034487438 -0.10373006 0.043747347 0.037794337 0.034724876 0.079077266 -0.11307861
-0.02407414 0.03206934 0.080691084 -0.024884192 -0.048366178 0.051206976 -0.028570486 -0.057347532
-0.043922883 -0.038595807 -0.0355555 0.028047895 0.08758581 -0.0049113254 -0.03537642 -0.045675382
-0.0068148137 0.021102639 0.04245599 -0.06516074 0.034860216 -0.0065941475 -0.023597987 0.032999836
0.039938357 0.008622742 -0.020206893 0.029134968 -0.04119608 -0.023246609 -0.12533733 -0.0054970854
-0.0529427 0.049629234 -0.00011246151 0.008155119 -0.008998994 0.054181762 0.0060852724 -0.06503691
-0.01102419 -0.019859407 0.009320835 0.06640321 -0.0041812626 -0.021382522 -0.042779673 0.029062172
-0.05612093 -0.008395485 -0.029068546 0.050751742 0.025337595 0.057694774 -0.096102685 -0.029971594
-0.020445658 -0.015703022 -0.05695662 0.0017847376 -0.017386379 -0.026346894 -0.050925408 -0.06400337
0.025411649 -0.06730814 0.16007198 -0.031955916 -0.032982066 0.04522052 0.060280286 -0.03572376
0.030278634 0.046320535 0.04848755 0.043650296 -0.037075784 0.027964143 0.021162204 0.022737507
-0.10044898 0.045056786 -0.034918867 -0.003337262 -0.01697532 0.012431371 -0.06202721 0.023887947
0.02613943 -0.0883515 0.110945836 0.025925849 -0.061471496 -0.010386514 -0.032257225 0.044349138
-0.04932439 -0.07052555 -0.03207408 0.081997424 -0.0042563844 -0.039870307 0.08094162 0.07957832
00000000: 1b45 d7bb f902 3dbc 698a 213d 7236 2b3d
00000010: 339f 2e3d ecaa de3c 4d75 1b3d cef2 873d
00000020: 5a36 e4bb 4c3c f8bc 0e1f 603d 83a9 793d
00000030: 4193 2c3d f679 8b3d be72 bebd a7bd 49bd
00000040: bcee 93bc cc60 07bd ba83 67bc ebcb 78bc
00000050: 8b6b 7b3d 1be2 ae3b 4aaa 343d 9c1a aabd
00000060: 0d89 533d 96b5 00bc 67ec e63d f239 2abd
00000070: 32eb 163d 9069 263d a1f6 23bd 8e08 863d
00000080: c942 3cbc f544 963c 7e21 bdbb 4154 81bb
00000090: 6df8 f93b 5590 9abd 86ff 523a f5c6 afbd
000000a0: e95a aabd 2e30 fb3d 7b81 f5bc a2cb 14bd
000000b0: 00ec 2b3d 3c5d 6fbd 9bb7 d83c 4134 923c
000000c0: 3ef8 7d3d e271 2d3c e1ed 713c 165e 9c3d
000000d0: c371 7abd 048c 793d a2be 01bd a06d 7abd
000000e0: 4e04 213d 367a ddbc 9de4 bbbc 84e5 003b
000000f0: a339 95bc 625e a8bb 876d 453d ba02 9c3d
00000100: 9dc8 853d 0a2f 37bd 1f61 073c 9090 04bd
00000110: fb34 e6bc 545c 5bbd 24fd 01bc 5cda 743b
00000120: eb5e 0ebc 7aa7 603d bc97 733d 9661 a4bc
00000130: 173f 68bd c5a5 8abd 105e 2b3c a859 01ba
00000140: 9bac 38bd 3e3f f2bc 37c6 3c3d 9400 153d
00000150: d327 3c3d 1b0b 34bd 8a4e 603d 8bbe 2fbd
00000160: 178c 393d cd07 b43d d563 04bd e32a a1bd
00000170: c598 3a3e 630c 6bbd 68ef 903c 880d 4b3d
00000180: 143a 393d 1bb1 433b c348 36bd 0cac 1abd
00000190: d885 fd3c 2c1e b43d 753e 42bc 3386 3d3d
000001a0: 5399 a33c f8c5 a63d 28f9 6e3d 903a 923d
000001b0: 4348 3fbd f299 51bd 4aeb 63bd 6c16 4d3d
000001c0: 65fd f43c e4af 8abd a56f 7d3c 6ea8 38bc
000001d0: c600 693d 2c77 babc 9809 8fbc 0d1c 673d
000001e0: 9b6b c4bb 5866 813d 2df4 b73d 9896 2abd
000001f0: 8719 48bd 14ec 8dbb 0a61 82bd 6a0b f0bc
00000200: 752b 353d 89df 00bd 6d2a 7fbc 1738 643c
00000210: 9fbf 69bc 89a7 14bc cef0 863d 6ead a43d
00000220: 3c30 913d b5a4 9f3c 893a 663c 5f91 373d
00000230: 299c cfbc 67bb 023d a136 95bd 827a 45bd
00000240: 9e38 f1bc 5204 62bb 6d70 d4bd 6b30 333d
00000250: 3cce 1a3d ac3b 0e3d 43f3 a13d c295 e7bd
00000260: 2137 c5bc 245b 033d 5e41 a53d efd9 cbbc
00000270: 9d1b 46bd 68be 513d a70c eabc 3fe5 6abd
00000280: 7be8 33bd a316 1ebd a5a2 11bd b3c4 e53c
00000290: 3060 b33d 2fef a0bb dde6 10bd 1c16 3bbd
000002a0: cd4e dfbb 71df ac3c 55e6 2d3d fe72 85bd
000002b0: 96c9 0e3d b813 d8bb 9150 c1bc d62a 073d
000002c0: 6796 233d 6746 0d3c ed88 a5bc 75ac ee3c
000002d0: 39bd 28bd ac6f bebc 6e58 00be e520 b4bb
000002e0: 72da 58bd 0648 4b3d 50d9 ebb8 0c9d 053c
000002f0: 8470 13bc b2ed 5d3d f766 c73b 1232 85bd
00000300: ce9e 34bc 32b0 a2bc 6ab6 183c 68fe 873d
00000310: f902 89bb 662a afbc bd39 2fbd cb13 ee3c
00000320: 0fdf 65bd 378d 09bc 2921 eebc 0fe1 4f3d
00000330: ca90 cf3c 5b51 6c3d 7cd1 c4bd fd86 f5bc
00000340: a77d a7bc a0a3 80bc 584b 69bd dbed e93a
00000350: e16d 8ebc 71d5 d7bc 2997 50bd 3314 83bd
00000360: 172c d03c dad8 89bd e9e9 233e 35e4 02bd
00000370: 3418 07bd 2739 393d 76e8 763d 1453 12bd
00000380: e60a f83c 9aba 3d3d e29a 463d a7ca 323d
00000390: c7dc 17bd 0f15 e53c 5c5c ad3c 0244 ba3c
000003a0: 32b8 cdbd 778d 383d 1607 0fbd f7b5 5abb
000003b0: d40f 8bbc f3ac 4b3c 3e10 7ebd a8b0 c33c
000003c0: 5c22 d63c a2f1 b4bd 9237 e33d 7262 d43c
000003d0: 89c9 7bbd 322c 2abc 2720 04bd 71a7 353d
000003e0: 5f08 4abd b36f 90bd 1c60 03bd 44ee a73d
000003f0: 2479 8bbb 0c4f 23bd b8c4 a53d f5f9 a23d

conv4.bias f4 [128]
-0.12727337 -0.17113493 -0.16100843 -0.2376489 -0.1434396 0.09770598 -0.1361925 -0.19343714
0.18085624 -0.24187322 -0.18992142 -0.06894659 -0.0107746655 -0.13268368 0.16509192 -0.19617811
-0.10836762 -0.14831267 -0.16376773 -0.21076588 -0.09894613 -0.14806856 -0.16409366 -0.16272424
0.049942266 -0.14489654 0.10312563 -0.13462119 -0.15694469 0.10080722 -0.18635716 -0.14845787
0.007968928 -0.19092336 0.11475049 -0.11658229 0.05612044 -0.12351797 -0.20237096 -0.18168005
0.05840369 0.11764623 0.10550366 -0.24581452 -0.14121494 0.12344351 -0.14838892 0.020704513
-0.2125947 -0.19406596 0.018627519 -0.15399481 -0.12028263 -0.24429315 0.11669998 -0.18199427
-0.19194295 -0.16958259 -0.14806576 -0.2134955 -0.11650597 -0.20817831 0.100894906 -0.12233214
-0.16810903 0.05478025 0.05184442 0.05806757 -0.069567874 -0.09905563 0.10840524 0.05250592
0.041689552 0.15938748 0.13302174 0.04641694 0.07319401 0.019204792 0.14080058 0.08164965
-0.109067835 0.17186388 0.15424132 0.03859029 0.122385584 -0.24020915 0.025349285 -0.1712379
-0.22539791 -0.14984518 0.12690261 -0.24592975 -0.19444089 -0.12893322 -0.20420583 -0.19793436
0.14045331 0.21180685 -0.12770598 0.054867912 -0.16752636 -0.13812046 -0.12478566 0.14509901
-0.07855762 -0.17596848 -0.18442844 -0.04338059 -0.21221006 0.06748579 -0.19792984 -0.22978924
0.11058764 -0.11822517 0.11284534 -0.13348086 0.040293314 0.059769914 -0.12715602 -0.17662837
-0.07765978 -0.19257265 -0.1626766 -0.19936524 0.14561218 -0.262937 -0.20293501 -0.21732815
00000000: f353 02be ff3d 2fbe 65df 24be 3c5a 73be
00000010: d5e1 12be 131a c83d 0c76 0bbe 6314 46be
00000020: 6132 393e 9dad 77be c37a 42be df33 8dbd
00000030: 3988 30bc 3bde 07be db0d 293e eae2 48be
00000040: d8ef ddbd 47df 17be bab2 27be 03d3 57be
00000050: 45a4 cabd 499f 17be 2b08 28be 2fa1 26be
00000060: 4390 4c3d c25f 14be 8833 d33d 23da 09be
00000070: 1cb6 20be 0474 ce3d 69d4 3ebe 5705 18be
00000080: 1b90 023c 6a81 43be 4e02 eb3d b2c2 eebd
00000090: 8cde 653d fdf6 fcbd 553a 4fbe 560a 3abe
000000a0: b538 6f3d 82f0 f03d 4e12 d83d cdb6 7bbe
000000b0: a69a 10be f3cf fc3d 44f3 17be 839c a93c
000000c0: 6db2 59be 3ab9 46be bd98 983c d1b0 1dbe
000000d0: bd56 f6bd fc27 7abe 6600 ef3d b55c 3abe
000000e0: b18c 44be 0fa7 2dbe 8d9e 17be 909e 5abe
000000f0: af9a eebd b22c 55be fda1 ce3d 4689 fabd
00000100: c624 2cbe 4161 603d d15a 543d 43d8 6d3d
00000110: 9a79 8ebd aedd cabd 9103 de3d 7310 573d
00000120: aac2 2a3d 7936 233e da36 083e b01f 3e3d
00000130: bee6 953d 5e53 9d3c 072e 103e ef37 a73d
00000140: f55e dfbd 16fd 2f3e 70f1 1d3e da10 1e3d
00000150: 4ba5 fa3d 63f9 75be 4ea9 cf3c fd58 2fbe
00000160: b6ce 66be 0471 19be c2f2 013e 02d5 7bbe
00000170: 831b 47be 1207 04be 551b 51be 4eaf 4abe
00000180: fed2 0f3e e5e3 583e 5bc5 02be 2dbd 603d
00000190: 088c 2bbe 736f 0dbe a08f ffbd d694 143e
000001a0: d1e2 a0bd 1531 34be cfda 3cbe d8af 31bd
000001b0: 984d 59be fd35 8a3d 1fae 4abe df4d 6bbe
000001c0: c67b e23d 0a20 f2bd 751b e73d 35af 08be
000001d0: 9a0a 253d 4cd1 743d 3035 02be 11de 34be
000001e0: 170c 9fbd c431 45be b294 26be 6726 4cbe
000001f0: 5c1b 153e ae9f 86be 32ce 4fbe 458b 5ebe

fc1.weight f4 [32, 128]
-0.063050404 -0.12623557 -0.0023154488 -0.0824427 -0.097487554 0.0718303 0.01018859 0.0061951485
0.10361635 0.025182664 -0.019146614 -0.070109084 -0.022550631 0.0133043425 0.13216968 -0.008637379
-0.11907018 -0.0008033944 -0.11516563 -0.012506414 -0.016048087 -0.018000046 -0.113050185 0.031618904
0.09536108 -0.021983985 0.17851739 -0.055311076 0.02216954 0.03885993 -0.07623191 0.0177556
0.17181359 0.03281929 0.08875817 -0.07676005 0.1510064 -0.106938265 0.012137013 -0.012995397
0.13460882 0.061587755 0.08003489 -0.06395667 -0.071898185 0.15359206 0.020737898 0.09009652
0.01522722 -0.0038618364 -0.02236758 -0.043724973 -0.108355105 -0.077609025 0.13037749 -0.088508874
-0.099680856 -0.09995468 -0.032693014 -0.10033347 -0.065521196 -0.0858139 0.09540042 0.021115638
-0.05306841 0.04989112 0.21006823 0.04643068 -0.043363977 -0.04460718 0.078726456 0.06492387
0.0434514 0.1278269 0.14605036 0.05298605 0.059306387 0.13552637 0.0308073 0.10684205
-0.11950326 0.08088294 0.09374228 -0.040862955 0.1445633 -0.10315373 0.031124601 -0.08101266
-0.037106976 -0.06567037 0.13275349 0.0058515123 -0.056752976 -0.08979423 0.013582078 -0.004304471
0.057009652 0.14131199 -0.10982413 0.027243849 0.008614463 -0.035303336 -0.025073424 0.1308967
-0.12310607 -0.029755697 -0.034916926 -0.024511104 -0.09607132 0.06530976 0.003825025 0.008968605
0.077897966 -0.019703472 0.11577269 0.013660839 0.023926549 0.07670771 -0.092000395 -0.09744038
-0.045653407 -0.107678495 -0.11221777 -0.10807552 0.1497281 -0.043083437 -0.0023317712 -0.035576865
0.059217975 0.01853259 0.04437794 0.021177525 0.04879808 -0.14730982 0.09980179 0.069805734
-0.12056639 0.00096707355 -0.044538125 0.01677381 0.077290036 0.06474616 -0.10559718 0.08305986
0.022175634 0.08389384 0.10284908 0.11551281 0.121670514 0.11737464 -0.042146213 -0.017085185
-0.07900173 0.036918912 -0.07166711 0.02208271 0.07226413 -0.12654828 -0.019728614 0.09195582
-0.142115 0.08401847 -0.024027457 0.05149836 -0.14448275 0.061069295 0.05113286 0.045374114
-0.06154483 -0.07555904 -0.10002098 0.09610182 0.0018169573 -0.016531011 -0.014332016 0.009670934
0.07104084 -0.03132465 -0.049393676 0.05878614 0.094320625 0.096506245 -0.15222456 0.003294057
-0.0056334967 0.009299609 -0.04873206 0.08972317 0.09238449 0.05249001 -0.028281579 0.077366784
0.014648702 -0.036102425 -0.08356409 -0.089437164 -0.047514517 0.09533625 -0.13648048 -0.15393779
0.032402575 -0.15308663 -0.057481464 -0.09839543 -0.09882824 -0.13911551 -0.087109484 -0.13759403
0.086717635 -0.016147278 -0.08597081 -0.072388895 -0.12328545 -0.026975086 -0.107630014 0.045877688
0.086628154 0.108275026 -0.14728537 0.04440935 0.10159513 0.04164433 0.027437132 0.036089126
-0.121400565 -0.10343969 0.08369366 -0.050528172 0.05525795 -0.020652482 0.027344342 -0.15228263
-0.015958698 0.026516994 0.023088703 -0.0051826793 -0.0063133845 -0.12548395 0.01776631 0.056712624
-0.12684096 0.049206726 -0.09034148 0.09473179 -0.14863019 -0.11053744 -0.02404506 0.023497991
-0.018334514 0.122926585 0.047020447 -0.045235388 -0.052578665 -0.03552551 -0.0137621425 -0.0029121612
00000000: 9220 81bd e643 01be c9be 17bb b8d7 a8bd
00000010: 8ea7 c7bd c41b 933d 0bee 263c ac00 cb3b
00000020: cf34 d43d e04b ce3c 5cd9 9cbc 5a95 8fbd
00000030: 1abc b8bc 75fa 593c 7d57 073e cb83 0dbc
00000040: 11db f3bd e39a 52ba f5db ebbd b4e7 4cbc
00000050: 4777 83bc d574 93bc db86 e7bd d382 013d
00000060: ab4c c33d c217 b4bc 43cd 363e de8d 62bd
00000070: e59c b53c 972b 1f3d 7a1f 9cbd 3174 913c
00000080: e7ef 2f3e 856d 063d d8c6 b53d 6034 9dbd
00000090: 6ca1 1a3e 7302 dbbd 52da 463c a5ea 54bc
000000a0: e5d6 093e 7143 7c3d 55e9 a33d b7fb 82bd
000000b0: 5b3f 93bd 3d47 1d3e 86e2 a93c 8684 b83d
000000c0: 977b 793c dd16 7dbb 373c b7bc f518 33bd
000000d0: 48e9 ddbd 7bf1 9ebd ad81 053e 2444 b5bd
000000e0: 7a25 ccbd 0ab5 ccbd 1ce9 05bd a27b cdbd
000000f0: fa2f 86bd 33bf afbd 4c61 c33d b4fa ac3c
00000100: 435e 59bd a25a 4c3d 201c 573e 192e 3e3d
00000110: 6d9e 31bd 05b6 36bd 563b a13d cef6 843d
00000120: 18fa 313d 0ee5 023e 3a8e 153e e607 593d
00000130: 41eb 723d 6dc7 0a3e 975f fc3c 01d0 da3d
00000140: 20be f4bd f4a5 a53d f4fb bf3d ea5f 27bd
00000150: 6708 143e 4342 d3bd 05f9 fe3c f7e9 a5bd
00000160: 7cfd 17bd 307e 86bd 88f0 073e 0bbe bf3b
00000170: cf75 68bd 0ae6 b7bd 5d87 5e3c 850c 8dbb
00000180: f482 693d 17b4 103e 79eb e0bd 7e2e df3c
00000190: ad23 0d3c 3b9a 10bd c866 cdbc c909 063e
000001a0: 091f fcbd 38c2 f3bc 0d05 0fbd 83cb c8bc
000001b0: 0ac1 c4bd 20c1 853d 45ad 7a3b 0ef1 123c
000001c0: f888 9f3d 2d69 a1bc 3b1a ed3d b6d1 5f3c
000001d0: 9c01 c43c ef18 9d3d b46a bcbd d28e c7bd
000001e0: 11ff 3abd 8b86 dcbd 6ed2 e5bd b356 ddbd
000001f0: 5352 193e 4278 30bd a1d0 18bb 0cb9 11bd
00000200: 8c8e 723d a8d1 973c a5c5 353d 7d7c ad3c
00000210: 7fe0 473d 63d8 16be e264 cc3d 4ff6 8e3d
00000220: 83eb f6bd 3583 7d3a 9c6d 36bd 3b69 893c
00000230: 3d4a 9e3d a299 843d 5643 d8bd 4a1b aa3d
00000240: ada9 b53c 89d0 ab3d 8aa2 d23d fb91 ec3d
00000250: 642e f93d 1e62 f03d 82a1 2cbd 3bf6 8bbc
00000260: a9cb a1bd 4938 173d 35c6 92bd cde6 b43c
00000270: 37ff 933d df95 01be e79d a1bc 5553 bc3d
00000280: 9886 11be e011 ac3d 3bd5 c4bc f2ef 523d
00000290: 49f3 13be cc23 7a3d b170 513d 35da 393d
000002a0: 6f16 7cbd b3be 9abd cdd7 ccbd 08d1 c43d
000002b0: f826 ee3a 0b6c 87bc d5d0 6abc d672 1e3c
000002c0: dc7d 913d 474e 00bd 0651 4abd bcc9 703d
000002d0: 2c2b c13d 11a5 c53d c1e0 1bbe 1be1 573b
000002e0: 3299 b8bb 635d 183c 459b 47bd c8c0 b73d
000002f0: 1434 bd3d c4ff 563d c5ae e7bc 7a72 9e3d
00000300: 1c01 703c 23e0 13bd a623 abbd d52a b7bd
00000310: 959e 42bd a73f c33d 8ac1 0bbe dea1 1dbe
00000320: 90b8 043d bec2 1cbe af71 6bbd 8b83 c9bd
00000330: 7666 cabd 4c74 0ebe 7566 b2bd 73e5 0cbe
00000340: 0499 b13d 4c47 84bc 7711 b0bd a140 94bd
00000350: 157d fcbd dbfa dcbc 206d dcbd 3eea 3b3d
00000360: 1a6a b13d 4cbf dd3d fad1 16be 94e6 353d
00000370: 1c11 d03d 3f93 2a3d d6c3 e03c 31d2 133d
00000380: dca0 f8bd 30d8 d3bd 9567 ab3d a1f6 4ebd
00000390: 2956 623d 652f a9bc 3e01 e03c faef 1bbe
000003a0: d1bb 82bc 2b3a d93c 8524 bd3c 77d3 a9bb
000003b0: 82e0 cebb dd7e 00be a78a 913c 7f4b 683d
000003c0: 99e2 01be fe8c 493d f404 b9bd be02 c23d
000003d0: 8332 18be 7461 e2bd 25fa c4bc dc7e c03c
000003e0: 4332 96bc efc0 fb3d 8398 403d be48 39bd
000003f0: ba5c 57bd 3283 11bd 9c7a 61bc f5d9 3ebb

fc1.bias f4 [32]
-0.1337293 0.07622043 -0.109202966 0.094437666 0.10810191 -0.03449817 0.14991446 -0.093474016
0.035998397 0.022826428 -0.09071135 0.00060933747 0.13155182 0.054782998 -0.09082783 -0.045104668
0.012136748 0.055634495 0.06316717 -0.015031941 0.042527232 0.016537327 -0.06258203 0.10269719
-0.03715755 -0.09043741 0.0041518523 -0.013291674 -0.080246 -0.07836677 0.020048866 -0.068509154
00000000: 55f0 08be 7519 9c3d cea5 dfbd 8968 c13d
00000010: 8964 dd3d f44d 0dbd 2d83 193e 4e6f bfbd
00000020: 0e73 133d 7dfe ba3c dfc6 b9bd f2bb 1f3a
00000030: 85b5 063e 2364 603d f103 babd acbf 38bd
00000040: 36d9 463c ffe0 633d ca5d 813d 8848 76bc
00000050: 0931 2e3d 4a79 873c 022b 80bd e852 d23d
00000060: 8432 18bd 4037 b9bd 430c 883b 52c5 59bc
00000070: 0458 a4bd c27e a0bd 853d a43c 874e 8cbd

fc2.weight f4 [1, 32]
0.14750239 -0.15791327 0.110061094 -0.19619635 -0.10548342 0.21088077 -0.14381935 0.08633511
-0.21520944 -0.19556685 0.21017578 0.12610936 -0.10246193 -0.17661203 0.12268954 0.16684413
0.12831223 -0.12767339 -0.09467154 0.12952317 -0.17164424 -0.18623853 0.2046774 -0.13467233
0.16044712 0.18038076 0.100977264 0.2100737 0.09738486 0.1884552 -0.17813668 0.15894054
00000000: de0a 173e 04b4 21be b667 e13d b2e7 48be
00000010: b107 d8bd 21f1 573e 6145 13be 76d0 b03d
00000020: dd5f 5cbe ad42 48be 5238 573e d022 013e
00000030: 8fd7 d1bd c9d9 34be a744 fb3d 30d9 2a3e
00000040: 4864 033e d0bc 02be 27e3 c1bd b9a1 043e
00000050: 82c3 2fbe 50b5 3ebe f496 513e 8be7 09be
00000060: 404c 243e bcb5 383e 2bcd ce3d 8f1d 573e
00000070: b771 c73d 66fa 403e 7669 36be 4fc1 223e
