checkpoints/CNN1D/window480_lr0.00010_batch512_fold0_completed.pth (torch, 456394 bytes, 33 tensors)

conv1.weight f4 [16, 1, 3]
-0.054124713 0.64060533 -0.35948592 0.2020496 0.6782923 -0.34649947 0.2593596 -0.05500925
-0.49444342 -0.054891482 -0.019725217 -0.24136467 0.12665503 -0.022053638 -0.15247746 -0.4439212
-0.32950285 -0.5916594 -0.57239896 0.2922672 0.20981908 0.5346445 0.1384174 0.57590455
-0.27272856 0.25110176 -0.36154976 0.33553684 0.041829668 0.6722906 0.043435507 0.012872284
0.69685405 -0.47107476 -0.0026048508 0.6367001 0.097647734 -0.2982566 -0.3562111 -0.5685076
-0.21195653 -0.35139856 -0.23319773 0.49041086 -0.53283155 -0.42637223 -0.38823852 0.038213134
00000000: e0b1 5dbd b6fe 233f 8a0e b8be 17e6 4e3e
00000010: 90a4 2d3f 6168 b1be c8ca 843e 6151 61bd
00000020: b027 fdbe e4d5 60bd c796 a1bc 4d28 77be
00000030: dbb1 013e d5a9 b4bc 0d23 1cbe a449 e3be
00000040: 99b4 a8be fe76 17bf bd88 12bf 0ca4 953e
00000050: d0da 563e 76de 083f 4abd 0d3e 7b6e 133f
00000060: 14a3 8bbe 6990 803e 0d1d b9be 7ccb ab3e
00000070: 9655 2b3d 3d1b 2c3f 6ee9 313d 46e6 523c
00000080: 0765 323f b630 f1be 25b6 2abb c7fe 223f
00000090: 89fb c73d 17b5 98be 4d61 b6be b789 11bf
000000a0: 220b 59be 83ea b3be 63cb 6ebe 2217 fb3e
000000b0: a667 08bf 764d dabe 33c7 c6be 6085 1c3d

conv1.bias f4 [16]
0.85289544 0.31391883 -0.32040942 -0.24333166 0.37972146 0.49069077 -0.06289592 -0.036280278
0.39012724 0.3951882 0.48752493 0.5851211 0.28101084 0.2683938 -0.46000934 0.2229919
00000000: 5b57 5a3f f8b9 a03e b40c a4be ef2b 79be
00000010: da6a c23e d23b fb3e 93cf 80bd a19a 14bd
00000020: c2be c73e 1c56 ca3e de9c f93e 7fca 153f
00000030: a7e0 8f3e ea6a 893e 5886 ebbe fd57 643e

conv2.weight f4 [32, 16, 3]
0.1536052 0.010932519 -0.14216597 0.07562816 0.17856137 -0.15317081 -0.08842091 0.08978144
0.15925989 0.13356255 0.022574123 0.032748386 0.20081303 0.035299372 -0.08371786 0.079309724
0.028443485 -0.011171436 -0.09390018 0.14307065 -0.03380725 0.0709131 0.11628145 -0.108096026
0.011742804 0.10307316 -0.11999721 0.115814716 -0.0156733 -0.23045959 0.01579345 0.1116046
-0.2222802 0.056937527 0.28199157 0.02082807 -0.0026928335 0.14149071 -0.12230434 -0.11981733
-0.10808204 0.06982268 0.04207652 -0.018573092 -0.005137713 -0.1472974 -0.12525755 0.14774244
0.08811768 0.16970792 0.0144110285 -0.108122505 0.15620886 0.003930539 -0.099795625 0.062430672
0.0951004 -0.09866374 0.09171238 0.13594526 0.18043143 0.048613578 -0.08125103 0.056133732
-0.008610864 -0.025209486 -0.02044202 0.04270477 0.1168637 -0.0440285 0.07942553 -0.17349833
-0.09179326 0.037582062 -0.039758258 0.04003906 0.17663576 -0.12871027 -0.020645088 0.21499506
-0.12845832 0.049293302 0.33054605 0.01232361 -0.062185634 -0.076700695 0.06878933 0.018362489
-0.15584508 0.035632383 0.005983519 0.123986565 -0.055975083 -0.020151634 -0.06907096 0.072164714
-0.059860744 0.15118496 -0.22544058 0.12666294 0.08363578 -0.2601387 0.07587832 0.06771148
-0.06264039 0.005776642 -0.036707643 0.09641535 0.082837366 0.028535591 -0.09665704 0.12390426
-0.0010575784 0.013929283 0.065578386 0.018297346 0.031196708 0.07961604 0.04366384 -0.19079043
0.14074741 0.11465382 0.11572985 -0.06597683 0.07316893 0.005131744 -0.008409001 0.0063432516
-0.04314303 0.04389018 -0.015034859 0.05952209 -0.05031399 0.071414955 0.060783047 -0.01291067
0.053451493 0.08449685 -0.06738003 -0.06174342 -0.037928984 -0.04315203 0.13130984 -0.044876616
-0.026394658 -0.026587559 0.09596691 0.16480844 0.016508961 0.026292127 -0.0058971583 -0.105071746
0.03063658 -0.070711724 0.14904955 -0.1273374 -0.0063704527 0.13766146 -0.04853186 0.0007162049
-0.1195672 0.053027898 0.08444514 0.03536685 -0.039013848 -0.028866297 -0.10039039 -0.109250166
0.13044229 0.007071766 0.0061691743 0.1487848 0.075425625 0.047393635 0.047092818 0.10015678
0.1295068 -0.016588679 0.1146448 0.27317634 0.13722143 0.15614942 0.030036232 0.14236741
-0.03290085 -0.06860869 -0.059520703 -0.095577866 -0.098961644 0.08879643 -0.1340666 0.12948732
0.1876757 0.26481467 -0.092001945 0.2084694 0.20308463 -0.23040126 0.099280074 0.050717536
-0.13647586 0.10606014 -0.10548671 -0.087601475 0.09768073 0.053858675 0.04240622 -0.045947123
0.063641295 -0.09596337 -0.1266289 -0.008723097 -0.051258508 0.19708556 0.1837235 -0.23481652
-0.10841795 0.12104853 0.06647182 0.15467599 0.22080272 -0.14921454 -0.040112134 -0.012681031
-0.16669643 -0.118143186 0.18279806 -0.09308396 0.11682608 0.113507815 0.057668313 0.054304283
0.0007975479 -0.029236658 0.074793175 0.14271393 -0.119817205 -0.065926306 0.12667596 0.0071920874
-0.054744992 -0.03878569 -0.036115717 -0.06218115 0.15061039 -0.17665114 0.060447104 0.12522973
0.0037122213 -0.04746651 0.094426624 -0.09008423 -0.0035733737 0.026661629 -0.08044329 -0.11936182
00000000: ae4a 1d3e 4f1e 333c f593 11be f0e2 9a3d
00000010: cbd8 363e cfd8 1cbe 0616 b5bd 55df b73d
00000020: 0615 233e 9fc4 083e 5eed b83c 2c23 063d
00000030: eea1 4d3e 1396 103d 4574 abbd 236d a23d
00000040: 5002 e93c 6608 37bc bd4e c0bd 1d81 123e
00000050: 7979 0abd e33a 913d f824 ee3d 7361 ddbd
00000060: e464 403c 0518 d33d 19c1 f5bd 4430 ed3d
00000070: 4b65 80bc 99fd 6bbe 4461 813c f490 e43d
00000080: 6c9d 63be 5337 693d 3361 903e a19f aa3c
00000090: 407a 30bb f1e2 103e b37a fabd ca62 f5bd
000000a0: 1e5a ddbd 31ff 8e3d 6e58 2c3d 9926 98bc
000000b0: 435a a8bb 21d5 16be 8443 00be cb49 173e
000000c0: 0b77 b43d eac7 2d3e 3c1c 6c3c 556f ddbd
000000d0: 37f5 1f3e c0cb 803b a661 ccbd 4eb7 7f3d
000000e0: 00c4 c23d 3710 cabd b3d3 bb3d 3c35 0b3e
000000f0: 04c3 383e 081f 473d f166 a6bd 7cec 653d
00000100: 9514 0dbc 2084 cebc 0676 a7bc 32eb 2e3d
00000110: 3c56 ef3d 3a57 34bd daa9 a23d 8ca9 31be
00000120: 1bfe bbbd a6ef 193d 8ed9 22bd ffff 233d
00000130: 01e0 343e a0cc 03be e31f a9bc aa27 5c3e
00000140: 948a 03be c6e7 493d 553d a93e f7e8 493c
00000150: 5db6 7ebd 4115 9dbd 6ce1 8c3d ee6c 963c
00000160: da95 1fbe 43f3 113d 6511 c43b abec fd3d
00000170: 2146 65bd 0a15 a5bc 1375 8dbd 18cb 933d
00000180: 8a30 75bd 3bd0 1a3e e5d9 66be eeb3 013e
00000190: 3c49 ab3d e630 85be 1866 9b3d 51ac 8a3d
000001a0: 9b49 80bd fc49 bd3b c15a 16bd 6975 c53d
000001b0: a3a6 a93d 79c3 e93c 20f4 c5bd 84c1 fd3d
000001c0: 719e 8aba a637 643c f64d 863d 51e4 953c
000001d0: 3d90 ff3c bc0d a33d dbd8 323d 915e 43be
000001e0: 1720 103e 9fcf ea3d c603 ed3d dc1e 87bd
000001f0: 98d9 953d 3028 a83b e8c5 09bc 0ddb cf3b
00000200: bfb6 30bd 30c6 333d c554 76bc 6fcd 733d
00000210: 0b16 4ebd 0142 923d a5f7 783d 4687 53bc
00000220: f4ef 5a3d af0c ad3d 8bfe 89bd abe6 7cbd
00000230: 6c5b 1bbd 2fc0 30bd 1676 063e 8bd0 37bd
00000240: 9c39 d8bc 27ce d9bc 4d8a c43d 8bc3 283e
00000250: cd3d 873c 9662 d73c f33c c1bb db2f d7bd
00000260: 91f9 fa3c 4fd1 90bd 72a0 183e bc64 02be
00000270: 3bbf d0bb 20f7 0c3e 58c9 46bd b2bf 3b3a
00000280: a6df f4bd c833 593d 93f1 ac3d d5dc 103d
00000290: fccc 1fbd 0379 ecbc 7a99 cdbd 8dbe dfbd
000002a0: aa92 053e 46ba e73b c926 ca3b 0b5b 183e
000002b0: c078 9a3d d41f 423d 66e4 403d ff1e cd3d
000002c0: 6e9d 043e fbe4 87bc e5ca ea3d c5dd 8b3e
000002d0: c683 0c3e a2e5 1f3e 8b0e f63c c3c8 113e
000002e0: 0bc3 06bd b682 8cbd fbcb 73bd 54be c3bd
000002f0: 67ac cabd e7da b53d c148 09be 5398 043e
00000300: 0f2e 403e ca95 873e 846b bcbd 0179 553e
00000310: 6bf5 4f3e 4fee 6bbe 5a53 cb3d 31bd 4f3d
00000320: 54c0 0bbe 0f36 d93d 6b09 d8bd 6768 b3bd
00000330: d60c c83d ea9a 5c3d 25b2 2d3d 0d33 3cbd
00000340: 5e56 823d 7188 c4bd 02ab 01be 52eb 0ebc
00000350: 71f4 51bd ccd0 493e 0322 3c3e be73 70be
00000360: 3b0a debd 4be8 f73d 6122 883d 6263 1e3e
00000370: 1c1a 623e b2cb 18be 9f4c 24bd 19c4 4fbc
00000380: 78b2 2abe 0ef5 f1bd 6a2f 3b3e cea2 bebd
00000390: 8342 ef3d c976 e83d 9c35 6c3d 2b6e 5e3d
000003a0: 8912 513a b781 efbc 2a2d 993d 9a23 123e
000003b0: b962 f5bd 5f04 87bd 58b7 013e 9aab eb3b
000003c0: 493c 60bd bedd 1ebd 13ee 13bd a9b1 7ebd
000003d0: 9c39 1a3e 09e4 34be 6297 773d 393c 003e
000003e0: bd48 733b 3e6c 42bd bf62 c13d 157e b8bd
000003f0: 432f 6abb 7d69 da3c 74bf a4bd f873 f4bd

conv2.bias f4 [32]
0.39910805 0.2131538 0.24797691 0.30014926 0.41821814 0.026865687 -0.036562406 0.2672908
-0.018061534 0.1076707 -0.15343836 -0.13631234 0.118778504 -0.011591609 0.026344476 0.07310307
0.12755603 -0.13809682 0.1803259 0.016744988 -0.22303641 0.09508721 -0.0016834758 -0.10317422
0.030654954 -0.15763634 0.12351113 -0.09351945 0.13291204 0.096854866 -0.32672015 0.11611073
00000000: e457 cc3e fd44 5a3e a9ed 7d3e 2aad 993e
00000010: b020 d63e 6e15 dc3c 76c2 15bd 57da 883e
00000020: c8f5 93bc 7582 dc3d f21e 1dbe 7695 0bbe
00000030: 2542 f33d bbea 3dbc 5fd0 d73c 10b7 953d
00000040: 0c9e 023e 4169 0dbe 5aa7 383e c92c 893c
00000050: a863 64be 15bd c23d 13a8 dcba 014d d3bd
00000060: 1920 fb3c 6c6b 21be 67f3 fc3d 2087 bfbd
00000070: 181a 083e d85b c63d dd47 a7be 76cb ed3d

conv3.weight f4 [64, 32, 3]
-0.022468822 0.09415735 -0.13735501 -0.022525512 0.17505215 -0.13396657 0.04877076 0.06640297
-0.04144691 0.08492548 0.064596266 0.016428798 0.034491695 -0.009021107 -0.12547559 0.055053197
0.050161373 0.05547643 0.043735016 -0.07051658 0.07856965 -0.044843093 -0.052705504 -0.05806755
0.00860506 -0.0042182 -0.009742223 -0.0048739775 -0.021199694 0.057996836 0.053643525 -0.09625392
0.02504752 0.067774326 -0.07332339 0.036504433 0.085019514 0.08230767 -0.11728877 -0.017140726
0.055441093 -0.1358684 0.09348176 -0.027518868 -0.1287476 0.06086794 -0.070492275 -0.1362783
-0.03535368 0.012599455 -0.12277499 0.05233535 0.037092254 0.08510396 -0.009693819 0.20208043
-0.13629816 0.014478039 0.08728276 -0.0748109 0.02755579 -0.10891404 0.024826448 0.010256407
0.07876194 -0.014413816 0.109809354 0.023471076 -0.086570956 -0.060579218 -0.015697189 0.0037123892
0.05967452 -0.10232945 -0.08109772 0.05761552 0.013460182 -0.06791464 0.097335905 0.008163324
-0.12644736 0.033148497 -0.06074217 -0.0815315 0.0482124 0.16076155 0.01766433 -0.009695547
0.07621957 -0.058220748 -0.0505992 -0.040917322 -0.09409947 0.015519989 0.057505075 -0.1195987
0.03639704 0.01875241 0.021854265 0.10542943 0.0071817054 0.03391133 -0.009658228 -0.0030621164
-0.03489896 0.07153591 -0.011299585 -0.14948764 0.02362536 0.01879219 -0.15845019 0.046344098
0.04137403 -0.10018222 0.041941173 0.06632068 -0.085059114 -0.07083282 0.072187744 -0.04411001
0.02884957 0.10859894 -0.14809111 -0.05590225 0.08709666 -0.012945984 -0.021175183 0.05710538
-0.10205593 0.05951815 0.070953794 -0.0006525434 0.05782448 -0.12040218 -0.18786222 0.01971138
0.17803715 -0.13338523 0.095159605 0.10473931 -0.095477305 0.013721161 0.059146795 0.034239728
0.06265801 0.08818251 -0.065066256 0.0066599324 -0.032173514 -0.09763908 0.16831392 -0.044107463
-0.03381457 0.09599696 0.060594294 -0.101652056 -0.02919543 -0.011905454 -0.12099231 -0.10391636
0.059619747 -0.07439659 0.0011010335 -0.009472535 -0.056842778 0.028811393 0.016646411 -0.0744998
-0.009075301 0.11849208 0.044647396 0.028817374 -0.03236179 -0.00079533405 0.064227626 0.09399003
0.009418857 -0.0428818 0.087359205 -0.1363021 -0.19419822 0.032478984 -0.01952307 0.076805495
0.09666636 -0.09918341 -0.038704135 0.18527724 -0.12329921 0.17108755 0.18815646 -0.023048505
-0.021201307 0.017795328 -0.0005139448 -0.05339841 -0.061088294 0.23741268 -0.09878162 -0.11221087
-0.038223024 0.04997387 -0.031137869 -0.041184284 0.025063923 -0.06473084 0.083982095 0.025445934
0.03511644 0.042225853 -0.09041146 0.007843211 0.056510996 -0.08441029 0.014754207 0.04099095
-0.03026055 -0.11552873 0.09913066 0.056613095 -0.02149749 -0.1227492 0.030363854 0.050558053
-0.017188752 -0.0037568384 -0.07161535 -0.097878955 -0.02503113 -0.01739899 -0.08537926 -0.108026706
-0.0059977705 0.1677403 0.04648886 -0.03301547 0.019848442 0.052573234 -0.07371756 -0.023266818
-0.07811978 0.09406403 -0.05915148 -0.09559037 0.009849943 0.056671947 -0.0040667695 -0.032225594
-0.07646484 0.008146718 -0.008649515 0.033862565 -0.050342683 -0.039160535 0.06467096 0.016532894
00000000: 8910 b8bc 92d5 c03d cba6 0cbe 6c87 b8bc
00000010: df40 333e 882e 09be d9c3 473d 48fe 873d
00000020: 3cc4 29bd 69ed ad3d 0c4b 843d b095 863c
00000030: 2a47 0d3d 44cd 13bc ac7c 00be 767f 613d
00000040: 0376 4d3d 413b 633d 7d23 333d ff6a 90bd
00000050: 20e9 a03d 64ad 37bd bae1 57bd 3dd8 6dbd
00000060: 3dfc 0c3c d438 8abb d89d 1fbc e3b5 9fbb
00000070: fbaa adbc 178e 6d3d 50b9 5b3d c620 c5bd
00000080: 7530 cd3c 44cd 8a3d 932a 96bd ac85 153d
00000090: b61e ae3d ec90 a83d 1835 f0bd b56a 8cbc
000000a0: 3316 633d 1621 0bbe 5d73 bf3d 406f e1bc
000000b0: 69d6 03be a950 793d 415e 90bd 8a8c 0bbe
000000c0: 05cf 10bd f26d 4e3c 7471 fbbd 985d 563d
000000d0: 0cee 173d fc4a ae3d d3d2 1ebc 2cee 4e3e
000000e0: bf91 0bbe 4c35 6d3c 4ec1 b23d 7536 99bd
000000f0: aebc e13c 530e dfbd d660 cb3c 7d0a 283c
00000100: f14d a13d ed27 6cbc bae3 e03d 6a46 c03c
00000110: 1d4c b1bd ea21 78bd 6497 80bc 8e4b 733b
00000120: 456d 743d 1a92 d1bd 9016 a6bd 40fe 6b3d
00000130: 1888 5c3c d516 8bbd 0c58 c73d 76bf 053c
00000140: 6b7b 01be b8c6 073d c8cc 78bd fdf9 a6bd
00000150: 5e7a 453d ad9e 243e c9b4 903c 12da 1ebc
00000160: 0219 9c3d e178 6ebd 1b41 4fbd ec98 27bd
00000170: 39b7 c0bd 8d47 7e3c 718a 6b3d 2af0 f4bd
00000180: 1015 153d a79e 993c b707 b33c 63eb d73d
00000190: 8354 eb3b 9be6 0a3d 8b3d 1ebc caad 48bb
000001a0: 36f2 0ebd 6b81 923d e521 39bc 4a13 19be
000001b0: f989 c13c 14f2 993c c440 22be 4fd3 3d3d
000001c0: d177 293d 562c cdbd 82ca 2b3d 23d3 873d
000001d0: 7933 aebd cc10 91bd 2bd7 933d b3ac 34bd
000001e0: ef55 ec3c 1f69 de3d 32a5 17be c2f9 64bd
000001f0: bc5f b23d 641b 54bc 9477 adbc 55e7 693d
00000200: b302 d1bd 4ec9 733d 3950 913d 720f 2bba
00000210: 5dd9 6c3d 6b95 f6bd f45e 40be c379 a13c
00000220: 5f4f 363e 2396 08be 0ae3 c23d 9081 d63d
00000230: 9b89 c3bd b8ce 603c e943 723d f53e 0c3d
00000240: d852 803d 0899 b43d 7541 85bd 903b da3b
00000250: 60c8 03bd fff6 c7bd 7c5a 2c3e 07aa 34bd
00000260: 2681 0abd 0e9a c43d b931 783d f42e d0bd
00000270: 412b efbc 180f 43bc d1ca f7bd 1ad2 d4bd
00000280: d633 743d 3d5d 98bd 8e50 903a b132 1bbc
00000290: f9d3 68bd df05 ec3c 0e5e 883c 5a93 98bd
000002a0: 92b0 14bc faab f23d 30e0 363d 6a12 ec3c
000002b0: cc8d 04bd f77d 50ba c689 833d d87d c03d
000002c0: 8d51 1a3c d4a4 2fbd 62e9 b23d c792 0bbe
000002d0: e6db 46be af08 053d d8ee 9fbc 334c 9d3d
000002e0: 03f9 c53d ac20 cbbd 3a88 1ebd 51b9 3d3e
000002f0: 4c84 fcbd 9331 2f3e 16ac 403e 38d0 bcbc
00000300: 5dae adbc 82c7 913c 40ba 06ba 4bb8 5abd
00000310: b837 7abd 4f1c 733e 054e cabd d0ce e5bd
00000320: bf8f 1cbd 67b1 4c3d d814 ffbc dab0 28bd
00000330: db52 cd3c 9a91 84bd cefe ab3d fe73 d03c
00000340: 42d6 0f3d 04f5 2c3d a529 b9bd d080 003c
00000350: 1378 673d 4ddf acbd a1bb 713c 20e6 273d
00000360: f9e4 f7bc 549a ecbd 0405 cb3d 22e3 673d
00000370: 811b b0bc ef63 fbbd 9ebd f83c f615 4f3d
00000380: 6dcf 8cbc 4a35 76bb 12ab 92bd c374 c8bd
00000390: 160e cdbc 5488 8ebc 52db aebd 1b3d ddbd
000003a0: f288 c4bb 1dc4 2b3e 1a6b 3e3d 3b3b 07bd
000003b0: 3399 a23c 0857 573d 3bf9 96bd 0e9a bebc
000003c0: 43fd 9fbd a4a4 c03d d348 72bd e2c4 c3bd
000003d0: a861 213c d820 683d 8942 85bb fcfe 03bd
000003e0: 9999 9cbd d079 053c b2b6 0dbc 79b3 0a3d
000003f0: 2134 4ebd cc66 20bd 3572 843d fe6f 873c

conv3.bias f4 [64]
0.095364645 0.05135383 -0.18314871 0.039423235 -0.13604519 -0.050511513 0.07372399 -0.10521103
0.10680833 -0.048654445 0.15982573 -0.036196254 -0.047643036 0.2145592 -0.019847803 0.021109357
-0.089389466 -0.06414456 0.16905417 0.012836262 0.13162474 0.0431319 -0.055810235 0.15247285
0.11048412 -0.10681118 0.09867198 0.18453291 -0.023033813 0.15445001 -0.11822627 0.092445634
-0.11058085 -0.100474395 0.12945218 0.0355223 0.01508632 0.26619837 0.1257869 -0.065575674
0.0010638994 -0.20647007 -0.07571299 0.15565366 -0.15356389 -0.01716065 -0.024331437 -0.16539921
-0.037303884 -0.0039406465 -0.032373298 0.013989671 0.09301968 0.09451733 -0.14339049 -0.21015926
0.16693771 -0.052447278 0.055237215 0.09191574 0.21846707 0.032619342 -0.06123099 -0.0001446293
00000000: 8a4e c33d 6558 523d 568b 3bbe 427a 213d
00000010: 6e4f 0bbe 29e5 4ebd 9afc 963d e178 d7bd
00000020: 53be da3d e249 47bd 5ba9 233e 8642 14bd
00000030: 5825 43bd 68b5 5b3e dc97 a2bc 88ed ac3c
00000040: d311 b7bd 395e 83bd 891c 2d3e 2f4f 523c
00000050: a3c8 063e 13ab 303d 4699 64bd d821 1c3e
00000060: 8045 e23d d2bf dabd 8914 ca3d 32f6 3c3e
00000070: 68b1 bcbc 2528 1e3e 9d20 f2bd 2354 bd3d
00000080: 3678 e2bd 85c5 cdbd 1d8f 043e d57f 113d
00000090: 9d2c 773c 274b 883e 48ce 003e 8a4c 86bd
000000a0: 8a72 8b3a e46c 53be 690f 9bbd ac63 1f3e
000000b0: da3f 1dbe 7e94 8cbc b952 c7bc 695e 29be
000000c0: f5cb 18bd 8a20 81bb dd99 04bd ef34 653c
000000d0: 1a81 be3d 4d92 c13d f5d4 12be fd33 57be
000000e0: b8f1 2a3e f5d2 56bd 6b40 623d 523e bc3d
000000f0: d5b5 5f3e dc9b 053d 59cd 7abd a2a7 17b9

conv4.weight f4 [128, 64, 3]
-0.008392942 -0.03115663 0.0007154962 0.010919771 -0.07120369 0.08702376 0.01531949 -0.029359737
0.06919941 -0.0114982575 0.05504699 -0.014276811 -0.002667306 -0.010028936 0.004230818 0.036438074
0.02112839 -0.01545378 0.0069957133 -0.028088285 -0.010982031 0.07148017 0.066363975 -0.046866383
0.038808648 -0.025686854 -0.052118048 -0.06772326 -0.03578205 0.0002110288 -0.11284098 -0.039661385
-0.0034547849 -0.03984976 0.003416098 0.2238731 -0.00030762498 0.012814779 0.072067514 -0.013085785
-0.056513853 -0.098485716 0.061607976 0.0015799184 -0.0014164195 -0.018119225 -0.013090834 -0.022365997
-0.0009419596 0.029552167 0.120316945 -0.03373512 0.044883743 0.041322175 0.006908978 -0.05641487
-0.03515272 -0.05500521 -0.013481492 -0.013114328 -0.0035267572 0.080495134 -0.03209178 -0.02270229
0.037282582 0.014793486 -0.013084388 -0.028195307 -0.021562511 0.061227802 0.020767795 0.008280428
0.02065167 -0.052178938 -0.0071629025 0.027502364 -0.019745762 0.18378618 0.057570983 -0.120572954
0.19384018 -0.017747117 -0.056628533 0.019631129 0.040624645 0.011125412 -0.028250786 0.0040820567
0.015439206 -0.034313373 0.0010913966 -0.02360838 0.22835171 0.051010363 0.03642351 -0.017566059
0.025850581 -0.048075907 0.042172372 0.002352954 0.03994228 0.037261546 0.0008881103 0.06678864
-0.039082285 -0.07929823 0.01185684 0.08187988 -0.00553315 -0.07904732 -0.06663491 0.061976112
-0.041205388 0.025188072 -0.049292736 -0.0143765835 -0.075875625 -0.006222355 -0.043802217 -0.04194024
-0.06999321 -0.073972344 0.15338916 0.068334855 0.017300956 0.061199397 -0.019661274 -0.040943943
0.08230279 0.04969943 -0.052299622 0.09278578 0.06452354 -0.06022242 -0.03665672 -0.042247795
0.0050055603 0.07176366 0.052916143 0.006188717 0.037574742 -0.091379374 0.018546257 0.1013204
-0.093765356 0.056450833 -0.0043911296 -0.076638855 0.009165755 -0.04474022 -0.069667175 0.056590684
0.008176477 0.017932216 -0.02392182 0.004921517 0.03664909 -0.041762978 -0.080371946 0.03893232
-0.008405593 -0.0012247928 0.0045680995 -0.0013656516 -0.062029175 0.020694874 -0.028400188 0.22787021
0.037664477 -0.048257258 0.0023514302 -0.006296371 -0.03050516 0.023660999 -0.10131955 0.0029177046
0.13122894 0.0028711753 0.018226922 0.024408232 0.0045352755 0.03887384 -0.12927152 -0.058054574
0.040304374 -0.0048211594 -0.04001852 0.033695757 0.0035376877 0.024078036 -0.05509159 0.050728988
0.030888455 0.1627033 0.012904544 -0.05900769 0.021984836 0.00299681 -0.05540631 0.084304206
-0.054386083 -0.04185594 0.05488206 -0.01043197 -0.0139779225 -0.09273928 0.04638856 -0.014877463
0.033316005 -0.0747248 -0.058332987 -0.05886386 0.035000246 0.010598428 0.021306569 -0.1273749
-0.01730978 0.0044389144 -0.027545879 0.04424499 -0.070905276 -0.09300984 0.061175663 0.0794504
-0.101792306 -0.063513726 -0.16728269 -0.10306049 0.049269553 0.024980431 -0.06856104 -0.018095287
0.22897387 -0.064575166 0.05239115 -0.088972606 0.022127863 0.049176767 -0.019542944 -0.0114006605
0.101498716 -0.101123124 0.06955019 -0.05256529 0.038344488 0.014827319 -0.059821054 -0.009011763
-0.14329839 0.010322631 -0.028508293 -0.053938776 -0.008234299 0.04979505 -0.08076529 -0.04493282
00000000: 8d82 09bc 303c ffbc 2390 3b3a d7e8 323c
00000010: 3dd3 91bd 8339 b23d 99fe 7a3c d583 f0bc
00000020: 6cb8 8d3d 3063 3cbc f478 613d 49e9 69bc
00000030: f8cd 2ebb 6850 24bc aca2 8a3b 1740 153d
00000040: 7215 ad3c da31 7dbc 4c3c e53b 6719 e6bc
00000050: faed 33bc 3264 923d d6e9 873d f7f6 3fbd
00000060: d1f5 1e3d 3d6d d2bc bc79 55bd 7eb2 8abd
00000070: 3390 12bd 9d47 5d39 2c19 e7bd fa73 22bd
00000080: ac69 62bb 8039 23bd 9de0 5f3b fd3e 653e
00000090: ba48 a1b9 14f5 513c 2298 933d c365 56bc
000000a0: 127b 67bd e1b2 c9bd a558 7c3d 4415 cf3a
000000b0: 27a7 b9ba c56e 94bc f07a 56bc e538 b7bc
000000c0: d7ed 76ba 6317 f23c bb68 f63d d62d 0abd
000000d0: 04d8 373d 7141 293d b564 e23b 4713 67bd
000000e0: 4cfc 0fbd 254d 61bd 7ae1 5cbc 7add 56bc
000000f0: 2b21 67bb a2da a43d ac72 03bd 27fa b9bc
00000100: 9fb5 183d 6160 723c e75f 56bc d8f9 e6bc
00000110: dda3 b0bc 01ca 7a3d 3921 aa3c a2aa 073c
00000120: b12d a93c 95b9 55bd c8b6 eabb a34c e13c
00000130: ddc1 a1bc 7232 3c3e 8dcf 6b3d f4ee f6bd
00000140: 0a7e 463e 6762 91bc 52f3 67bd 76d1 a03c
00000150: 0766 263d 5c47 363c 316e e7bc c6c2 853b
00000160: b9f4 7c3c 2e8c 0cbd 310d 8f3a 5d66 c1bc
00000170: 08d5 693e 3ef0 503d d230 153d b2e6 8fbc
00000180: 99c4 d33c 3eeb 44bd f0bc 2c3d 0434 1a3b
00000190: 849a 233d 909f 183d 13d0 683a 7cc8 883d
000001a0: bf14 20bd 1c67 a2bd 3143 423c a3b0 a73d
000001b0: 6d4f b5bb 90e3 a1bd e277 88bd aada 7d3d
000001c0: fbc6 28bd 3757 ce3c 2ee7 49bd c38b 6bbc
000001d0: ae64 9bbd e6e4 cbbb f469 33bd 87c9 2bbd
000001e0: 9a58 8fbd d07e 97bd 0c12 1d3e 25f3 8b3d
000001f0: bcba 8d3c 38ac 7a3d ae10 a1bc d6b4 27bd
00000200: 5d8e a83d a191 4b3d 2138 56bd 7906 be3d
00000210: eb24 843d c9ab 76bd 5b25 16bd 060c 2dbd
00000220: af05 a43b d3f8 923d 99be 583d b9ca ca3b
00000230: f9e7 193d 1c25 bbbd 52ee 973c 1281 cf3d
00000240: 0d08 c0bd fd38 673d 77e3 8fbb d5f4 9cbd
00000250: f62b 163c 8541 37bd aaad 8ebd a2cb 673d
00000260: a1f6 053c 95e6 923c b1f7 c3bc ad44 a13b
00000270: 5b1d 163d a80f 2bbd 0c9a a4bd 7f77 1f3d
00000280: 9db7 09bc 3a89 a0ba ffaf 953b aaff b2ba
00000290: 4e12 7ebd 4c88 a93c 83a7 e8bc cf56 693e
000002a0: 1146 1a3d 67a9 45bd 741a 1a3b ca51 cebb
000002b0: f5e5 f9bc b6d4 c13c a080 cfbd f636 3f3b
000002c0: e160 063e 542a 3c3b a050 953c c6f3 c73c
000002d0: a69c 943b 2d3a 1f3d c15f 04be a2ca 6dbd
000002e0: 3316 253d d1fa 9dbb 76ea 23bd 9004 0a3d
000002f0: 8dd8 673b 4d3f c53c b8a7 61bd 33c9 4f3d
00000300: c909 fd3c b29b 263e 956d 533c 0cb2 71bd
00000310: 8b19 b43c 2166 443b baf1 62bd afa7 ac3d
00000320: f1c3 5ebd 2271 2bbd 03cc 603d daea 2abc
00000330: a803 65bc 17ee bdbd ee01 3e3d 9ac0 73bc
00000340: 5d76 083d 5109 99bd 92ee 6ebd 3b1b 71bd
00000350: 6b5c 0f3d 07a5 2d3c 1d8b ae3c 916e 02be
00000360: 3dcd 8dbc 5074 913b e5a7 e1bc 3c3a 353d
00000370: c936 91bd f17b bebd 5593 7a3d e4b6 a23d
00000380: 7c78 d0bd 7c13 82bd 274c 2bbe 6111 d3bd
00000390: dfce 493d c3a3 cc3c bb69 8cbd 913c 94bc
000003a0: 2078 6a3e fc3f 84bd 1a98 563d 4537 b6bd
000003b0: 7e45 b53c 946d 493d 8618 a0bc d6c9 3abc
000003c0: 8fde cf3d a419 cfbd 5470 8e3d b44e 57bd
000003d0: 1c0f 1d3d 49ee 723c ec06 75bd 13a6 13bc
000003e0: d0bc 12be 4120 293c 398a e9bc e8ee 5cbd
000003f0: 27e9 06bc e5f5 4b3d 4668 a5bd 7a0b 38bd

conv4.bias f4 [128]
-0.039558724 0.150459 -0.08445412 -0.0843321 -0.15496427 -0.14645839 -0.037226476 -0.17103402
-0.04142851 -0.16158545 -0.12036259 -0.10265096 -0.10370188 0.0490862 -0.16280101 -0.0841342
-0.12218795 -0.09159158 -0.1334047 -0.081599645 0.19576935 -0.11795779 -0.09031362 -0.11218463
0.12225088 0.020492481 -0.1732631 -0.01127944 -0.20261702 -0.17713691 0.07145953 -0.10987371
0.16664863 -0.108409435 0.074373275 0.13914703 0.1884605 -0.075899236 -0.08575056 -0.0073098526
0.023569131 0.023486393 -0.0650479 0.10590913 -0.085215874 -0.1472131 0.13554932 -0.09486029
-0.08533543 0.13462444 -0.17894104 -0.13224094 -0.13553904 0.12954988 -0.17669693 -0.005882388
-0.15246823 0.066364095 0.028551737 0.20008235 -0.1146412 0.1334309 -0.14102642 -0.12725386
-0.06126355 -0.13852884 -0.15033248 -0.08176295 -0.116334684 -0.020815555 -0.14092 -0.11960693
0.07843205 -0.09425417 -0.08825355 0.10584055 -0.060509704 6.467533e-05 -0.13741413 -0.116089806
-0.1299244 -0.12455008 -0.1592791 -0.13810861 0.013122373 -0.18112995 -0.15558691 0.093184955
-0.08191247 -0.07379825 0.11436598 -0.1306792 -0.057303376 0.08212579 0.16632447 -0.15987132
0.099780425 0.10852429 0.11947814 0.0004592766 -0.16595294 0.1423678 -0.096339114 -0.122189514
0.12999044 -0.087998495 -0.101651795 -0.070928805 -0.17449848 0.012477425 -0.09446687 0.12511946
0.12468361 -0.18161157 -0.07670901 0.02753615 -0.087694965 -0.06267198 -0.17691731 0.21455319
0.054986075 -0.1772361 -0.17196512 0.12807766 -0.043788098 -0.18106814 0.0007571775 -0.13210204
00000000: 5408 22bd ed11 1a3e 48f6 acbd 4fb6 acbd
00000010: f4ae 1ebe 30f9 15be ca7a 18bd 8b23 2fbe
00000020: f1b0 29bd a876 25be a980 f6bd ab3a d2bd
00000030: a761 d4bd 9c0e 493d 4fb5 26be 8d4e acbd
00000040: ad3d fabd 5e94 bbbd 3e9b 08be b71d a7bd
00000050: c377 483e db93 f1bd 59f6 b8bd 0ec1 e5bd
00000060: ab5e fa3d d9df a73c e26b 31be 66cd 38bc
00000070: d67a 4fbe 6163 35be 6059 923d 7805 e1bd
00000080: f0a5 2a3e c405 debd 0451 983d 8f7c 0e3e
00000090: cafb 403e 0f71 9bbd fd9d afbd 7d87 efbb
000000a0: 0d14 c13c 8966 c03c d537 85bd e3e6 d83d
000000b0: a985 aebd 08bf 16be 71cd 0a3e 1d46 c2bd
000000c0: 58c4 aebd fdda 093e 523c 37be 2b6a 07be
000000d0: bfca 0abe b9a8 043e 0af0 34be 0cc1 c0bb
000000e0: a220 1cbe e6e9 873d 55e5 e93c 63e2 4c3e
000000f0: 01c9 eabd 1ca2 083e 3b69 10be d64e 02be
00000100: 7def 7abd 81da 0dbe c2f0 19be 5573 a7bd
00000110: e140 eebd 6285 aabc 554d 10be 7af4 f4bd
00000120: fca0 a03d 5508 c1bd 47be b4bd eec2 d83d
00000130: 06d9 77bd 4ea2 8738 4ab6 0cbe 7ec0 edbd
00000140: e70a 05be 1d14 ffbd 0f1a 23be 586c 0dbe
00000150: 39ff 563c 217a 39be 2d52 1fbe c1d7 be3d
00000160: bac1 a7bd 8923 97bd b638 ea3d c5d0 05be
00000170: f2b6 6abd 9131 a83d f650 2a3e 4fb5 23be
00000180: ae59 cc3d fc41 de3d f4b0 f43d 10cb f039
00000190: 91ef 29be ddc8 113e 714d c5bd 7f3e fabd
000001a0: 371c 053e 8e38 b4bd d12e d0bd 1f43 91bd
000001b0: bbaf 32be 1d6e 4c3c d977 c1bd 511f 003e
000001c0: 1f5a ff3d 62f8 39be 9d19 9dbd 7e93 e13c
000001d0: 6b99 b3bd 2b5a 80bd d029 35be d5b3 5b3e
000001e0: 1439 613d 617d 35be a017 30be ca26 033e
000001f0: 265b 33bd ed69 39be 527d 463a c245 07be

fc1.weight f4 [32, 128]
0.038556788 -0.08559799 0.08158934 0.00994922 0.012530585 -0.019199286 0.018374411 0.15755166
0.06132098 0.11851508 -0.013610007 0.017012572 0.1397133 -0.084483206 0.09320549 0.18050197
0.13219772 -0.009560087 0.13746884 0.022101402 -0.1690416 0.03128635 0.003084395 0.077537455
-0.10570453 0.05363851 0.07182101 0.057394326 0.045799058 0.06860403 -0.15004233 0.04396101
-0.17961685 0.031558003 -0.05211352 -0.07438956 -0.106603555 0.006309226 0.11239317 0.027285883
-0.05092183 0.07766299 -0.016319951 -0.20479992 0.038531113 0.018963028 -0.15927735 0.085717626
0.0027944888 -0.093716204 0.13059065 0.08489869 0.10844104 -0.032099847 0.10238792 0.14782633
0.061546374 -0.22060245 -0.035574723 -0.09116088 0.06931376 -0.1527019 0.03770192 0.1135974
0.12707844 0.14070824 0.026361477 0.10863883 0.025245972 0.14350082 0.11090922 0.12512459
-0.15106997 0.029077979 0.08431381 -0.23657976 -0.001195477 0.09598833 0.07303827 -0.038100854
0.051532038 0.06839852 0.105126396 -0.021877702 -0.12700595 0.12655541 0.00689619 -0.030746836
0.06377478 0.067201726 -0.12033308 0.017496241 0.061516397 -0.13583967 -0.16642079 0.11952125
-0.2298975 -0.1464734 -0.13495333 0.010721996 0.038863003 -0.123323105 0.12105326 0.0097895125
-0.06812509 -0.017253632 0.23624806 -0.034939576 0.070438236 -0.037677076 0.050572015 -0.17963298
-0.2649247 0.13405678 -0.057393108 -0.196336 0.1273806 0.13162132 0.09086282 -0.20852639
-0.15702643 -0.00022175236 -0.025610356 -0.04544178 0.035165533 0.13159354 -0.1812482 0.01462113
0.035010345 -0.060506884 -0.03221331 0.079217635 0.044431012 -0.012529781 0.016802777 0.039208334
0.10295785 0.007358215 -0.04049838 0.08075884 0.0051408364 -0.07182041 0.0058140787 0.018489
0.10554406 -0.08257376 0.07700396 0.035865586 -0.21219583 0.03223555 -0.024478082 0.04513622
-0.013625241 -0.072716534 -0.038575552 -0.01600864 0.051483016 0.020053806 -0.16507095 0.07888806
-0.056474507 0.091934286 -0.004118248 -0.05846435 -0.18067881 0.011024134 0.021535972 -0.083161056
0.0011737347 -0.02878016 0.06906221 -0.14787866 0.03276469 -0.019285709 -0.22639152 0.15512149
-0.023763664 -0.118840516 -0.0014415898 0.07707377 0.005960514 -0.08820304 0.059828807 0.0825536
0.05036542 -0.13341802 -0.083588675 -0.05943821 0.05486598 -0.057536583 0.104650326 0.06920629
0.11661589 0.1137208 -0.03512104 0.10045827 0.07265179 0.10833811 0.073929265 -0.02404036
-0.094134875 0.031802494 -0.019449674 -0.18559457 -0.070788234 0.046168465 0.020208845 0.0672593
-0.006778406 0.030136954 0.023248337 -0.013322585 -0.12374077 0.11859322 0.0040800585 -0.1196618
0.037372433 0.0844857 -0.1495659 0.13984144 0.009986612 -0.031757016 -0.21305728 0.11666104
-0.18905158 -0.030896712 -0.086975515 0.10055905 0.020288005 -0.1873274 0.11100695 0.12411772
-0.074003875 0.01846877 0.111246124 0.08259778 0.10556062 0.0070449375 0.05184854 -0.046442896
-0.2615503 0.041540455 -0.05188137 -0.09082941 0.061749045 0.07254439 0.09881751 -0.021166604
-0.13150027 0.015387222 0.074321695 -0.042789757 0.060096454 -0.00031776942 -0.22441013 0.017408244
00000000: b9ed 1d3d 004e afbd 5018 a73d 0e02 233c
00000010: 154d 4d3c d247 9dbc ef85 963c 3955 213e
00000020: b52b 7b3d 09b8 f23d 82fc 5ebc f35d 8b3c
00000030: 0111 0f3e 8805 adbd 85e2 be3d 82d5 383e
00000040: d75e 073e e9a1 1cbc a2c4 0c3e 000e b53c
00000050: 3e19 2dbe 1e26 003d 9023 4a3b f5cb 9e3d
00000060: 9e7b d8bd 0eb4 5b3d e516 933d 5016 6b3d
00000070: cb97 3b3d 4580 8c3d b2a4 19be 7610 343d
00000080: 7bed 37be f742 013d fd74 55bd 8e59 98bd
00000090: f752 dabd a0bd ce3b 642e e63d a586 df3c
000000a0: 6993 50bd c60d 9f3d 6bb1 85bc 12b7 51be
000000b0: cdd2 1d3d 5a58 9b3c 9a19 23be b98c af3d
000000c0: be23 373b 48ee bfbd 8eb9 053e 5ddf ad3d
000000d0: 5616 de3d 217b 03bd c2b0 d13d c95f 173e
000000e0: 0d18 7c3d 9ce5 61be cdb6 11bd 8eb2 babd
000000f0: 5ff4 8d3d e35d 1cbe 546d 1a3d c1a5 e83d
00000100: da20 023e d215 103e 06f4 d73c 097e de3d
00000110: a4d0 ce3c e1f1 123e 6024 e33d a920 003e
00000120: 16b2 1abe f134 ee3c b8ac ac3d f741 72be
00000130: 8db1 9cba 8895 c43d 1795 953d a40f 1cbd
00000140: 4213 533d 8614 8c3d 824c d73d de38 b3bc
00000150: d90d 02be be97 013e 6ff9 e13b cae0 fbbc
00000160: 5a9c 823d 0fa1 893d 3171 f6bd 4754 8f3c
00000170: 9ef8 7b3d 8e19 0bbe 366a 2abe 8fc7 f43d
00000180: 406a 6bbe 1ffd 15be 3531 0abe 50ab 2f3c
00000190: d02e 1f3d d390 fcbd c6ea f73d 3164 203c
000001a0: 2b85 8bbd 7d57 8dbc 03eb 713e cd1c 0fbd
000001b0: ec41 903d 4753 1abd 9a24 4f3d b5f1 37be
000001c0: 36a4 87be 2e46 093e 0915 6bbd 4e0c 49be
000001d0: 0f70 023e bdc7 063e 4916 ba3d f187 55be
000001e0: 89cb 20be 3286 68b9 cfcc d1bc 2921 3abd
000001f0: bc09 103d 75c0 063e 2199 39be 778d 6f3c
00000200: 0267 0f3d 11d6 77bd 1bf2 03bd db3c a23d
00000210: 4bfd 353d b649 4dbc faa5 893c eb98 203d
00000220: 91db d23d 2e1d f13b a1e1 25bd e464 a53d
00000230: 7674 a83b 9416 93bd 0784 be3b 3e76 973c
00000240: 7c27 d83d 6e1c a9bd 41b4 9d3d cbe7 123d
00000250: dd49 59be 6d09 043d 4286 c8bc c2e0 383d
00000260: 673c 5fbc 68ec 94bd 6601 1ebd 8d24 83bc
00000270: dbdf 523d e147 a43c 5c08 29be 1090 a13d
00000280: d051 67bd 0b48 bc3d 5ef2 86bb 5078 6fbd
00000290: de03 39be 929e 343c 356c b03c 5850 aabd
000002a0: 00d8 993a 5fc4 ebbc 7d70 8d3d 816d 17be
000002b0: 4534 063d 10fd 9dbc 2ed3 67be 2bd8 1e3e
000002c0: 04ac c2bc a862 f3bd baf3 bcba dad8 9d3d
000002d0: 6a50 c33b cca3 b4bd 0d0f 753d dd11 a93d
000002e0: f84b 4e3d bc9e 08be 8a30 abbd 7b75 73bd
000002f0: 26bb 603d 7bab 6bbd e952 d63d 07bc 8d3d
00000300: 50d4 ee3d 73e6 e83d 14db 0fbd 11bd cd3d
00000310: 76ca 943d 5fe0 dd3d 3a68 973d 4af0 c4bc
00000320: c9c9 c0bd 5543 023d ec54 9fbc 810c 3ebe
00000330: 6cf9 90bd 251b 3d3d 058d a53c 3ebf 893d
00000340: 641d debb c6e1 f63c 4c73 be3c f946 5abc
00000350: cd6b fdbd 01e1 f23d 03b2 853b 3f11 f5bd
00000360: d613 193d d706 ad3d ce27 19be 9832 0f3e
00000370: e39e 233c a513 02bd b02b 5abe fceb ee3d
00000380: bd96 41be 1a1b fdbc 3820 b2bd e7f1 cd3d
00000390: 0833 a63c c1d2 3fbe 9d57 e33d 6e31 fe3d
000003a0: 588f 97bd d14b 973c 02d5 e33d 0629 a93d
000003b0: 2b30 d83d 38d9 e63b 225f 543d e83a 3ebd
000003c0: ece9 85be 5326 2a3d 8f81 54bd c504 babd
000003d0: 91ec 7c3d 2792 943d d660 ca3d 9665 adbc
000003e0: 02a8 06be b01a 7c3c f935 983d 5044 2fbd
000003f0: b327 763d 4a9a a6b9 c5cb 65be bc9b 8e3c

fc1.bias f4 [32]
0.027927853 -0.068926066 0.0032192967 0.07187296 -0.05603217 -0.07547553 -0.031264015 0.059173703
-0.048545633 0.029606499 0.003258315 -0.059076905 0.012002357 -0.047997225 0.07848439 0.058780503
0.01048411 0.025520744 -0.048857555 -0.0416717 -0.048043564 0.058132403 -0.045350287 -0.02019666
0.015999336 -0.026548965 -0.047317628 0.023180671 0.06919798 0.06270968 -0.02822842 -0.054321848
00000000: f4c8 e43c 1c29 8dbd d6fa 523b 2132 933d
00000010: fd81 65bd ea92 9abd b20e 00bd 2060 723d
00000020: c9d7 46bd 5489 f23c 7489 553b a0fa 71bd
00000030: 89a5 443c bd98 44bd 6dbc a03d d3c3 703d
00000040: 8bc5 2b3c e110 d13c dc1e 48bd f2af 2abd
00000050: 54c9 44bd 3e1c 6e3d 39c1 39bd 7773 a5bc
00000060: 0a11 833c 377d d9bc 21d0 41bd 64e5 bd3c
00000070: acb7 8d3d ef6d 803d 4a3f e7bc 9680 5ebd

fc2.weight f4 [1, 32]
-0.15774713 -0.21900816 -0.15619391 0.23478553 -0.12994479 -0.2330194 0.1400046 0.14056891
0.2165003 -0.1508199 -0.15531223 -0.23146538 -0.17413434 -0.17326781 0.13060887 0.21906935
-0.12969685 -0.19701523 -0.17259003 -0.1293133 -0.18428272 -0.19955663 0.109492056 0.14129853
0.20597751 -0.1901503 -0.120595746 0.13122451 0.23059234 -0.2079291 -0.22290817 0.20739666
00000000: 7788 21be ad43 60be 4cf1 1fbe 9e6b 703e
00000010: 3f10 05be a39c 6ebe 5e5d 0f3e 4cf1 0f3e
00000020: 41b2 5d3e 8870 1abe 2b0a 1fbe 4305 6dbe
00000030: 4650 32be 1e6d 31be 55be 053e b753 603e
00000040: 40cf 04be 5cbe 49be 71bb 30be b56a 04be
00000050: 9cb4 3cbe 9358 4cbe 5f3d e03d 90b0 103e
00000060: c5eb 523e c3b6 42be e7fa f6bd b85f 063e
00000070: 6620 6c3e 5eeb 54be 0a42 64be ca5f 543e

exp_avg f4 [16, 1, 3]
0.029039703 -0.08461973 -0.06911245 0.05272941 0.12443007 0.03150389 -0.16823836 -0.6406035
-1.0855395 -0.28682533 -0.62317014 -0.64801604 -0.16042487 -0.27535138 -0.43492517 -0.19036509
-0.5548145 -0.43632516 0.676873 1.6570945 -0.72116834 -0.23605481 -0.19859992 -0.15899709
-0.28510427 -0.43985382 -0.58005697 -0.0557377 -0.10878874 -0.12715778 -0.41811526 -0.6476906
-0.5827253 -0.15327589 0.27951005 0.041291554 -0.2942345 -0.28695798 -0.4698336 -0.21301094
-0.22072645 -0.2256493 -0.26267496 -0.63610893 -1.0464785 -0.13445589 -0.20646991 -0.0065374854
00000000: ace4 ed3c 1c4d adbd d48a 8dbd cbfa 573d
00000010: 31d5 fe3d 390a 013d ad46 2cbe 97fe 23bf
00000020: f5f2 8abf c5da 92be 1488 1fbf 61e4 25bf
00000030: 6b46 24be dbfa 8cbe 83ae debe 11ef 42be
00000040: 5308 0ebf 0366 dfbe 8d47 2d3f ac1b d43f
00000050: 7d9e 38bf 5ab8 71be c75d 4bbe 22d0 22be
00000060: 30f9 91be 8534 e1be 9d7e 14bf 374d 64bd
00000070: a2cc debd a635 02be 3413 d6be 0dcf 25bf
00000080: 7c2d 15bf 5bf4 1cbe f11b 8f3e 5521 293d
00000090: e8a5 96be 28ec 92be 088e f0be 8a1f 5abe
000000a0: 1d06 62be 9c10 67be 557d 86be 09d8 22bf
000000b0: 02f3 85bf ceae 09be d96c 53be 6738 d6bb

exp_avg_sq f4 [16, 1, 3]
1.1605499 1.7141962 4.3872504 0.5957718 0.83750206 2.777852 931.4032 1007.48755
1089.8792 438.16025 467.03867 502.4092 189.89113 185.92131 180.0968 128.46738
129.41858 134.68614 683.73987 807.9802 178.34138 0.86419934 0.7880615 0.5047759
202.57018 201.06065 197.40225 0.96376246 0.8797782 0.52099705 9.0822315 9.016019
3.2937844 41.73812 29.35376 17.368391 130.99313 130.08354 137.35321 36.81665
39.801598 41.17075 1031.1903 1075.8665 1152.3229 7.692956 8.638984 6.6938357
00000000: e68c 943f c86a db3f 5b64 8c40 8084 183f
00000010: 8966 563f 54c8 3140 ced9 6844 34df 7b44
00000020: 223c 8844 8314 db43 f384 e943 6134 fb43
00000030: 21e4 3d43 dbeb 3943 c818 3443 a677 0043
00000040: 286b 0143 a7af 0643 5aef 2a44 bcfe 4944
00000050: 6557 3243 2b3c 5d3f 66be 493f fe38 013f
00000060: f791 4a43 870f 4943 fa66 4543 23b9 763f
00000070: 2539 613f 1060 053f d250 1141 9d41 1041
00000080: 5dcd 5240 d6f3 2642 80d4 ea41 77f2 8a41
00000090: 3efe 0243 6315 0243 6c5a 0943 4044 1342
000000a0: d634 1f42 d9ae 2442 17e6 8044 ba7b 8644
000000b0: 550a 9044 b22c f640 4739 0a41 e733 d640

exp_avg f4 [16]
-0.020548867 -0.008339865 0.0711977 0.036527876 0.016444134 0.013835029 -0.078610316 -0.0049087754
0.03405938 -0.0058048456 -0.023846453 -0.02091904 0.020855343 0.019401256 0.074033506 0.0069932053
00000000: 1956 a8bc eea3 08bc 1ad0 913d 419e 153d
00000010: d9b5 863c 51ac 623c 72fe a0bd cbd9 a0bb
00000020: d981 0b3d 9336 bebb a359 c3bc 685e abbc
00000030: d3d8 aa3c 62ef 9e3c e19e 973d 4227 e53b

exp_avg_sq f4 [16]
0.004234333 0.0019858084 0.25595495 0.10455968 0.031988405 0.030189019 0.13520767 0.0020376726
0.049299594 0.0032630162 0.04138364 0.014017792 0.030523181 0.009325381 0.2424904 0.0027172177
00000000: 29c0 8a3b 5624 023b 870c 833e 6323 d63d
00000010: 4606 033d f64e f73c e173 0a3e 798a 053b
00000020: 5fee 493d 54d8 553b e481 293d e2aa 653c
00000030: c00b fa3c 7cc9 183c 674f 783e 5913 323b

exp_avg f4 [32, 16, 3]
-0.036515802 0.00078070856 0.0054895356 -0.03229744 0.0064429324 0.030755948 -0.07584295 -0.07776028
-0.043174624 -0.06031299 -0.051478572 -0.025226401 -0.024003724 -0.028142445 -0.013051014 -0.2549354
-0.25093988 -0.10265008 -0.05277778 -0.05005246 -0.030495215 -0.00077517814 0.008036942 0.07619803
-0.08362288 -0.06434319 -0.047035575 -0.0061197313 0.016597124 0.0666218 -0.018114913 0.020860586
0.045706917 -0.061097786 -0.04304105 -0.023879215 -0.11798284 -0.11563824 -0.05473568 -0.20177712
-0.21757452 -0.0797149 -0.07067246 -0.042756982 -0.04351031 -0.14360106 -0.16406374 -0.064434744
-0.05715136 -0.10554851 0.009365411 -0.06618027 -0.13943662 0.018595938 -0.07703244 -0.13986
-0.1426013 -0.07328476 -0.06455085 -0.10101254 -0.025966218 -0.054835793 -0.04605191 -0.3635974
-0.3084391 -0.4135895 -0.16970904 -0.04653941 -0.049015556 -0.1420798 -0.21335645 0.007794242
-0.11047963 -0.08065354 -0.12692595 -0.15112488 -0.17326017 0.0067768283 -0.17032096 -0.12993434
0.0027858592 -0.2305533 -0.07862499 -0.15229459 -0.14658949 -0.15370773 -0.20296398 -0.31473428
-0.25922802 -0.2970071 -0.062402643 -0.08022851 -0.091577925 -0.2331133 -0.19150569 -0.28297642
-0.016960643 -0.01976554 -0.0006747909 -0.028151384 -0.02738368 -0.0022572866 -0.0009960238 -0.006828075
-0.011432731 -0.0020034777 0.0041263597 -0.0019201689 -0.0013766583 -0.007226657 -0.004849319 -0.018986454
0.009153569 -0.0045245904 -0.036457177 0.0009294085 0.0042043147 -0.059608363 -0.06082871 -0.0019664043
-0.007562206 0.0038252426 -0.0052484437 -0.050067168 -0.049310405 -0.0017813199 -0.042043652 -0.034210462
-0.0018770023 -0.04556653 -0.005151495 -0.023677457 -0.007214884 0.0042735897 -0.0072483327 -0.023740172
0.005300331 0.0010388277 -0.0020684074 0.00013782676 -0.008051336 -0.021414945 -0.002833057 -0.011268177
-0.004721537 -0.018564671 -0.029761175 0.011950275 -0.02424458 -0.035547152 -0.007634711 -0.03552036
-0.04197191 -0.0048845694 -0.008578862 -0.027291538 -0.0039982293 -0.017629586 -0.0150421215 -0.03629985
-0.030318031 -0.12328698 -0.055292618 -0.013221919 -0.031649765 0.011980983 -0.03773323 -0.0712053
-0.020724948 -0.008240124 -0.0362708 -0.001527872 -0.03476999 -0.069183804 -0.017424868 -0.033379078
-0.06355181 -0.059008226 -0.01607415 -0.099242 -0.013779395 -0.030493192 -0.055924393 -0.042380124
-0.023082284 -0.09396205 -0.01111277 -0.0061466447 -0.030925896 -0.031920437 -0.015512722 -0.09036097
0.0039488315 0.0017456404 0.0024515188 0.010184718 0.003900261 0.007928372 0.005996962 0.007844824
0.0061941235 0.00015914171 0.0051682335 -0.0014325883 0.001984628 0.0022483577 0.0038536305 -0.014172712
0.015305139 -0.0083772475 -0.018679122 0.0065289787 -0.0057934294 0.02216448 0.01579883 0.013024778
-0.0036878695 0.003724168 -0.0035788992 0.013873639 0.015846094 0.007334099 -0.00041662095 0.015222611
-0.000674137 -0.024769483 0.024493614 -0.0091313515 -0.0018683114 0.007951085 0.0023093713 -0.015858421
0.0075002997 -0.009685809 0.000858533 0.007608307 -0.0022123689 -0.015028225 0.0035199125 -0.007899419
0.035339143 0.12585567 0.007166007 0.0489888 0.17621706 0.0006412659 0.051734384 0.17494196
0.20470187 0.058935896 0.07435223 0.12498991 0.016381264 0.07441339 0.062982894 0.3187754
00000000: 9891 15bd 77a8 4c3a 90e1 b33b 524a 04bd
00000010: 3c1f d33b e6f3 fb3c 8c53 9bbd c840 9fbd
00000020: e0d7 30bd c10a 77bd 32db 52bd 99a7 cebc
00000030: 75a3 c4bc fc8a e6bc ecd3 55bc e586 82be
00000040: 317b 80be 353a d2bd 832d 58bd cf03 4dbd
00000050: 1ad1 f9bc 5335 4bba 61ad 033c b60d 9c3d
00000060: 7942 abbd 5dc6 83bd 60a8 40bd 0788 c8bb
00000070: b1f6 873c 0371 883d ba65 94bc d2e3 aa3c
00000080: 2d37 3b3d ac41 7abd d04b 30bd 589e c3bc
00000090: fda0 f1bd bed3 ecbd 8532 60bd a99e 4ebe
000000a0: dbcb 5ebe 9141 a3bd b9bc 90bd f221 2fbd
000000b0: de37 32bd 280c 13be 5300 28be 5df6 83bd
000000c0: 8b17 6abd d129 d8bd 6171 193c 8589 87bd
000000d0: 79c8 0ebe 8256 983c 2fc3 9dbd 7637 0fbe
000000e0: 1306 12be 5216 96bd 3c33 84bd aadf cebd
000000f0: 1bb7 d4bc 7f9b 60bd eda0 3cbd 7029 babe
00000100: bbeb 9dbe 01c2 d3be 35c8 2dbe 1ca0 3ebd
00000110: 89c4 48bd 5e7d 11be 1d7a 5abe d766 ff3b
00000120: 2543 e2bd af2d a5bd e0f8 01be 7bc0 1abe
00000130: 1d6b 31be 2810 de3b 9e68 2ebe 820d 05be
00000140: f692 363b 2a16 6cbe 2406 a1bd 1df3 1bbe
00000150: 8e1b 16be 8f65 1dbe cad5 4fbe da24 a1be
00000160: 89b9 84be 5111 98be ea99 7fbd d84e a4bd
00000170: 358d bbbd 41b5 6ebe 111a 44be 49e2 90be
00000180: 0cf1 8abc 57eb a1bc 73e4 30ba bb9d e6bc
00000190: bd53 e0bc fcee 13bb 038d 82ba 0bbe dfbb
000001a0: 5950 3bbc c74c 03bb 6a36 873b 2dae fbba
000001b0: fd70 b4ba 98cd ecbb 09e7 9ebb 7b89 9bbc
000001c0: daf8 153c 0443 94bb 1f54 15bd 8ca3 733a
000001d0: 59c4 893b e627 74bd 8727 79bd cade 00bb
000001e0: 62cc f7bb ecb0 7a3b 23fb abbb 3b13 4dbd
000001f0: b5f9 49bd 2d7b e9ba f735 2cbd 4520 0cbd
00000200: bf05 f6ba f8a3 3abd dfcd a8bb 3af7 c1bc
00000210: d56a ecbb 7809 8c3b 6c83 edbb c07a c2bc
00000220: 66ae ad3b 4629 883a 1e8e 07bb 9785 1039
00000230: c0e9 03bc 656e afbc cfaa 39bb 299e 38bc
00000240: 20b7 9abb f014 98bc b5cd f3bc 16cb 433c
00000250: 929c c6bc e499 11bd 992c fabb cc7d 11bd
00000260: bdea 2bbd bd0e a0bb 5b8e 0cbc 8192 dfbc
00000270: 9403 83bb ec6b 90bc 3b73 76bc 27af 14bd
00000280: 855d f8bc e27d fcbd 837a 62bd bfa0 58bc
00000290: 2fa3 01bd e34b 443c 298e 1abd 16d4 91bd
000002a0: 5ec7 a9bc 9601 07bc b190 14bd e142 c8ba
000002b0: fa6a 0ebd 3db0 8dbd 99be 8ebc 80b8 08bd
000002c0: 7427 82bd 9cb2 71bd f0ad 83bc 643f cbbd
000002d0: f9c2 61bc dccc f9bc fa10 65bd c896 2dbd
000002e0: 0f17 bdbc 2d6f c0bd 5612 36bc cb69 c9bb
000002f0: 4e58 fdbc 01bf 02bd 1229 7ebc 2c0f b9bd
00000300: 3365 813b f9cd e43a a9a9 203b cedd 263c
00000310: 859b 7f3b 01e6 013c 2a82 c43b 9487 003c
00000320: 13f8 ca3b 47df 2639 495a a93b b0c5 bbba
00000330: 8810 023b 2f59 133b 318d 7c3b aa34 68bc
00000340: 68c2 7a3c b940 09bc f504 99bc 0bf1 d53b
00000350: cfd6 bdbb 4992 b53c 8c6c 813c e165 553c
00000360: 2fb0 71bb 2c11 743b f78b 6abb 424e 633c
00000370: abcf 813c e252 f03b eb6d dab9 4268 793c
00000380: 91b8 30ba 5fe9 cabc d5a6 c83c aa9b 15bc
00000390: 21e2 f4ba 4545 023c d258 173b 85e9 81bc
000003a0: 13c5 f53b 3ab1 1ebc 2d0f 613a 1b4f f93b
000003b0: 64fd 10bb f238 76bc 55ae 663b 916c 01bc
000003c0: c7bf 103d 4fe0 003e d3d0 ea3b 7ba8 483d
000003d0: 3f72 343e a01a 283a 6fe7 533d fc23 333e
000003e0: 5e9d 513e c466 713d fb45 983d b6fa ff3d
000003f0: 0032 863c 0c66 983d 2dfd 803d 8736 a33e

exp_avg_sq f4 [32, 16, 3]
0.06347541 0.11702481 0.01119554 0.1378128 0.21737583 0.022639273 1.4219 2.1091595
1.495755 1.0879298 1.5632616 1.180477 0.08384005 0.12632522 0.08297195 18.66746
27.024637 20.978941 0.0826912 0.29529977 0.21786302 0.4724956 0.40239054 0.04983071
1.6541896 2.2246141 1.658887 0.36327073 0.29134524 0.0328347 0.22134666 0.1561037
0.015389173 0.07080607 0.69926053 0.37006134 3.637237 5.3641067 4.0285473 12.127884
17.487984 13.906739 1.0731926 1.3909746 0.9577592 5.3824244 8.189853 7.0299726
0.19255467 0.70384073 0.095838204 0.46613547 1.2135748 0.18253241 1.0662843 3.0948067
3.2881663 0.7108811 1.6303163 2.1460395 0.07490094 0.24073845 0.21077704 12.032449
24.564539 35.30914 0.25659868 0.13763364 1.1799089 1.9855491 2.0634096 0.13405013
1.0812535 2.2931356 2.7290204 1.5891525 1.5236516 0.06732488 1.0607661 0.8696215
0.016030654 0.5607685 0.26896527 4.406141 2.428085 5.676144 7.595601 7.778854
14.7263775 21.96914 0.7793566 2.0259078 1.6965947 3.5786052 5.943877 14.429415
0.019744985 0.03137789 0.00074112386 0.0375823 0.055014953 0.0005043779 0.32744703 0.4307932
0.3598787 0.24855688 0.317469 0.33137584 0.020930316 0.027837126 0.01714874 4.417027
5.597534 5.99889 0.0382232 0.04189284 0.2777631 0.10728389 0.075543515 0.00093451526
0.37479058 0.45848802 0.47548404 0.08200397 0.053584933 0.0006620259 0.051448762 0.028306603
0.0005017972 0.023110563 0.040343806 0.9586806 0.8364852 1.0851676 1.0944226 2.9527333
3.6898646 4.00743 0.23521098 0.28541517 0.2567563 1.3908454 1.7819757 2.2570035
0.039598107 0.044235703 0.07664438 0.09071179 0.0980649 0.15495606 0.84747255 0.9754225
0.92428434 0.7737785 0.8593685 0.8678315 0.04577228 0.05385457 0.047812693 14.339843
15.756276 15.947952 0.10219582 0.12471339 0.64074457 0.32965013 0.3731873 0.37565443
1.1873646 1.3104247 1.2919389 0.25436658 0.2898297 0.28302404 0.1525103 0.17781746
0.1636522 0.047648825 0.08392996 1.9092401 2.5769203 2.854422 2.862693 9.754213
10.657979 10.765461 0.6561657 0.75285304 0.69346416 4.668926 5.075137 6.0037613
0.009376947 0.030761668 0.0022368624 0.023154696 0.056265827 0.005927192 0.0840662 0.07269473
0.013540092 0.08872968 0.079488546 0.01206556 0.0041279774 0.0038516896 0.0009548193 1.6859132
1.5286686 0.22828227 0.014262027 0.050894313 0.0035935682 0.09789753 0.110862926 0.01773798
0.13746257 0.12213442 0.018210683 0.076725125 0.087574095 0.012521173 0.047351196 0.054635253
0.0065247607 0.014170161 0.114760496 0.0020835628 0.28588292 0.25517297 0.038912967 1.1671846
1.0577557 0.15803552 0.07210404 0.06460552 0.01004634 0.5694794 0.5614051 0.077535234
0.5303346 0.7233114 0.026985401 0.9328119 1.1523451 0.0062630996 27.749687 30.565401
26.286448 25.736961 27.70376 26.599966 1.4248079 1.645643 1.2115674 474.90244
00000000: 65ff 813d b4aa ef3d 806d 373c cc1e 0d3e
00000010: c597 5e3e ff75 b93c d200 b63f 78fc 0640
00000020: e674 bf3f 4941 8b3f f518 c83f df19 973f
00000030: 55b4 ab3d 665b 013e 33ed a93d f556 9541
00000040: 7532 d841 dfd4 a741 015a a93d 8831 973e
00000050: 7c17 5f3e f1ea f13e 2206 ce3e 491b 4c3d
00000060: 7cbc d33f 1460 0e40 6956 d43f 9ffe b93e
00000070: 342b 953e ae7d 063d b3a8 623e a6d9 1f3e
00000080: df22 7c3c c602 913d bd02 333f ae78 bd3e
00000090: 7ec8 6840 c3a6 ab40 dce9 8040 d00b 4241
000000a0: 64e7 8b41 0182 5e41 605e 893f 750b b23f
000000b0: b52f 753f d23c ac40 a309 0341 89f5 e040
000000c0: 0d2d 453e e82e 343f d246 c43d 4fa9 ee3e
000000d0: 6b56 9b3f c7e9 3a3e 017c 883f 5011 4640
000000e0: 5171 5240 4efc 353f 34ae d03f b658 0940
000000f0: aa65 993d 2484 763e f0d5 573e e984 4041
00000100: 2d84 c441 8f3c 0d42 e760 833e d5ef 0c3e
00000110: 4107 973f 7926 fe3f e70e 0440 7044 093e
00000120: 8466 8a3f bcc2 1240 45a8 2e40 5969 cb3f
00000130: 0407 c33f a0e1 893d 2fc7 873f 849f 5e3f
00000140: b852 833c 868e 0f3f d1b5 893e 1bff 8c40
00000150: bf65 1b40 f9a2 b540 2a0f f340 5fec f840
00000160: 3e9f 6b41 ccc0 af41 ea83 473f 79a8 0140
00000170: 042a d93f de07 6540 3e34 be40 e2de 6641
00000180: 3cc0 a13c 1a86 003d fb47 423a e6ef 193d
00000190: 5c57 613d 3a38 043a 23a7 a73e ed90 dc3e
000001a0: 0542 b83e b285 7e3e 4c8b a23e 18aa a93e
000001b0: 0e76 ab3c af0a e43c 847b 8c3c 4958 8d40
000001c0: 001f b340 e8f6 bf40 ee8f 1c3d d497 2b3d
000001d0: f736 8e3e a8b7 db3d 8fb6 9a3d 42fa 743a
000001e0: 8de4 bf3e f1be ea3e a572 f33e b3f1 a73d
000001f0: e07b 5b3d ce8b 2d3a f0bb 523d 40e3 e73c
00000200: 0a8b 033a 5d52 bd3c 8c3f 253d 186c 753f
00000210: e523 563f c6e6 8a3f 0a16 8c3f 95f9 3c40
00000220: be26 6c40 de3c 8040 26db 703e f021 923e
00000230: 9075 833e 3907 b23f c817 e43f bf72 1040
00000240: a031 223d 7f30 353d bbf7 9c3d 1ac7 b93d
00000250: 40d6 c83d cdac 1e3e f6f3 583f 4ab5 793f
00000260: e69d 6c3f 5916 463f 93ff 5b3f 352a 5e3f
00000270: b77b 3b3d 9c96 5c3d 3ed7 433d ff6f 6541
00000280: b519 7c41 d02a 7f41 0b4c d13d bc69 ff3d
00000290: d607 243f e7c7 a83e 6812 bf3e c755 c03e
000002a0: 90fb 973f ffbb a73f 415e a53f 563c 823e
000002b0: 8f64 943e 87e8 903e a92b 1c3e c815 363e
000002c0: 7194 273e 6a2b 433d 79e3 ab3d fb61 f43f
000002d0: 43ec 2440 daae 3640 5d36 3740 4211 1c41
000002e0: 1587 2a41 543f 2c41 7afa 273f faba 403f
000002f0: de86 313f d767 9540 8667 a240 d01e c040
00000300: c4a1 193c e5ff fb3c 5398 123b ebae bd3c
00000310: ff76 663d e438 c23b e62a ac3d f9e0 943d
00000320: 43d7 5d3c e8b7 b53d e4ca a23d a0ae 453c
00000330: fc43 873b a16c 7c3b d74c 7a3a 01cc d73f
00000340: 6aab c33f d4c2 693e 47ab 693c 8e76 503d
00000350: 1282 6b3b 807e c83d 1a0c e33d 3d4f 913c
00000360: fdc2 0c3e 9c21 fa3d 922e 953c 1022 9d3d
00000370: 0c5a b33d 9b25 4d3c 54f3 413d 37c9 5f3d
00000380: a9cd d53b f729 683c 8d07 eb3d 628c 083b
00000390: 3f5f 923e 08a6 823e 3463 1f3d 4e66 953f
000003a0: 8a64 873f 10d4 213e 48ab 933d e64f 843d
000003b0: 6799 243c 67c9 113f 3fb8 0f3f cbca 9e3d
000003c0: 02c4 073f f02a 393f 7d10 dd3c c3cc 6e3f
000003d0: 0b80 933f b03a cd3b 5cff dd41 f185 f441
000003e0: a54a d241 4ce5 cd41 4da1 dd41 bbcc d441
000003f0: 1b60 b63f 6ea4 d23f a414 9b3f 8373 ed43

exp_avg f4 [32]
-0.013481882 -0.035046045 -0.0064146826 -0.01168096 -0.0016209007 0.03363123 0.026707977 0.0019296458
0.008824213 0.0085006505 0.008746689 0.018693792 -0.03693079 0.053290546 0.059482124 0.046197057
0.027372234 0.0 -0.06998409 0.00021097931 0.032571133 -0.0011705165 0.015671767 0.017114839
0.016795633 0.006768564 -0.0012610035 0.014129074 -0.016193338 -0.030006986 0.047102705 0.030694716
00000000: 1de3 5cbc 718c 0fbd 4232 d2bb 7f61 3fbc
00000010: 6774 d4ba e7c0 093d b0ca da3c 2bec fc3a
00000020: 6f93 103c 5046 0b3c 464e 0f3c b923 993c
00000030: bd44 17bd 3047 5a3d 87a3 733d 2039 3d3d
00000040: bc3b e03c 0000 0000 d253 8fbd 543a 5d39
00000050: 4f69 053d 046c 99ba 1462 803c 6b34 8c3c
00000060: ff96 893c d5ca dd3b 4248 a5ba a27d 673c
00000070: e4a7 84bc 36d1 f5bc c4ee 403d 7c73 fb3c
