checkpoints/CNN1D/window480_lr0.00010_batch64_fold0_checkpoint.pth (torch, 456394 bytes, 33 tensors)

conv1.weight f4 [16, 1, 3]
0	0xbe16b6f9	-0.14718236
1	0xbf10ccaf	-0.5656232
2	0xbed14421	-0.4087229
3	0xbc781ce7	-0.01514361
4	0x3e81acda	0.25327188
5	0xbe826fa8	-0.25475812
6	0xbdf306ad	-0.11866508
7	0x3d30e510	0.0431872
8	0xbe0df116	-0.13861498
9	0x3e457df7	0.19286333
10	0xbd720872	-0.059090085
11	0x3f2f039d	0.6836489
12	0xbf175159	-0.591085
13	0x3dbe25a4	0.09284523
14	0xbf0a167f	-0.53940576
15	0x3db56342	0.088568226
16	0xbee5e72a	-0.44902927
17	0x3e9ebfcf	0.31005713
18	0x3dc31424	0.09525326
19	0xbe98e120	-0.29859257
20	0xbc3aa8f7	-0.011392823
21	0xbc9a5805	-0.0188408
22	0x3e08d2f3	0.1336172
23	0xbe6f67ce	-0.23379442
24	0xbef7a978	-0.48371482
25	0x3e944566	0.28959197
26	0x3e52db54	0.2059148
27	0xbf00d846	-0.5033001
28	0x3e8bfea7	0.27342722
29	0x3ee27dc0	0.44236565
30	0x3e98c563	0.29838094
31	0x3da23013	0.07919326
32	0x3ed10bd0	0.40829325
33	0x3f000a1e	0.5001544
34	0x3ed0a1a8	0.40748334
35	0xbeb0b803	-0.3451539
36	0xbe485a02	-0.19565585
37	0x3e67e107	0.22644435
38	0x3f1e30e5	0.6179336
39	0x3ea40d3b	0.32041344
40	0xbdce7118	-0.10080165
41	0xbe9644b4	-0.2934929
42	0xbe8d3252	-0.27577454
43	0xbdfd1668	-0.12357789
44	0x3e8cb277	0.27479908
45	0x3e02114b	0.12701909
46	0x3eaf416f	0.3422961
47	0x3f10e5ee	0.56600845

conv1.bias f4 [16]
0	0xbe3254c6	-0.17415151
1	0x3eaa8a14	0.3330847
2	0x3f076e80	0.52902985
3	0xbe614388	-0.21998417
4	0x3e431e58	0.19054544
5	0x3e5900c4	0.21191698
6	0x3ee37fae	0.4443335
7	0xbe8c8823	-0.27447614
8	0x3efde629	0.4958966
9	0x3e757ad5	0.23972638
10	0x3f130f8b	0.5744559
11	0xbcc83802	-0.02444077
12	0x3f544887	0.8292317
13	0x3f4a426f	0.7900762
14	0xbdb4def1	-0.08831585
15	0x3d96d550	0.07364905

conv2.weight f4 [32, 16, 3]
0	0xbd55eda9	-0.052228604
1	0x3da71a51	0.08159316
2	0xbd87d34b	-0.06632098
3	0xbdc05474	-0.09391108
4	0x3e0bac9b	0.13640063
5	0xbc9519a5	-0.018200705
6	0x3cab7c54	0.020933308
7	0x3e31b395	0.17353661
8	0x3db14a29	0.08656723
9	0xbc88b39f	-0.016687213
10	0x3cffbef3	0.031218981
11	0x3e947916	0.2899863
12	0x3dc7268d	0.0972415
13	0xbda8c4d0	-0.08240664
14	0x3d723ce2	0.059140094
15	0xbd410c60	-0.047130942
16	0xbe4417df	-0.19149731
17	0xbd656dc3	-0.05601288
18	0x3cc6c963	0.02426595
19	0x3d96029c	0.073247164
20	0x3b11d2bf	0.0022250859
21	0xbdee5b3d	-0.11638496
22	0x3ddfaf12	0.10922064
23	0xbc39ead9	-0.011347496
24	0xbd9da27b	-0.07697006
25	0xbdafb26b	-0.085789524
26	0x3dc48a95	0.09596745
27	0xbc8cdad8	-0.017194197
28	0xbd866f00	-0.0656414
29	0x3dc5678b	0.0963889
30	0xbce85f53	-0.028365767
31	0x3db4b107	0.08822828
32	0x3e8c1efc	0.2736739
33	0x3c810af8	0.0157523
34	0x3d823867	0.06358414
35	0xbb834647	-0.0040061804
36	0x3e18da0c	0.14926928
37	0x3d0e3701	0.034720425
38	0x3ec7c24b	0.3901542
39	0x3e1b3b81	0.15159418
40	0xbdd09deb	-0.101863705
41	0xbdad5734	-0.08463898
42	0x3df9d1e4	0.121982366
43	0xbdd087f0	-0.10182178
44	0x3bb04297	0.005379032
45	0x3cb75d10	0.022383243
46	0xbcc214ef	-0.023691623
47	0x3e592277	0.21204554
48	0xbcd1fae2	-0.025632326
49	0x3e287ee7	0.1645466
50	0xbec9a821	-0.39386085
51	0x3c00f8e9	0.007871845
52	0x3ef85ba4	0.48507416
53	0xbe98eafd	-0.29866782
54	0xbd346413	-0.04404075
55	0x3de4ffb6	0.111815855
56	0xbefb480e	-0.4907841
57	0x3dce36c0	0.100690365
58	0xbe09156e	-0.13387081
59	0xbe7da20e	-0.2476885
60	0x3cc0b26f	0.023522584
61	0x3dbd6b2c	0.09248957
62	0xbe71c401	-0.23609926
63	0x3bdb2128	0.006687302
64	0x3e138ae7	0.14408456
65	0xbea40702	-0.32036597
66	0xbda46f2c	-0.08029017
67	0xbca74a04	-0.020421036
68	0xbe818ef6	-0.25304383
69	0xbd00ef3a	-0.031478144
70	0x3e1eac5e	0.1549544
71	0xbe83c814	-0.25738585
72	0x3e0c93d3	0.13728265
73	0xbe531a62	-0.20615533
74	0xbe76cb3a	-0.24100962
75	0x3e0b2832	0.13589552
76	0x3c7133e0	0.014721841
77	0xbe8f219a	-0.27955323
78	0xbd6ae497	-0.057346907
79	0xbd9db396	-0.07700269
80	0xbd0fe6ce	-0.035132222
81	0x3d25255d	0.040318836
82	0x3db97666	0.09055786
83	0x3d000e6e	0.03126376
84	0xbcd32524	-0.025774546
85	0xbe88a9f3	-0.2669216
86	0xbe805bf0	-0.25070143
87	0xbcfc642f	-0.03080949
88	0x3d1401fd	0.03613471
89	0xbe1a0820	-0.15042162
90	0xbc3ee3a6	-0.011650955
91	0x3dbd6c5d	0.09249184
92	0xbe5d53be	-0.21613976
93	0xbd4c69b8	-0.04990551
94	0xbc20b2a2	-0.009808214
95	0xbcc7cf1a	-0.024390746
96	0xbd052312	-0.03250415
97	0x3e106550	0.14101148
98	0xbde9aed9	-0.11410303
99	0x3e0d4e2c	0.13799351
100	0x3ecef73b	0.40422997
101	0xbe7fc985	-0.24979217
102	0xbdb132a5	-0.08652238
103	0x3d313c50	0.04327041
104	0xbe049d7f	-0.12950705
105	0x3e00a7c6	0.12564
106	0xbe28241a	-0.16420022
107	0xbdc8d8e5	-0.09806994
108	0xbda071d1	-0.07834209
109	0x3e1d2c20	0.15348864
110	0xbe06446b	-0.13112037
111	0x3e188425	0.14894159
112	0x3df6e1ce	0.120547876
113	0xbd19f49d	-0.037586797
114	0xbd0ced6f	-0.03440612
115	0x3da64ea5	0.08120469
116	0x3d098fff	0.03358459
117	0x3de31613	0.11088195
118	0x3e54f5f6	0.20796952
119	0x3dc90915	0.098161854
120	0x3cb2e8fc	0.021839611
121	0x3db820da	0.08990641
122	0xbd9a38ba	-0.07530351
123	0x3e5e6164	0.21716839
124	0xbcdefb7f	-0.027219532
125	0xbd27d400	-0.040973663
126	0x3d498d43	0.049206983
127	0xbd9c183a	-0.07621808
128	0x3d1c4056	0.038147293
129	0xbc88fbf0	-0.016721696
130	0x3de8db73	0.113699816
131	0x38dd85a6	0.00010562995
132	0xbb0cb40e	-0.0021469626
133	0xbe6e7629	-0.23287262
134	0xbe5a7063	-0.21331935
135	0x3e029ee9	0.12755932
136	0x3cca2368	0.024675086
137	0x3cd5a27d	0.026078457
138	0x3d02a9e7	0.031900313
139	0xbdcf937b	-0.101355515
140	0xbe4ed074	-0.20196706
141	0x3ccaf0e3	0.024773067
142	0xbccbc139	-0.02487241
143	0x3dde4f80	0.10855007
144	0xbd61027f	-0.05493402
145	0xbda58214	-0.08081451
146	0xbda2d3e9	-0.07950575
147	0x3e073a7b	0.13205902
148	0xbe07bc87	-0.13255511
149	0xbc8d47fc	-0.017246239
150	0x3e19e5f0	0.1502912
151	0xbd8294e4	-0.06376055
152	0x3ddcfd03	0.10790446
153	0xbd7d9587	-0.06191018
154	0xbd36a232	-0.044588275
155	0x3e240306	0.16016778
156	0xbcd2c25c	-0.025727443
157	0x3e0be081	0.1365986
158	0xbcf64553	-0.030062353
159	0xbd4446c4	-0.04791905
160	0xbca40525	-0.020021984
161	0x3c62e9e3	0.013849708
162	0x3e456885	0.19278152
163	0xbd88e933	-0.06685104
164	0x3dc4821b	0.09595128
165	0x3d0ef2bc	0.03489946
166	0x3c9d9f13	0.019240892
167	0xbd86f19b	-0.06589051
168	0xbdac1ab0	-0.08403528
169	0xbd2cb619	-0.04216585
170	0xbd27a285	-0.040926475
171	0x3dc7c6e9	0.09754736
172	0x3e23d27f	0.15998267
173	0x3c8407e7	0.01611705
174	0x3dd8d2e2	0.10587098
175	0xbc02bbb5	-0.007979323
176	0x3e035d86	0.12828645
177	0x3d748f22	0.059706815
178	0x3e11e80f	0.1424868
179	0xbe15047f	-0.14552496
180	0x3dcd2475	0.10016719
181	0x3dc7a69b	0.09748574
182	0x3e436e89	0.19085135
183	0x3bbd6820	0.005780235
184	0xbd3fedbc	-0.04685758
185	0xbdceabbf	-0.10091352
186	0x3da43d55	0.08019511
187	0xbcf09c6c	-0.029371463
188	0x3e56abb6	0.2096394
189	0x3dd562a0	0.10419202
190	0x3d97b03e	0.074066624
191	0x3dbd9132	0.092562094
192	0x3d950afe	0.07277487
193	0x3c9e646b	0.019334992
194	0x3e0d9d25	0.13829477
195	0xbd7874cb	-0.060658257
196	0x3caaa0a8	0.02082856
197	0x3e6957cb	0.22787397
198	0x3e158208	0.14600384
199	0x3c8b473d	0.017001742
200	0x3e35fa01	0.1777115
201	0x3e41fc25	0.18943842
202	0x3dff8151	0.12475837
203	0xbe1fe7f2	-0.15615824
204	0x3dbb8d17	0.0915777
205	0xbd4962c0	-0.04916644
206	0x3e04dc09	0.12974562
207	0xbbd1e5b5	-0.006405557
208	0x3e49dce1	0.19713165
209	0x3d797f81	0.060912613
210	0x3dd9dd0d	0.10637865
211	0xbc7e44e4	-0.0155193545
212	0x3c4d012e	0.012512488
213	0xbd5a4a82	-0.053293712
214	0xbde2d974	-0.11076632
215	0x3e198871	0.14993455
216	0x3e15ccbc	0.14628881
217	0x3dea1241	0.11429263
218	0x3dcbe8e2	0.09956528
219	0xbd649c7f	-0.05581331
220	0x3db85002	0.08999635
221	0x3d2faceb	0.042889517
222	0xb91553c5	-0.00014240954
223	0x3e0382a4	0.12842804
224	0x3d0fe4ee	0.035130434
225	0x3e1c671b	0.15273707
226	0x3dea4bd7	0.114402466
227	0x3d8dbacf	0.069203965
228	0xbdb6f37b	-0.08933159
229	0xbccca5bd	-0.024981374
230	0xbd6b7e1a	-0.057493307
231	0x3d2d033b	0.04223941
232	0xbb1883bd	-0.0023271882
233	0x3e0a7c2f	0.13523935
234	0x3dc1f20e	0.094699964
235	0x3d58715c	0.052842483
236	0xbc9e98ce	-0.019359972
237	0x3e01689b	0.1263756
238	0x3d0ec0fa	0.034852006
239	0x3e196a2a	0.14981905
240	0xbd79708f	-0.06089836
241	0xbe20d161	-0.15704872
242	0x3d81b031	0.06332434
243	0xbdba3883	-0.0909281
244	0xbe134a6f	-0.14383863
245	0x3e1281b0	0.14307284
246	0x3d75c1ef	0.059999403
247	0xbe2a925d	-0.16657396
248	0xbd60b6ff	-0.05486202
249	0x3d51a62a	0.051183857
250	0xbe2a29b0	-0.16617465
251	0xbe089b73	-0.13340549
252	0x3cf0cdff	0.029395102
253	0x3ddf7931	0.10911787
254	0x3d535c26	0.05160155
255	0x3dfbd58c	0.1229659

conv2.bias f4 [32]
0	0x3e2ccd88	0.16875279
1	0xbd15dd6f	-0.03658813
2	0x3d89c968	0.06727868
3	0x3e5a9d42	0.21349052
4	0xbe180630	-0.1484611
5	0xbe522c43	-0.20524697
6	0xbdaf82a1	-0.08569837
7	0x3e661c17	0.22471653
8	0x3ee4c9e7	0.4468529
9	0x3cee7eeb	0.029113254
10	0x3dedf1fe	0.11618422
11	0x3e112a81	0.1417637
12	0x3ef3ec3f	0.4764118
13	0x3df3b549	0.11899812
14	0x3d362242	0.044466265
15	0x3dc3ac3a	0.09554334
16	0x3e8029ce	0.25031894
17	0x3dc7a7d1	0.09748805
18	0xbd190103	-0.03735448
19	0x3e113a16	0.14182314
20	0x3e887df3	0.26658592
21	0xbe00c655	-0.12575658
22	0x3e6d4bfd	0.23173518
23	0xbd4bf885	-0.049797554
24	0xbce725cc	-0.028216265
25	0x3ef5ffde	0.48046774
26	0x3cfbc5a1	0.030733885
27	0x3f35a007	0.7094731
28	0x3d6fafab	0.05851714
29	0x3e30278b	0.17202584
30	0xbd99ee7a	-0.07516189
31	0x3ebf0ca7	0.3731434

conv3.weight f4 [64, 32, 3]
0	0x3db6ab81	0.089194305
1	0x3b848b9e	0.004044964
2	0xbd886f98	-0.0666191
3	0x3c140197	0.009033582
4	0xbc8fb63e	-0.017542955
5	0xbdd982dc	-0.106206626
6	0x3d9ff45a	0.07810278
7	0xbde13bed	-0.10997758
8	0xbe506c7b	-0.20353882
9	0x3de7f508	0.11326033
10	0x3dfe3e64	0.12414244
11	0xbe26e34d	-0.16297646
12	0x3d10a2e9	0.035311613
13	0xbd0fc413	-0.0350991
14	0xbe11178e	-0.14169142
15	0x3dae3642	0.085064426
16	0xbe661bc1	-0.22471525
17	0xbe52d804	-0.20590216
18	0x3cd2b848	0.025722638
19	0xbc9b1ef2	-0.018935654
20	0xbde18dde	-0.11013387
21	0xbced314a	-0.028954167
22	0x3e236982	0.15958217
23	0xbe24fc40	-0.1611185
24	0xbc90c6a5	-0.017672846
25	0x3e8a8293	0.27052745
26	0xbd34888e	-0.04407554
27	0x3dc275a7	0.09495097
28	0x3c33425a	0.010941112
29	0xbe164e7a	-0.14678374
30	0x3df0cb2b	0.11757501
31	0x3da33789	0.07969577
32	0xbd6c7476	-0.057728253
33	0x3dc2837f	0.09497737
34	0x3c0a5fbe	0.008445678
35	0xbe277069	-0.16351475
36	0x3da77193	0.081759594
37	0x3e2f2493	0.17103796
38	0xbde10d6a	-0.10988887
39	0x3cdabc6b	0.026701173
40	0x3ddddbcb	0.10832938
41	0xbe79abc3	-0.24381928
42	0xbb820feb	-0.0039691827
43	0x3dcf0c10	0.101097226
44	0xbe5c326e	-0.21503612
45	0x3e5732ca	0.21015468
46	0xbe347a37	-0.17624746
47	0xbe8d2464	-0.27566826
48	0x3d87598f	0.06608879
49	0x3c33a61d	0.010964897
50	0xbc2a2c8a	-0.0103865955
51	0x3d0856e9	0.03328601
52	0x3e0d950f	0.13826393
53	0xbe2e88f2	-0.17044428
54	0x3e2435d2	0.16036156
55	0xbbb6171b	-0.0055569536
56	0xbdf19017	-0.11795061
57	0x3d379d31	0.044827644
58	0x3e06a56b	0.1314904
59	0xbcd38a53	-0.025822794
60	0xbd83c83a	-0.064346746
61	0x3c6f5e76	0.014609924
62	0xbd77cfcd	-0.06050091
63	0xbcf1dbd1	-0.029523762
64	0xbd954a04	-0.07289508
65	0xbd66c53c	-0.05634044
66	0xbd8aa205	-0.06769184
67	0x3d50be08	0.050962478
68	0xbe4c7140	-0.19965076
69	0x3de1957d	0.11014841
70	0xbde7e2ec	-0.11322579
71	0xbe30df59	-0.172727
72	0x3ceaa5cf	0.028643517
73	0xbaa9f506	-0.00129667
74	0xbe398678	-0.18117702
75	0x3e0abb59	0.1354803
76	0x3e199fb3	0.15002327
77	0xbdc8c81d	-0.098037936
78	0x3ccf6e5d	0.02532118
79	0x3c5d0f71	0.013492451
80	0xbdf2a48f	-0.11847793
81	0xbd85e9b9	-0.0653872
82	0x385453de	5.0622846e-05
83	0xbe603c6d	-0.2189805
84	0xbbbb1676	-0.0057094647
85	0x3db7c354	0.08972803
86	0xbe4f30e1	-0.2023349
87	0xbae430d4	-0.0017409571
88	0x3db8a85c	0.09016487
89	0xbdf3dbef	-0.119071834
90	0x3d073dcf	0.03301793
91	0xbd6e6f10	-0.058211386
92	0xbd9a63d5	-0.07538573
93	0x3dda144a	0.10648401
94	0x3d3785e9	0.04480544
95	0xbd619ad2	-0.05507929
96	0x3c59cdc7	0.01329369
97	0x3d2301d4	0.039796665
98	0xbe417534	-0.18892366
99	0x3dba9949	0.09111268
100	0x3da292ec	0.079381794
101	0x3d8a50ad	0.06753669
102	0x3dfb0fb7	0.12258857
103	0x3d1a160a	0.037618674
104	0x3d6e1f52	0.058135338
105	0x3def595e	0.11686967
106	0x3dace458	0.084419906
107	0x3c9a4bab	0.01883491
108	0xbd85d922	-0.065355554
109	0x3d176fc5	0.036971826
110	0x3d42c241	0.047548536
111	0xbdae8306	-0.085210845
112	0x3e0ca873	0.13736133
113	0x3db2ea0a	0.08736046
114	0x3d688b0d	0.056773234
115	0xbd55a327	-0.052157547
116	0x3d07370e	0.03301149
117	0xbc90dd93	-0.01768378
118	0x3dc3e967	0.09566002
119	0xbdb50fbe	-0.08840893
120	0x3d443289	0.047899757
121	0xbdb3f5a4	-0.087870866
122	0xbdead7ff	-0.11466979
123	0x3ca6bc8e	0.020353582
124	0x3dd1dcde	0.10247205
125	0xbac65b7d	-0.0015133467
126	0x3d802534	0.06257096
127	0xbd0abe0f	-0.03387266
128	0xbd89f23c	-0.06735656
129	0x3c402d35	0.011729528
130	0x3c5ec4e6	0.013596749
131	0x3995b761	0.00028556123
132	0xbd633604	-0.055471435
133	0xbdd797ed	-0.105270244
134	0x3d426121	0.04745591
135	0x3e019301	0.12653734
136	0xbd96c14b	-0.073610865
137	0x3d26de5e	0.04073941
138	0xbd33aede	-0.04386794
139	0x3d0735b2	0.033010192
140	0x3dfcbd14	0.12340751
141	0x3dcba6aa	0.09943898
142	0x3e6612a0	0.22468042
143	0x3e57da8d	0.21079464
144	0x3cc349fb	0.023838988
145	0xbd627d0c	-0.055295035
146	0xbdaf3e0c	-0.085567564
147	0x3ddd77c9	0.10813863
148	0x3b2d589d	0.0026450523
149	0x3cdeb085	0.02718378
150	0x3e0a14c2	0.13484481
151	0xbc9823d9	-0.018571781
152	0x3db94331	0.09046019
153	0x3d864de8	0.06557828
154	0xbe12dcc0	-0.14342022
155	0x3e0a7d62	0.13524392
156	0xbd3153e6	-0.043292902
157	0x3d2213ba	0.039569594
158	0xbe330a87	-0.17484485
159	0xbd34f588	-0.04417947
160	0x3ca1d0d0	0.01975289
161	0xbd704320	-0.058657765
162	0x3d80ffbd	0.06298778
163	0xbd6454e6	-0.055745028
164	0x3caaced1	0.02085057
165	0x3dab294c	0.08357486
166	0x3e39c8f2	0.18143061
167	0x3d0df38b	0.03465609
168	0x3d9db58d	0.07700644
169	0xbd016d83	-0.03159858
170	0x3d64dcd0	0.055874646
171	0x3de8e44b	0.113716684
172	0x3dc50a57	0.09621113
173	0xbcd34ed1	-0.025794419
174	0xbd9399da	-0.07207079
175	0xbcd3fbad	-0.025876844
176	0x3d938289	0.07202632
177	0xbd1d553f	-0.038411375
178	0x3c640c87	0.013919002
179	0xbda471c4	-0.080295116
180	0x3ce0869f	0.027407942
181	0xbc86a1c9	-0.016434567
182	0xbbbd44ce	-0.0057760244
183	0x3dd0c621	0.1019404
184	0xbd070780	-0.032966137
185	0x3cbf6cee	0.023367371
186	0x3da09a42	0.07841922
187	0x3d2de7f0	0.04245752
188	0x3d6b9dd8	0.05752358
189	0x3dbac59a	0.09119721
190	0xbd819a7c	-0.06328294
191	0xbd2f2fd3	-0.042770218
192	0xbdb7858b	-0.08961018
193	0xbdba6704	-0.0910168
194	0xbe112b08	-0.14176571
195	0x3d875ca5	0.066094674
196	0xbd5dde78	-0.05416724
197	0x3e01521e	0.12628981
198	0x3a19dcb4	0.0005869374
199	0xbc45174c	-0.01202948
200	0x3b87bfe2	0.0041427473
201	0xbd4cf994	-0.050042704
202	0xbda523e7	-0.080634885
203	0x3ca9626c	0.020676814
204	0xbdc159f2	-0.09440984
205	0x3d095eb7	0.033537593
206	0x3cd6b350	0.02620855
207	0x3c9960ab	0.018722853
208	0xbb8d3b50	-0.004310049
209	0xbdc2b6fa	-0.09507556
210	0x3d9c1c9c	0.07622644
211	0x3ca00b12	0.019536529
212	0xbc6c1aa0	-0.014410645
213	0xbbd25698	-0.006419014
214	0xbce2a146	-0.027664792
215	0xbda47da0	-0.080317736
216	0x3846b27f	4.7373116e-05
217	0xbd0f1c0e	-0.034938864
218	0x3d942d68	0.07235223
219	0x3d31dd3f	0.043423887
220	0x3d774ff0	0.06037897
221	0x3db615b8	0.08890861
222	0x3d09b327	0.03361812
223	0x3c338e60	0.010959238
224	0x3ce67fcc	0.02813711
225	0x3d2a9728	0.04164806
226	0xbe0bb808	-0.13644421
227	0x3d95ea52	0.07320084
228	0xbd82f12e	-0.063936576
229	0x3cedaf00	0.02901411
230	0x3d83508d	0.06411848
231	0x3d876d43	0.06612637
232	0xbdd0288d	-0.101639844
233	0xbcbf660e	-0.023364093
234	0xbc8a7602	-0.016901974
235	0x3baa5d97	0.005199145
236	0xbb99b606	-0.0046908883
237	0xbbca6a00	-0.006177187
238	0x3c850d22	0.016241614
239	0x3d77e702	0.06052304
240	0x3cbaef30	0.022819132
241	0xbd6331d4	-0.05546744
242	0xbc256710	-0.010095373
243	0x3ced7cbd	0.028990144
244	0xbd71dff6	-0.059051476
245	0xbc19bce6	-0.009383416
246	0xbda704ab	-0.08155187
247	0xbd85566a	-0.06510623
248	0x3dd4ba2c	0.10387072
249	0xbdcdb121	-0.1004355
250	0xbb1914a7	-0.0023358257
251	0x3dedead8	0.116170585
252	0x3c640887	0.013918049
253	0xbe09af93	-0.13445882
254	0xbdcd68bf	-0.10029744
255	0x3b8b965e	0.0042598685

conv3.bias f4 [64]
0	0x3e63cb08	0.22245419
1	0xbd9bc2ec	-0.07605538
2	0xbdee7e32	-0.116451636
3	0xbde75a67	-0.1129654
4	0x3ddcd7cb	0.10783347
5	0x3e70f80b	0.23532121
6	0xbd91fce1	-0.07128311
7	0xbe83be61	-0.25731185
8	0x3ee57d34	0.44822085
9	0x3e92f1fa	0.28700238
10	0x3e924227	0.28566095
11	0x3e43abd5	0.19108517
12	0x3e63eb85	0.22257812
13	0x3e51826a	0.20459905
14	0x3e119e4b	0.1422054
15	0x3ea1faad	0.31636563
16	0xbc3ea6b8	-0.011636429
17	0x3b18d433	0.002331984
18	0x3e79d010	0.24395776
19	0x3e907986	0.28217715
20	0x3b6743bf	0.0035288183
21	0x3d37c7f5	0.04486843
22	0xbe3ce924	-0.18448311
23	0x3e30ac12	0.1725314
24	0xbe41f569	-0.18941273
25	0xbd212ce2	-0.039349444
26	0xbe2dabf9	-0.16960134
27	0xbe1c43a2	-0.15260175
28	0xbd361e7f	-0.044462677
29	0xbe080449	-0.13282885
30	0x3ee37417	0.44424507
31	0xbd7ca2e2	-0.061678775
32	0xbe0f92b9	-0.14020814
33	0x3e67f80d	0.22653218
34	0x3eba4c66	0.36386412
35	0x3e482d68	0.19548571
36	0xbe4c7158	-0.19965112
37	0xbdb399ca	-0.08769567
38	0xbd113045	-0.035446424
39	0xbda3eca8	-0.08004123
40	0x3c8a422d	0.016877258
41	0x3dc559bd	0.09636257
42	0x3e641377	0.2227305
43	0x3cbf080c	0.023319267
44	0x3d74d35a	0.059771873
45	0xbdc16177	-0.09442418
46	0xbe859d40	-0.26096535
47	0x3e423fe7	0.1896969
48	0xbe1fa0d0	-0.15588689
49	0x3dda72e3	0.10666444
50	0x3d528496	0.051395975
51	0xbe095f68	-0.13415301
52	0x3e569bbf	0.2095785
53	0xbdef7c25	-0.116936006
54	0xbea694be	-0.32535356
55	0xbd81cdd5	-0.063380875
56	0xbd8c2306	-0.06842618
57	0x3d246140	0.040131807
58	0x3aca248c	0.0015422269
59	0x3e0e36b0	0.13888049
60	0x3e5d2d28	0.21599257
61	0x3e0a4439	0.13502587
62	0x3dfb0dd5	0.122584976
63	0x3ea54fe8	0.32287526

conv4.weight f4 [128, 64, 3]
0	0xbc663a14	-0.014051933
1	0x3bd2c947	0.0064326855
2	0xbc8e9b1f	-0.017407952
3	0xbbc42258	-0.0059855394
4	0x3c01232a	0.007881919
5	0x3d2947b1	0.041328136
6	0xbd2e3252	-0.042528458
7	0xbcb9cb05	-0.022679815
8	0xbd9b899b	-0.075946055
9	0x3ba621f6	0.0050699664
10	0x3d12c5b7	0.035833087
11	0x3d1f41be	0.038881056
12	0xbd96f228	-0.073704064
13	0x3c793378	0.015210025
14	0xbd9f5e14	-0.07781616
15	0xbcd70404	-0.026247032
16	0x3d0e9835	0.034813125
17	0xbd39c2b0	-0.045351684
18	0x3d855893	0.06511035
19	0x3d2fa95e	0.04288613
20	0x3ba5458f	0.0050436924
21	0xbd14bb6b	-0.03631155
22	0xbd1a508e	-0.03767448
23	0x3c939a86	0.018018018
24	0xbd5e9dcc	-0.054349706
25	0xbda2a40e	-0.07941447
26	0x3c4fe365	0.012688492
27	0xbd16c9b1	-0.03681344
28	0x3d46b8c1	0.04851604
29	0x3cfb547e	0.030679937
30	0xbcf84080	-0.030304193
31	0xbc2a8031	-0.01040654
32	0xbd20c4d5	-0.039250214
33	0xbcc47568	-0.023981765
34	0xbc57d880	-0.013174176
35	0x3c212569	0.009835579
36	0xbd95044d	-0.07276211
37	0xbd14be86	-0.03631451
38	0xbd9c90c2	-0.07644798
39	0x3d43822f	0.047731575
40	0x3d28359c	0.04106675
41	0x3c6a1b78	0.014288776
42	0x3d62f822	0.05541242
43	0xbd849c21	-0.06475092
44	0xbcf10479	-0.029421078
45	0x3d087aca	0.033320226
46	0xbda1debd	-0.07903812
47	0xbc9f2d83	-0.019430881
48	0x3afb08f8	0.0019152453
49	0x3d03a5d4	0.032140568
50	0x3cd25090	0.02567318
51	0x3d0a85f8	0.03381917
52	0xbd8f5035	-0.0699772
53	0xbd793fb7	-0.06085178
54	0x3d410ebd	0.047133196
55	0x3d3e3948	0.046441346
56	0x3b760433	0.0037539124
57	0xbd4af004	-0.049545303
58	0xbd3823fc	-0.044956192
59	0xbc92487e	-0.017856833
60	0x3be214fb	0.0068994737
61	0xbb989095	-0.0046559074
62	0x3cd8f379	0.026483284
63	0x3c6e516a	0.014545778
64	0xbd85c7f1	-0.065322764
65	0x3d17cb71	0.03705925
66	0x3d21bcd9	0.03948674
67	0x3ceaab04	0.028646
68	0x3c378154	0.011200268
69	0x3cec2b8e	0.028829362
70	0xbcabf894	-0.020992555
71	0xbce9518f	-0.028481273
72	0xbbdec783	-0.006798686
73	0xbd86cc21	-0.06581903
74	0xbd22dfd4	-0.03976424
75	0x3d3fa57f	0.04678869
76	0xbc2d777c	-0.010587569
77	0x3d80d93e	0.06291436
78	0xbd57cacb	-0.052683633
79	0x3cd442ae	0.025910702
80	0x3d59b723	0.05315317
81	0xbd03c07a	-0.03216598
82	0x3a541d78	0.00080915494
83	0x3a97e633	0.001158899
84	0xbcb937c0	-0.022609591
85	0x3d30f05a	0.043197967
86	0xbd5a9da2	-0.053372987
87	0xbd699572	-0.057027288
88	0xbd654f6c	-0.055983946
89	0x3bbf4d7c	0.0058380943
90	0x3ce910cd	0.028450394
91	0x3beb4279	0.007179555
92	0x3d6beb5a	0.057597496
93	0xbd3452cd	-0.044024277
94	0xbd6796f6	-0.056540452
95	0x3d4fc36f	0.05072349
96	0x3c84c7a5	0.01620848
97	0x3cb0af3a	0.02156793
98	0x3c45d43e	0.012074528
99	0xbc8e9c7a	-0.017408598
100	0xbcd7e9f0	-0.026356667
101	0x3d4b2bc4	0.049602285
102	0xbd240b8b	-0.04005007
103	0x3c030a49	0.007998058
104	0x3b7acb9a	0.0038268329
105	0xbc586ed3	-0.013210016
106	0x3d2ca212	0.04214675
107	0xbcc28cd7	-0.023748798
108	0x3d05c233	0.032655906
109	0x3d430d19	0.047619913
110	0xbd847bb8	-0.0646891
111	0xbc1e5b22	-0.009665282
112	0x3d353943	0.044244062
113	0xbd509743	-0.050925504
114	0xbda3db15	-0.08000771
115	0x3c90c34a	0.017671246
116	0x3b44f239	0.0030051603
117	0x3b38a33a	0.0028173462
118	0x3cb20b1d	0.021733815
119	0xbd8c5278	-0.06851667
120	0x3d3a6684	0.045507923
121	0x3d5eb97a	0.054376103
122	0xbcd90693	-0.026492393
123	0xbbb350fa	-0.0054722996
124	0xbcf98ca8	-0.030462578
125	0xbca75c25	-0.02042968
126	0xbc6e9f08	-0.014564283
127	0xbd2b350a	-0.04179863
128	0xbd76616d	-0.060151506
129	0xbd95ac77	-0.07308286
130	0x3d389c27	0.045070793
131	0xbd96c2a4	-0.073613435
132	0xbd90d397	-0.070716076
133	0xbb125ecd	-0.0022334338
134	0x3cd2779d	0.025691802
135	0xbd5418d1	-0.05178148
136	0x3c159c9c	0.009131577
137	0xbc75ae57	-0.014995179
138	0xbcaded17	-0.021231217
139	0x3c032e9d	0.008006719
140	0x3d6a0dff	0.057142254
141	0x3bbed001	0.005823136
142	0xbd50e394	-0.050998285
143	0xbc2e3477	-0.010632626
144	0xbca37cba	-0.019956935
145	0xbd40efa2	-0.04710353
146	0xbd27eb21	-0.04099572
147	0xbce6ae0c	-0.028159164
148	0xbd88ad65	-0.066736974
149	0xbd4a913b	-0.04945491
150	0xba1fb415	-0.0006092203
151	0x3d21dbf4	0.039516404
152	0xbc5a362c	-0.01331858
153	0xbbb3e9f9	-0.005490538
154	0x3ceb85ae	0.028750267
155	0xbb2e75ef	-0.0026620587
156	0xbd6d8d24	-0.05799593
157	0x3d046812	0.03232581
158	0xbd25b6c1	-0.04045749
159	0x3d7281a9	0.059205685
160	0xbb363c67	-0.0027806999
161	0xbd7a304b	-0.061081212
162	0xbd6ff4f2	-0.058583207
163	0x3c0a53e6	0.0084428545
164	0xbd16070b	-0.03662781
165	0xbc1175b3	-0.008878159
166	0xbc1431f7	-0.009045116
167	0x3d45e87d	0.04831742
168	0x3d280e58	0.041029304
169	0x3cb4b271	0.022057744
170	0x3c8174ba	0.01580273
171	0x3bb2f71d	0.005461587
172	0xbc16acdd	-0.009196487
173	0x3cfc2cfd	0.03078317
174	0x3ce16985	0.027516136
175	0x3bb53551	0.0055300375
176	0x3d2c09ac	0.04200141
177	0xbd9c4a39	-0.07631344
178	0xbd452bb6	-0.04813739
179	0xbd393814	-0.045219496
180	0xbd87a045	-0.06622366
181	0xbd96c0a2	-0.073609605
182	0xbd2f8cdb	-0.04285894
183	0x3c8a341c	0.01687055
184	0xbd2f1fa0	-0.04275477
185	0x3d683b37	0.056697097
186	0xbc5e45f8	-0.013566487
187	0xbd887532	-0.06662978
188	0x3cf5acfd	0.029989714
189	0xbcf2cc44	-0.029638417
190	0xbd4d985b	-0.050194126
191	0xbc222866	-0.009897327
192	0x3cee6da0	0.029105008
193	0x3b142888	0.0022607166
194	0xbd32862b	-0.043584984
195	0xbd9644a0	-0.07337308
196	0xbd233d3d	-0.039853323
197	0x3d145cfb	0.036221486
198	0xbd30a0ff	-0.043122288
199	0xbc852a5c	-0.01625555
200	0x3e089eee	0.13341877
201	0xbcd924f5	-0.02650688
202	0xbd5cdfe9	-0.053924475
203	0x3e435074	0.19073659
204	0xbd786957	-0.060647335
205	0x39f251e6	0.00046218856
206	0x3dcd5b6f	0.10027205
207	0xbc53d25a	-0.01292857
208	0xbd89179d	-0.06693957
209	0xbe059175	-0.13043769
210	0x3c99863c	0.018740766
211	0xbd5857ce	-0.052818112
212	0x3d82e7c0	0.06391859
213	0x3ded0f30	0.115751624
214	0x3d32bdbf	0.043637987
215	0x3d77250c	0.060338065
216	0x3d0da08e	0.034576945
217	0xbd8729dc	-0.06599781
218	0xbd085e9f	-0.033293363
219	0x3c56ce5a	0.0131107215
220	0xbd42a018	-0.04751596
221	0xbdcaa13b	-0.098940335
222	0x3b7ae791	0.0038284997
223	0x3cf0213c	0.029312722
224	0xbd54a7ee	-0.051917963
225	0xbcbf771d	-0.023372227
226	0x3c12b32b	0.00895385
227	0x3b26d864	0.0025458569
228	0x3d35da29	0.044397507
229	0x3d8c858c	0.068614095
230	0xbc9a5103	-0.018837458
231	0xbd0ac8da	-0.033882953
232	0xbcf7e394	-0.030259885
233	0xbd4ad645	-0.04952075
234	0xbc118c90	-0.00888361
235	0x3c2d3cc8	0.010573573
236	0xbb29e86a	-0.0025925883
237	0xbcfd2c19	-0.030904816
238	0x3cba639f	0.022752581
239	0xbd24b3e2	-0.040210612
240	0x3d91e55a	0.071238235
241	0xbdc5eaee	-0.0966395
242	0x3dfbb327	0.1229003
243	0xbd00c6ab	-0.031439465
244	0xbc791bcd	-0.015204382
245	0xbc960e2d	-0.018317306
246	0xbdb54675	-0.08851329
247	0x3d0da74d	0.03458338
248	0x3db19733	0.08671417
249	0xbc91411f	-0.017731247
250	0xbdb25b54	-0.08708826
251	0xbd8559c7	-0.06511264
252	0xbd2735c1	-0.040822748
253	0xbc1568e0	-0.009119242
254	0x3cd1b077	0.02559684
255	0x3dabd41a	0.083900645

conv4.bias f4 [128]
0	0xbda00658	-0.0781371
1	0xbe79590e	-0.24350378
2	0xbaa1ff24	-0.0012359363
3	0xbdfadfd2	-0.122497216
4	0xbdf545ab	-0.11976179
5	0xbe883872	-0.26605564
6	0xbe3c0848	-0.18362534
7	0xbe46bbf8	-0.19407642
8	0xbdcf7921	-0.101305254
9	0xbe5d243c	-0.21595854
10	0xbe206050	-0.1566174
11	0xbe823fd4	-0.25439322
12	0xbdea4811	-0.11439527
13	0xbe183351	-0.14863326
14	0xbe9ee447	-0.31033537
15	0xbd9d008b	-0.07666119
16	0xbe71f492	-0.23628452
17	0xbda8255c	-0.08210251
18	0xbdb320af	-0.08746468
19	0x3e70d56b	0.23518912
20	0xbe2e23a3	-0.17005782
21	0xbe84a4dc	-0.25907028
22	0xbe7160a3	-0.2357202
23	0xbe743fbc	-0.23852438
24	0x3e62a69e	0.22133872
25	0x3e49f5f5	0.19722731
26	0xbe5099d2	-0.20371178
27	0x3def6220	0.11688638
28	0xbbcb315b	-0.006200952
29	0xbe5baa44	-0.2145167
30	0xbe2f0f1b	-0.17095606
31	0xbcb715ad	-0.022349203
32	0xbe0f068b	-0.1396734
33	0xbe4448bc	-0.19168371
34	0xbe7d0da2	-0.24712232
35	0xbd231c95	-0.03982218
36	0x3e12b89f	0.1432824
37	0xbe59cbd5	-0.21269162
38	0xbe86bcaf	-0.2631583
39	0xbe30107e	-0.17193791
40	0xbd285c84	-0.041103855
41	0xbe16a07e	-0.1470966
42	0x3d1ee483	0.038792145
43	0xbdd7260e	-0.10505305
44	0xbe669440	-0.2251749
45	0xbbc9611b	-0.006145609
46	0xbe6681ea	-0.22510496
47	0x3e863394	0.26211226
48	0xbd8631c1	-0.065524586
49	0xbe1695a4	-0.14705521
50	0xbe5338ea	-0.2062718
51	0xbe59064c	-0.21193808
52	0xbe44d175	-0.19220527
53	0xbda47979	-0.080309816
54	0xbd0e683b	-0.03476737
55	0x3dbdf131	0.09274519
56	0xbe3143c1	-0.17311002
57	0x3e950c48	0.29110932
58	0xbe93a36c	-0.28835618
59	0x3e501ec6	0.20324239
60	0xbd881dec	-0.06646332
61	0xbcd493fe	-0.025949474
62	0x3ddc408c	0.10754499
63	0x3e053b07	0.13010798
64	0x3dc76bf1	0.09737385
65	0x3e85988a	0.2609294
66	0xbe803ee4	-0.25047982
67	0xbe689399	-0.22712554
68	0xbe7691e5	-0.24079092
69	0xbe83222b	-0.25612006
70	0xbe1a2353	-0.15052538
71	0xbe482882	-0.19546703
72	0xbe8509c2	-0.25984007
73	0xbe7869b0	-0.24259067
74	0xbe9b8156	-0.30372113
75	0xbe369349	-0.17829622
76	0xbe4b3f56	-0.1984838
77	0xbe84b59e	-0.25919813
78	0xbe72cd87	-0.23711215
79	0x3c44e1c7	0.01201672
80	0xbe8e4d02	-0.27793127
81	0x3e4bde47	0.19909011
82	0xbe2d571b	-0.1692776
83	0xbe90b891	-0.28265813
84	0x3e3abcf4	0.18236142
85	0x3e39d635	0.1814812
86	0xbdb75b02	-0.08952905
87	0xbe162507	-0.14662562
88	0x3e85a55d	0.26102725
89	0x3e08b69f	0.13350914
90	0x3e09c980	0.13455772
91	0xbe01abeb	-0.12663238
92	0xbd0508ca	-0.032479085
93	0xbe5aa20c	-0.21350878
94	0xbe60ea4a	-0.21964374
95	0xbe8b2b0d	-0.27181283
96	0xbe53e038	-0.20691001
97	0xbe09625e	-0.1341643
98	0xbe953340	-0.29140663
99	0xbddcc6bf	-0.10780095
100	0x3e967a84	0.29390347
101	0xbe5132a8	-0.2042948
102	0x3e40e11c	0.18835872
103	0xbe800a7f	-0.25008008
104	0x3c478557	0.012177787
105	0x3e1116bd	0.1416883
106	0x3e948f27	0.29015467
107	0xbe1e3c21	-0.15452625
108	0x3da11404	0.07865146
109	0x3c1d8e22	0.009616407
110	0xbdb955c6	-0.09049563
111	0xbcefc168	-0.029267028
112	0xbe8cd7cf	-0.275084
113	0xbe358ba8	-0.17729056
114	0xbe5ba1a5	-0.21448381
115	0x3e93ab43	0.288416
116	0xbd6aa257	-0.057283726
117	0xbe949660	-0.29020977
118	0xbe867830	-0.2626357
119	0xbe63147d	-0.22175784
120	0x3e63a897	0.2223228
121	0xbe63216c	-0.22180718
122	0xbe541641	-0.20711614
123	0xbe39c366	-0.18140945
124	0x3e833812	0.25628716
125	0xbe84df4f	-0.2595162
126	0xbe8c0413	-0.27346858
127	0xbe606814	-0.21914703

fc1.weight f4 [32, 128]
0	0x3c0272ba	0.007961923
1	0xbcfcd59c	-0.030863576
2	0xbdad3fe7	-0.08459454
3	0xbd99d94c	-0.07512149
4	0xbe274be5	-0.16337545
5	0xbd0e3d96	-0.0347267
6	0xbde4f1b5	-0.111789145
7	0xbda9c72d	-0.08289943
8	0xbd678d8d	-0.056531478
9	0xbd516231	-0.051119033
10	0xbcecfcc1	-0.028929116
11	0xbc5d9bce	-0.013525916
12	0xbdac65e5	-0.08417872
13	0xbd8960d9	-0.06707925
14	0xbca50e72	-0.02014849
15	0xbe0413ef	-0.12898229
16	0x3c38b3af	0.011273309
17	0xbde5137a	-0.111853555
18	0xbe1ec46f	-0.15504621
19	0x3e270866	0.16311797
20	0xbb78c604	-0.0037959823
21	0xbdde52f0	-0.10855663
22	0xbdfc1c81	-0.12310124
23	0x3cebd410	0.028787643
24	0x3e4bffcb	0.19921796
25	0x3e30eba1	0.17277385
26	0xbddeaf52	-0.108732834
27	0x3e34289f	0.1759362
28	0x3d93ee56	0.07223193
29	0xbd3309e7	-0.043710615
30	0xbd2eff16	-0.042723738
31	0xbcd6fa2a	-0.026242334
32	0x3d17b1d9	0.037034843
33	0x3d0596e4	0.032614604
34	0x3c9ddd67	0.019270612
35	0xbc46a810	-0.01212503
36	0x3e50ffb2	0.2041004
37	0xbda95f47	-0.08270126
38	0xbde8f809	-0.11375434
39	0x3cad6f65	0.021171281
40	0xbd67b4e0	-0.05656898
41	0xbd211f8b	-0.039336722
42	0xbc47df6a	-0.012199262
43	0xbd5e3f9d	-0.054259885
44	0xbd7d27e5	-0.061805625
45	0x3ad4cfcc	0.0016236245
46	0xbbd6dbbd	-0.0065569566
47	0x3d512ba9	0.05106703
48	0xbdfaef2c	-0.1225265
49	0xbdd7bf4e	-0.10534535
50	0x3c9ebed1	0.019378098
51	0xbdc2a9e2	-0.09505059
52	0xbde2bb71	-0.11070908
53	0xbe0dfed1	-0.13866736
54	0xbe1fe263	-0.15613703
55	0x3e247f5c	0.16064209
56	0xbd89291d	-0.06697295
57	0x3e2d65aa	0.16933313
58	0xbd433881	-0.04766131
59	0x3e0b7722	0.13619664
60	0x3cfa3f89	0.030547874
61	0xbdbc034d	-0.09180317
62	0x3e16977b	0.14706223
63	0x3e2dbd2f	0.16966699
64	0xbdb1a257	-0.08673542
65	0x3e0df3f3	0.1386259
66	0xbd5d0b9f	-0.05396616
67	0xbcb7a85b	-0.022419145
68	0xbdaedb43	-0.085379146
69	0xbd9098d0	-0.07060397
70	0xbdf603b7	-0.12012427
71	0x3c818a98	0.015813157
72	0xbde4fa86	-0.11180596
73	0xbdb368c2	-0.08760215
74	0xbd5a4f34	-0.05329819
75	0xbd47a0bd	-0.048737276
76	0xbde5e157	-0.11224621
77	0xbd31a8f2	-0.04337401
78	0xbd9a3dc2	-0.075313106
79	0x3d3894a6	0.045063637
80	0xbcbecfd8	-0.023292467
81	0x3e39a0b3	0.18127708
82	0xbdb44fa2	-0.08804251
83	0xbd900982	-0.070330635
84	0x3e296cc6	0.165454
85	0x3df45797	0.11930769
86	0xbd9f213b	-0.0777001
87	0xbd5b4ce2	-0.053540118
88	0x3e7368cf	0.2377045
89	0x3e53e402	0.20692447
90	0x3e1a9880	0.15097237
91	0xbd733f27	-0.0593864
92	0xbe294ccd	-0.16533203
93	0xbdd135e4	-0.10215357
94	0xbda9924a	-0.082798555
95	0x3ca2fe0f	0.019896535
96	0xbe075ae8	-0.13218272
97	0xbde5eb1f	-0.112264864
98	0xbcd06f87	-0.025443805
99	0xbd058555	-0.03259786
100	0x3dc78b48	0.09743363
101	0x3c0457cb	0.008077572
102	0x3e5ca2fe	0.21546552
103	0xbd759309	-0.059954677
104	0x3bee5a8c	0.0072739776
105	0x3db7291b	0.08943387
106	0x3e00b620	0.12569475
107	0xbd8dacf1	-0.069177516
108	0x3dcde2e7	0.10053044
109	0xbdaeed98	-0.08541411
110	0x3db02d31	0.086023696
111	0xbd9cfad1	-0.07665027
112	0xbe048065	-0.12939604
113	0xbd6e8e10	-0.05824095
114	0xbd0e673f	-0.034766432
115	0x3e2e2902	0.1700783
116	0xbd981ee5	-0.07427768
117	0x3d2197dd	0.03945147
118	0xbd36c704	-0.04462339
119	0xbdf8090f	-0.12111103
120	0x3e0e2be4	0.1388393
121	0xbd0f2017	-0.034942713
122	0xbde3a87f	-0.111161225
123	0xbc00e4a2	-0.00786701
124	0x3e23acdb	0.15983908
125	0xbe0099e8	-0.1255871
126	0xbdbd0569	-0.092295475
127	0xbc4dff15	-0.012573023
128	0xbd06e4b2	-0.032932945
129	0xbe096629	-0.13417877
130	0x3d0968e6	0.033547305
131	0xbe00c2b7	-0.12574278
132	0xbe57def7	-0.21081148
133	0xbde342ce	-0.11096726
134	0xbdefff18	-0.11718577
135	0xbdeb45d4	-0.11487928
136	0xbd9a36ec	-0.07530007
137	0x3c725d5a	0.014792765
138	0xbd6b9925	-0.057519097
139	0xbdfd13b1	-0.123572715
140	0xbc405b60	-0.0117405355
141	0xbd8fefcb	-0.07028159
142	0xbdb109fc	-0.086444825
143	0xbe251d61	-0.16124488
144	0xbdc91a02	-0.09819414
145	0xbdd25e31	-0.10271872
146	0xbe0997ef	-0.13436864
147	0x3e2ac6de	0.16677424
148	0xbbdb73c3	-0.0066971495
149	0xbd564c2b	-0.052318733
150	0xbdd0e44a	-0.10199793
151	0xbd9af7eb	-0.07566818
152	0x3e5098d3	0.20370798
153	0x3e5aedf7	0.21379839
154	0xbdde6c5d	-0.108605124
155	0x3de7100c	0.112823576
156	0xbcbf5cf4	-0.023359753
157	0xbddae2a1	-0.10687757
158	0xbd69952a	-0.05702702
159	0xbc072d5b	-0.00825056
160	0xbc3871f2	-0.011257635
161	0xbdf32bb2	-0.118735686
162	0x3c317162	0.010830255
163	0xbe07e6e9	-0.13271679
164	0x3deda404	0.11603549
165	0xbce51e96	-0.027968686
166	0xbc2a47bf	-0.010393082
167	0xbdaed25d	-0.08536217
168	0xbcd8db07	-0.026471628
169	0xbe0bed3d	-0.13664718
170	0xbd7310ca	-0.059342183
171	0xbdd16f6c	-0.1022633
172	0xbe0eb6cf	-0.13936923
173	0x3d74007f	0.059570786
174	0xbd1342da	-0.035952426
175	0x3d672718	0.056433767
176	0xbda2a853	-0.079422615
177	0xbdb0f149	-0.086397715
178	0xbdd17ec9	-0.102292605
179	0xbd8f304c	-0.06991634
180	0xbdf3a2be	-0.11896275
181	0xbe076de3	-0.13225512
182	0xbd313db2	-0.043271728
183	0x3d8686ed	0.06568704
184	0xbdfd0484	-0.12354377
185	0x3e72f7f6	0.23727402
186	0xbc41cf04	-0.0118291415
187	0x3e2821d3	0.16419153
188	0xbd2ca49b	-0.042149168
189	0x3c913a63	0.017728036
190	0x3d36da71	0.044641916
191	0x3dbf7a82	0.093495384
192	0x3bd97ff0	0.006637566
193	0x3e168b50	0.14701581
194	0xbd25104d	-0.04029875
195	0xbcab81e4	-0.02093596
196	0xbdb62644	-0.08894017
197	0xbda8e7a1	-0.08247305
198	0xbd967e73	-0.07348337
199	0xbded545c	-0.11588356
200	0xbbca3372	-0.0061706835
201	0xbd0ba90c	-0.034096763
202	0xbd626cdc	-0.055279598
203	0x3cabc41b	0.020967534
204	0xbddd9ae8	-0.10820562
205	0xbda1fcd4	-0.07909551
206	0xbba3b7f5	-0.0049962946
207	0x3d2c7a66	0.042108916
208	0xbddf83b2	-0.10913791
209	0x3e1cf5ee	0.1532819
210	0xbd9e6c54	-0.07735506
211	0xbd42005d	-0.047363628
212	0x3d8d0972	0.06886567
213	0x3e02db74	0.12779027
214	0xbd7a1522	-0.06105531
215	0xbd8743bd	-0.06604717
216	0x3e485e98	0.19567335
217	0x3e684e07	0.22686015
218	0x3e135024	0.1438604
219	0xbd6d0a02	-0.057870872
220	0xbe205056	-0.15655646
221	0x3be35028	0.0069370456
222	0xbdd447d6	-0.10365264
223	0xbdac2e0c	-0.0840722
224	0x3d1f455d	0.03888451
225	0x3bd551db	0.006510002
226	0xbca03f0b	-0.019561311
227	0xbddd7d97	-0.1081497
228	0x3e6d15ab	0.23152797
229	0x3b60035a	0.0034181685
230	0x3e508fe0	0.20367384
231	0xbd42e5b8	-0.047582358
232	0x3cbe2bc2	0.023214225
233	0x3e269bab	0.1627032
234	0x3e2453b6	0.16047558
235	0xbcbf016c	-0.023316108
236	0x3db37a7a	0.08763595
237	0x3d9d30ec	0.07675347
238	0x3c204b70	0.009783611
239	0xbd5fbe79	-0.05462501
240	0xb9a0a20f	-0.0003063832
241	0xbde47e09	-0.11156852
242	0xbdb03c38	-0.08605236
243	0x3e6d3772	0.23165682
244	0x3db5013d	0.08838127
245	0xbd83236e	-0.06403242
246	0xbda4cb0c	-0.080465406
247	0xbdcee8b4	-0.10102978
248	0x3e49d0aa	0.19708505
249	0xbb856f98	-0.004072141
250	0xbca91b3a	-0.020642865
251	0xbd53dcd3	-0.051724266
252	0x3db5521b	0.08853551
253	0xbd1bf5e7	-0.038076308
254	0xbd772eaf	-0.060347255
255	0xbc15716d	-0.009121281

fc1.bias f4 [32]
0	0x3e208fc6	0.15679845
1	0x3deb66fa	0.114942506
2	0xbe2d51d8	-0.16925752
3	0xbcca7eb1	-0.024718614
4	0x3d82a1a8	0.0637849
5	0xbdd8a6fa	-0.10578723
6	0x3dfd1015	0.12356583
7	0xbdd53e10	-0.10412228
8	0xbd534202	-0.05157662
9	0xbe05db72	-0.13071993
10	0x3d8f96f6	0.070112154
11	0x3e01d7ac	0.12679929
12	0xbdec06fa	-0.11524768
13	0x3d857f5a	0.06518431
14	0x3d9e37a5	0.07725457
15	0x3dc9c7ce	0.09852563
16	0xbd7c5256	-0.06160196
17	0xbe0537a3	-0.13009505
18	0x3da435be	0.08018063
19	0xbe0c617e	-0.13709065
20	0x3d81008e	0.06298934
21	0x3dc9f679	0.09861464
22	0xbda134df	-0.078714125
23	0x3d61651a	0.05502806
24	0xbdbbd5d1	-0.091716416
25	0x3d5115af	0.05104607
26	0xbc679d76	-0.014136663
27	0x3c8cc62b	0.017184338
28	0x3e2bd945	0.167821
29	0xbe1946df	-0.14968441
30	0x3dfd2130	0.12359846
31	0x3e21145e	0.15730426

fc2.weight f4 [1, 32]
0	0x3e25bdd6	0.16185698
1	0x3e1c87d9	0.15286197
2	0xbdf6ca4b	-0.12050303
3	0xbe36325d	-0.1779265
4	0x3e3ae8ea	0.18252912
5	0xbe30d9e4	-0.17270619
6	0x3de71b5c	0.11284515
7	0xbdf1f47a	-0.11814208
8	0xbe33d34d	-0.17561074
9	0xbe0d0d3a	-0.13774577
10	0x3e536bfd	0.20646663
11	0x3e303d51	0.1721089
12	0xbe164223	-0.14673667
13	0x3de66f1c	0.11251661
14	0x3e4e5d2d	0.20152731
15	0x3e0024e6	0.12514076
16	0xbe5138af	-0.2043178
17	0xbe390244	-0.1806727
18	0x3deebef0	0.11657512
19	0xbdd628bc	-0.10456988
20	0x3e1f9131	0.1558273
21	0x3e281b73	0.16416721
22	0xbe0ad265	-0.13556822
23	0x3e118e12	0.14214352
24	0xbe331ea1	-0.17492153
25	0x3e41f696	0.18941721
26	0xbe0469dc	-0.12931007
27	0x3e4fbbc1	0.20286466
28	0x3e156038	0.14587486
29	0xbe444b7c	-0.1916942
30	0x3e016519	0.12636222
31	0x3de9df0b	0.11419495

exp_avg f4 [16, 1, 3]
0	0x3f60b492	0.8777553
1	0x3ff1a52a	1.8878529
2	0xbe2f000b	-0.1708986
3	0x3f9b6954	1.2141519
4	0x3fde8bbd	1.7386395
5	0x3fde7cbf	1.738182
6	0x3f03cfcc	0.5148895
7	0x3f440af9	0.7657924
8	0x3f0c0502	0.5469514
9	0xbd8b8409	-0.06812293
10	0xbf174230	-0.5908537
11	0x3ebe6a9c	0.37190711
12	0x3dbf5c25	0.09343747
13	0x3e5114ab	0.2041804
14	0x3f36c751	0.7139788
15	0x3ee3adc3	0.44468507
16	0x3fac2678	1.344924
17	0x3de397ce	0.11112939
18	0x3f3b2f37	0.7311892
19	0x3f4fc19f	0.8115482
20	0x3fc03f98	1.5019407
21	0xbed8e21f	-0.42360017
22	0x3d72db02	0.059290893
23	0x3ea6d247	0.32582304
24	0x3d635b77	0.05550715
25	0x3fb4d2ae	1.4126794
26	0x3e795841	0.24350072
27	0x3f85dd34	1.0458131
28	0x3f9f960d	1.2467667
29	0x3ed378d6	0.41303128
30	0x3e7c623f	0.24646853
31	0x3c98064b	0.018557688
32	0x3e8421e9	0.2580712
33	0x3e216eea	0.15764967
34	0x3e2977b1	0.16549565
35	0x3f8fba97	1.1228818
36	0xbfc6517b	-1.5493616
37	0xbe629ac2	-0.22129348
38	0x3f32ba02	0.69815075
39	0xbca4eab3	-0.020131445
40	0x3fc14052	1.5097754
41	0x3e6655fc	0.22493738
42	0x3f647b9c	0.8925111
43	0x3f417374	0.7556679
44	0x3f114283	0.56742114
45	0xbd99cab4	-0.07509366
46	0x3e3e096d	0.18558283
47	0x3ebf27ea	0.3733514

exp_avg_sq f4 [16, 1, 3]
0	0x448f9664	1148.6997
1	0x448bca46	1118.321
2	0x4490abc9	1157.3683
3	0x45b96878	5933.0586
4	0x45d049e2	6665.2354
5	0x460afc5b	8895.089
6	0x4339122d	185.071
7	0x432f8275	175.5096
8	0x4337417d	183.25581
9	0x42965e7a	75.184525
10	0x42ac2ffb	86.09371
11	0x41b99f6d	23.202845
12	0x43d0a617	417.29758
13	0x43d90bb6	434.0915
14	0x4403aa8c	526.6648
15	0x45732f43	3890.9539
16	0x457f91a9	4089.1038
17	0x440da97a	566.6481
18	0x42437011	48.85944
19	0x42396595	46.3492
20	0x42864e97	67.153496
21	0x452a23cb	2722.237
22	0x452a99a0	2729.6016
23	0x454136dc	3091.4287
24	0x448631aa	1073.552
25	0x44a55192	1322.5491
26	0x43312250	177.13403
27	0x42a21595	81.04215
28	0x4282f5fb	65.48043
29	0x42169409	37.644566
30	0x40d268b3	6.5752807
31	0x40b2c3e0	5.5864105
32	0x407e5421	3.9738848
33	0x40f57696	7.670726
34	0x416b0cb2	14.690599
35	0x42664f6b	57.577557
36	0x44040c90	528.1963
37	0x43baf04d	373.87735
38	0x41842c7f	16.521727
39	0x44b37114	1435.5337
40	0x44b8ead5	1479.3385
41	0x44c9405f	1610.0116
42	0x440561ed	533.5301
43	0x44002635	512.597
44	0x42d0db87	104.428764
45	0x406458e9	3.5679266
46	0x40721cf6	3.7830176
47	0x4047f083	3.1240547

exp_avg f4 [16]
0	0xbdd81e20	-0.10552621
1	0xbceab3eb	-0.028650245
2	0xbd4b6d50	-0.049664795
3	0xbd1ab1a7	-0.03776708
4	0xbd95b50c	-0.073099226
5	0xbe0d3a5f	-0.13791798
6	0xba8800d1	-0.001037622
7	0xbdaec0bf	-0.08532857
8	0xbc94699a	-0.018116761
9	0xbd238f87	-0.0399318
10	0x3c83fe44	0.016112454
11	0x3cbeb4b9	0.023279535
12	0x3e4e3562	0.20137551
13	0xbc1be5fd	-0.009515283
14	0xbd8eb3a4	-0.069678575
15	0xbbc41912	-0.005984434

exp_avg_sq f4 [16]
0	0x3e645756	0.22298941
1	0x3f89d8c9	1.0769283
2	0x3d285b9d	0.041102994
3	0x3e08ed0b	0.13371675
4	0x3dca7128	0.09884864
5	0x3f5dd71b	0.8665635
6	0x3c268bfc	0.010165211
7	0x3f2161df	0.63039964
8	0x3e1f980d	0.15585347
9	0x3d3f8165	0.04675426
10	0x3cd4cc86	0.02597643
11	0x3cb80868	0.022464946
12	0x3ebc4489	0.36771038
13	0x3e8ec74f	0.27886435
14	0x3dfb1c5d	0.12261269
15	0x3c21ab4e	0.009867502

exp_avg f4 [32, 16, 3]
0	0x3e288699	0.16457595
1	0x3f525966	0.8216766
2	0x3e3d9ba8	0.1851641
3	0x3e169457	0.14705025
4	0x3e8c9bd3	0.27462634
5	0xbd9ae3d5	-0.07562987
6	0x3d3da9b1	0.04630441
7	0x3e628930	0.22122645
8	0x3c3e6fae	0.011623306
9	0x3edd2565	0.43192592
10	0x3dc5496b	0.09633144
11	0x3e147024	0.14495903
12	0x3da5a690	0.0808841
13	0x3f520801	0.82043463
14	0x3d6c3cc7	0.05767515
15	0x3bbb0ff0	0.005708687
16	0x3ec158f4	0.37763178
17	0xbd65d26c	-0.056108877
18	0x3de35855	0.111008324
19	0x3eb24d26	0.34824485
20	0xbc97c2c6	-0.018525492
21	0x3ddbfc8b	0.10741528
22	0x3e7f52a8	0.24933875
23	0xbda6678f	-0.08125221
24	0xbdbf4b94	-0.09340587
25	0xbd386ebf	-0.04502749
26	0x3ecfd788	0.40594125
27	0x3d63414e	0.0554822
28	0xbe163a9e	-0.14670798
29	0x3ee46c52	0.44613892
30	0x3ee19436	0.44058388
31	0x3de3c7c8	0.111220896
32	0x3da3095e	0.07960771
33	0x3f1a45c6	0.60262716
34	0x3f040b2b	0.5157954
35	0x3d8da7e5	0.06916789
36	0x3ebcf850	0.36908197
37	0xbdb9e7e4	-0.09077433
38	0x3e90dea4	0.2829486
39	0x3eb95f2d	0.36205426
40	0x3f068bee	0.52557266
41	0xbe1e7649	-0.1547481
42	0xbd1b76d7	-0.03795513
43	0x3e1ee9ce	0.15518877
44	0x3e3924fa	0.18080512
45	0x3f02fa46	0.51163137
46	0xbc0dbf31	-0.008651541
47	0x3e2a4ff7	0.16632067
48	0xbf8bdf9a	-1.0927613
49	0xbfbfd755	-1.4987589
50	0x31dea9d8	6.4803594e-09
51	0xbe6cc519	-0.23122062
52	0xbe6b6def	-0.22991155
53	0xbb3a23e8	-0.002840275
54	0xbeb5e145	-0.3552343
55	0xbe89e6e6	-0.26933974
56	0xb8dd0d9f	-0.00010540638
57	0xbf00b84a	-0.502812
58	0xbdeffe8a	-0.11718471
59	0xbb03098b	-0.0019994702
60	0xbfb26a20	-1.3938637
61	0xbf792b40	-0.9733162
62	0xb57ad8df	-9.3447846e-07
63	0xbe0d38f5	-0.13791259
64	0xbf12c1f7	-0.57327217
65	0xba0fe480	-0.0005489066
66	0xbe893934	-0.26801455
67	0xbf0d7b50	-0.55266285
68	0xbaaf85ae	-0.001339128
69	0xbe865957	-0.26240036
70	0xbe409cba	-0.18809786
71	0xb9c2c4d1	-0.00037149203
72	0xbea094b3	-0.31363449
73	0xbf2990ae	-0.6623639
74	0xb832632d	-4.253087e-05
75	0xbec63bc1	-0.38717464
76	0xbf12a489	-0.5728231
77	0xb59e45cd	-1.1792232e-06
78	0xbeb21659	-0.34782675
79	0xbdbdee94	-0.09274021
80	0xbbb434e6	-0.00549947
81	0xbecc41fa	-0.39894086
82	0xbf55d5fe	-0.8352965
83	0xbc0be532	-0.008538531
84	0xbf0d655a	-0.55232775
85	0xbdf32dcd	-0.1187397
86	0xbb5f952b	-0.003411601
87	0xbf0780b8	-0.52930784
88	0xbebcb081	-0.36853412
89	0xbb9fbe08	-0.0048749484
90	0xbeccd68c	-0.40007436
91	0xbede08b2	-0.4336601
92	0x30cb2732	1.4781334e-09
93	0xbf0bb37e	-0.5457076
94	0x3d2fc382	0.04291106
95	0xbbcb668c	-0.006207293
96	0x3e86870a	0.26274902
97	0xbe532cdc	-0.20622581
98	0x3d00a99d	0.031411756
99	0xbdae794c	-0.08519229
100	0xbdd0c583	-0.10193922
101	0x3cbf0c0e	0.023321178
102	0xbcd2cd7e	-0.025732752
103	0xbc89af02	-0.016807083
104	0x3cadda4d	0.021222258
105	0xbe901498	-0.28140712
106	0x39e0d87d	0.00042885906
107	0x3cde1dfe	0.02711391
108	0xbcbb3d2e	-0.022856321
109	0x3d6816e0	0.05666244
110	0x3dcfccb1	0.10146464
111	0x3d802394	0.06256786
112	0xbdd6bb99	-0.10485
113	0x3c0fae5d	0.008769599
114	0x3d911d2c	0.07085642
115	0xbe1cbbc8	-0.15306008
116	0xbc6a8960	-0.014314979
117	0xbd232063	-0.03982581
118	0xbd61e63b	-0.055151206
119	0x3c2ab96d	0.0104201855
120	0xbe1575dc	-0.14595741
121	0xbe481cda	-0.19542256
122	0x3dd2f3a4	0.10300377
123	0xbe1ea25e	-0.15491626
124	0xbe4b29a4	-0.19840103
125	0x3d88e18c	0.06683645
126	0xbe73e4b2	-0.23817709
127	0xbc743799	-0.014905834
128	0x3c571f1c	0.013129976
129	0xbe9b08e1	-0.30280212
130	0xbed72ad0	-0.4202485
131	0x3c8e099f	0.017338572
132	0xbe82d0b9	-0.25549868
133	0xbd09bf78	-0.033629864
134	0x3d4057fd	0.046958912
135	0xbe0afd7e	-0.13573262
136	0xbe7ed6ba	-0.24886599
137	0xbd9b08b1	-0.07570017
138	0xbdada65c	-0.08478996
139	0xbd619c88	-0.05508092
140	0x3d7aae76	0.061201535
141	0xbea0a0a6	-0.31372565
142	0x3d384ceb	0.04499523
143	0x3d0af1d9	0.03392205
144	0x3e11711e	0.14203307
145	0x3f1b817a	0.6074444
146	0x3dcfdaaf	0.101491325
147	0x3da91315	0.08255593
148	0x3dcf55d6	0.10123794
149	0x3c80a1aa	0.015702087
150	0x3d961000	0.073272705
151	0x3de99dac	0.11407027
152	0x3c813b04	0.015775211
153	0x3e892d62	0.26792437
154	0x3da718ed	0.08159051
155	0x3de3ea44	0.11128667
156	0x3e85dabc	0.26143444
157	0x3ee19522	0.44059092
158	0x3d892664	0.066967756
159	0xbaf7b3ed	-0.0018898227
160	0x3e662194	0.22473747
161	0xbccaed5b	-0.024771383
162	0x3d4f034f	0.050540265
163	0x3e4e8408	0.20167553
164	0x3c88c18f	0.016693858
165	0x3d923b55	0.07140223
166	0x3dd2271c	0.10261366
167	0x3b2c9bfc	0.002633809
168	0xbaa114d1	-0.0012289529
169	0x3dab5b54	0.08367029
170	0x3dc31042	0.09524585
171	0x3d8b6908	0.068071425
172	0x3db55e63	0.088558935
173	0x3dd84a8c	0.10561094
174	0x3e86d474	0.26333964
175	0x3db62774	0.08894244
176	0x3da9c323	0.082891725
177	0x3e81e4a2	0.25369745
178	0x3e9b182e	0.30291885
179	0x3dbba5bd	0.091624714
180	0x3e72318d	0.23651715
181	0x3c391201	0.011295796
182	0x3e164e7e	0.1467838
183	0x3e3db3ac	0.1852557
184	0x3e6a7724	0.22897011
185	0x3c10b499	0.00883212
186	0x3d087af4	0.033320382
187	0x3e0bbc2c	0.13646
188	0x3ca26f98	0.019828603
189	0x3ea46c6a	0.32113963
190	0x3cef4d89	0.029211776
191	0x3e02ea1d	0.1278462
192	0xbec5e573	-0.38651618
193	0xbeda2b81	-0.42611316
194	0xbf007426	-0.5017723
195	0xbd0d5cf6	-0.034512483
196	0xbd22b684	-0.03972484
197	0xbd2e3fc6	-0.042541288
198	0xbd98e081	-0.07464696
199	0xbdd6aa54	-0.10481706
200	0xbdca28d0	-0.098710656
201	0xbd52e651	-0.051489178
202	0xbd0d2e4e	-0.034467988
203	0x3d17de3e	0.03707718
204	0xbea986b6	-0.3311059
205	0xbee68a70	-0.45027494
206	0xbed26a1b	-0.41096577
207	0xbc96dc27	-0.018415524
208	0xbcf12545	-0.029436717
209	0xbddc7712	-0.10764898
210	0xbdc2e0e5	-0.095155515
211	0xbdb5572b	-0.088545166
212	0xbe0d97b5	-0.13827403
213	0xbd4b1d9d	-0.04958879
214	0xbd78cc07	-0.06074145
215	0xbd6b935a	-0.057513572
216	0x3d96c72d	0.073622085
217	0xbcf8ac00	-0.030355453
218	0xbd8430d3	-0.06454625
219	0x3d8a982a	0.06767304
220	0x3c5944f1	0.013261066
221	0xbd520d51	-0.05128223
222	0xbd91b39f	-0.07114338
223	0xbcfd5b7d	-0.030927414
224	0x3d40f34d	0.04710703
225	0xbdc362ea	-0.09540351
226	0xbd376c2c	-0.044780895
227	0xbd556698	-0.052099794
228	0xbcaa4194	-0.020783223
229	0x3a0c6820	0.0005356092
230	0x3cafbed8	0.021453306
231	0xbde776d4	-0.113019615
232	0xbd894dd5	-0.067042984
233	0xbd9537fc	-0.07286069
234	0xbb52d4fc	-0.0032170406
235	0xbd97edda	-0.074184135
236	0xbdaf6bb2	-0.08565463
237	0xbd8b7f04	-0.06811336
238	0xbcdfcd81	-0.027319672
239	0x3d85f795	0.06541363
240	0x3f27539a	0.6536194
241	0x3e7bb1be	0.24579522
242	0x3c563989	0.013075241
243	0xbd2c5ff5	-0.0420837
244	0xbe3a13e9	-0.18171658
245	0xbcd3db3c	-0.025861375
246	0x3e18cfc2	0.14923003
247	0x3d46b7ac	0.048515007
248	0x3cc47b6f	0.023984639
249	0xbe798ccb	-0.24370115
250	0xbef1433c	-0.47121608
251	0x3b75f4d6	0.0037529967
252	0x3f20a671	0.6275397
253	0x3e7e014a	0.24805179
254	0x3db6b27e	0.089207634
255	0x3d58a402	0.052890785
