checkpoints/CNN1D/window480_lr0.00010_batch64_fold0_completed.pth (torch, 456342 bytes, 33 tensors)

conv1.weight f4 [16, 1, 3]
-0.14523932 -0.5645401 -0.4082586 -0.014255237 0.25683522 -0.25260678 -0.115882955 0.045216646
-0.13759229 0.19278903 -0.057453908 0.6842359 -0.5887313 0.09474953 -0.53902173 0.09063163
-0.44787118 0.31422955 0.10281336 -0.2934907 -0.004815365 -0.018496964 0.13452579 -0.23366736
-0.48370916 0.28757843 0.20517844 -0.5047368 0.27004844 0.44097853 0.294447 0.081081554
0.40620393 0.49125075 0.41137058 -0.34822163 -0.19323124 0.22714944 0.61928093 0.32136366
-0.10085104 -0.29271972 -0.27472007 -0.122976474 0.27594104 0.12862293 0.34020418 0.56083226
00000000: 9eb9 14be b385 10bf 4507 d1be cc8e 69bc
00000010: e87f 833e ad55 81be 0b54 edbd 1735 393d
00000020: fee4 0cbe 7d6a 453e ca54 6bbd 152a 2f3f
00000030: 18b7 16bf 0b0c c23d 54fd 09bf 139d b93d
00000040: 5f4f e5be b2e2 a03e d08f d23d 6a44 96be
00000050: 36ca 9dbb f286 97bc 21c1 093e 7f46 6fbe
00000060: baa8 f7be 7b3d 933e 4c1a 523e 6e36 01bf
00000070: ca43 8a3e f0c7 e13e c2c1 963e 160e a63d
00000080: f6f9 cf3e 3885 fb3e 2a9f d23e 1b4a b2be
00000090: 69de 45be dd99 683e 3289 1e3f c789 a43e
000000a0: fd8a cebd 5cdf 95be 1ca8 8cbe 17db fbbd
000000b0: 2548 8d3e bbb5 033e 3e2f ae3e b492 0f3f

conv1.bias f4 [16]
-0.18585639 0.33011895 0.52045846 -0.20666617 0.17822248 0.20295976 0.4446874 -0.29023856
0.5111663 0.23692495 0.5813952 -0.012172765 0.84123355 0.7971789 -0.098788634 0.10367344
00000000: 2351 3ebe 5a05 a93e c43c 053f 4ca0 53be
00000010: f47f 363e afd4 4f3e 11ae e33e 269a 94be
00000020: cbdb 023f 749c 723e 51d6 143f 4770 47bc
00000030: 155b 573f eb13 4c3f b251 cabd be52 d43d

conv2.weight f4 [32, 16, 3]
-0.05219675 0.082141325 -0.066388816 -0.0962569 0.13485272 -0.017588083 0.021474699 0.17339647
0.0869056 -0.016473321 0.029187335 0.28956357 0.09727883 -0.082793735 0.059030153 -0.05160079
-0.19181995 -0.05495421 0.023940636 0.073818594 0.0016562112 -0.11709119 0.10792893 -0.011752055
-0.0774127 -0.08682513 0.09457881 -0.018942729 -0.064034365 0.096081726 -0.027182126 0.088908814
0.2726861 0.013194997 0.06555357 -0.005983276 0.15139435 0.034682237 0.39001378 0.15017422
-0.103492595 -0.08534571 0.1216529 -0.10134695 0.0059433104 0.02368748 -0.022945246 0.21013553
-0.025993908 0.16480285 -0.401334 0.009557097 0.4893261 -0.30478683 -0.04407377 0.11178372
-0.5036345 0.10081501 -0.12592025 -0.2488606 0.023879332 0.09277566 -0.24418126 0.0074723284
0.14461009 -0.32573345 -0.08094018 -0.018948669 -0.25985724 -0.030404527 0.15657221 -0.25741473
0.14094438 -0.2050262 -0.25043133 0.13789041 0.014564454 -0.28770727 -0.060575552 -0.0738435
-0.03984606 0.03751345 0.09084283 0.02856588 -0.024811802 -0.27023694 -0.26087716 -0.029044516
0.03703901 -0.16274421 -0.010989532 0.09230007 -0.22142342 -0.051486928 -0.01042599 -0.027136587
-0.03354245 0.14053 -0.116224885 0.13865452 0.40855053 -0.24738745 -0.08672108 0.04273614
-0.13064852 0.12637371 -0.16555679 -0.1015637 -0.078332365 0.1531321 -0.13271336 0.14971074
0.12088 -0.040488765 -0.03581389 0.082152255 0.031789854 0.11098953 0.20914549 0.09651451
0.026967095 0.090298586 -0.07782528 0.21741506 -0.02744091 -0.037078675 0.048210997 -0.07784557
0.03691451 -0.018455159 0.115274906 0.00511543 -0.0028083134 -0.2352987 -0.21345665 0.12629287
0.026646439 0.031378552 0.032828763 -0.10204501 -0.20456746 0.02397817 -0.026150724 0.10677768
-0.054121744 -0.08023867 -0.08089941 0.1278382 -0.12955184 -0.017537512 0.1508019 -0.06286033
0.10729845 -0.062196653 -0.045201134 0.1588683 -0.025589647 0.13712606 -0.032000188 -0.049236838
-0.018766085 0.01646775 0.19355027 -0.06653988 0.095310815 0.03397949 0.019430416 -0.07017379
-0.08839148 -0.041863687 -0.038009368 0.09565309 0.16097903 0.017356142 0.1068235 -0.0061375154
0.12751418 0.060047895 0.1436082 -0.1481599 0.10157005 0.0998519 0.19017278 0.0035117047
-0.047049064 -0.1046124 0.07972262 -0.028150996 0.21182467 0.104670845 0.07641984 0.08984155
0.071407676 0.01730052 0.13615473 -0.059464335 0.015184193 0.22661471 0.14375558 0.015473349
0.175143 0.18875556 0.12468455 -0.15910454 0.090070195 -0.050147153 0.12780032 -0.0067009297
0.19616532 0.059900336 0.1049008 -0.01827095 0.011144009 -0.05390949 -0.11169452 0.14875369
0.1461243 0.1137583 0.100324914 -0.05557356 0.084648125 0.04169746 -0.0006408654 0.12700978
0.034132503 0.155307 0.11103854 0.06999801 -0.091334686 -0.02724021 -0.05996597 0.042681508
-0.0041864053 0.13136786 0.09305807 0.052143596 -0.020623047 0.12565516 0.033079736 0.14879201
-0.06431706 -0.15811624 0.06469434 -0.09116809 -0.14638111 0.14668424 0.062363576 -0.16424783
-0.054516234 0.05266815 -0.16817352 -0.13435459 0.030858424 0.112054035 0.05261219 0.12841783
00000000: 42cc 55bd b639 a83d dcf6 87bd 5622 c5bd
00000010: d516 0a3e e214 90bc b5eb af3c d88e 313e
00000020: 90fb b13d 0ff3 86bc 471a ef3c ad41 943e
00000030: 203a c73d c38f a9bd 9ac9 713d 5a5b 53bd
00000040: 736c 44be aa17 61bd 271f c43c 342e 973d
00000050: 3a15 d93a 81cd efbd d809 dd3d b18b 40bc
00000060: 8d8a 9ebd 60d1 b1bd 89b2 c13d c82d 9bbc
00000070: 7324 83bd 7fc6 c43d 0dad debc d315 b63d
00000080: 839d 8b3e d42f 583c f340 863d 5b0f c4bb
00000090: 1f07 1b3e f60e 0e3d e3af c73e 45c7 193e
000000a0: edf3 d3bd bbc9 aebd 2825 f93d fd8e cfbd
000000b0: 1ac0 c23b 3f0c c23c abf7 bbbc c52d 573e
000000c0: 2df1 d4bc 14c2 283e a67b cdbe 5f95 1c3c
000000d0: f388 fa3e 050d 9cbe b386 34bd ddee e43d
000000e0: 31ee 00bf 1a78 ce3d 3df1 00be 50d5 7ebe
000000f0: 979e c33c 2a01 be3d a70a 7abe 6fda f43b
00000100: ab14 143e 89c6 a6be f7c3 a5bd 3d3a 9bbc
00000110: 020c 85be ea12 f9bc 7754 203e ddcb 83be
00000120: b953 103e 63f2 51be 8938 80be 2533 0d3e
00000130: bf9f 6e3c 5e4e 93be 121e 78bd 433b 97bd
00000140: 9f35 23bd b4a7 193d ce0b ba3d fe02 ea3c
00000150: 1f42 cbbc 7f5c 8abe b191 85be c4ee edbc
00000160: 38b6 173d 6ba6 26be 700d 34bc d207 bd3d
00000170: d2bc 62be f5e3 52bd c6d1 2abc 8c4d debc
00000180: cf63 09bd 19e7 0f3e 5007 eebd 73fb 0d3e
00000190: 892d d13e 2353 7dbe d29a b1bd 170c 2f3d
000001a0: bac8 05be 1c68 013e b887 29be a100 d0bd
000001b0: b86c a0bd a9ce 1c3e 03e6 07be c64d 193e
000001c0: ef8f f73d 8cd7 25bd 96b1 12bd 713f a83d
000001d0: 1436 023d 7b4e e33d 3c2a 563e 66a9 c53d
000001e0: 19ea dc3c 77ee b83d dc62 9fbd 0ea2 5e3e
000001f0: c2cb e0bc cfdf 17bd e578 453d 806d 9fbd
00000200: ab33 173d 462f 97bc 4015 ec3d 569f a73b
00000210: ae0b 38bb 24f2 70be 6194 5abe eb52 013e
00000220: a249 da3c cc86 003d 7477 063d f9fc d0bd
00000230: 227a 51be de6d c43c 0b3a d6bc 42ae da3d
00000240: c3ae 5dbd 2c54 a4bd 97ae a5bd 04e8 023e
00000250: 3da9 04be d4aa 8fbc d06b 1a3e ebbc 80bd
00000260: 4abf db3d ebc1 7ebd d324 39bd 5fae 223e
00000270: 61a1 d1bc c66a 0c3e a112 03bd 91ac 49bd
00000280: 55bb 99bc 60e7 863c 0b32 463e 1046 88bd
00000290: 5132 c33d 142e 0b3d 892c 9f3c 47b7 8fbd
000002a0: 9806 b5bd 4279 2bbd b6af 1bbd c4e5 c33d
000002b0: b0d7 243e 782e 8e3c 47c6 da3d 361d c9bb
000002c0: 1493 023e c8f4 753d 070e 133e 3bb7 17be
000002d0: f503 d03d 277f cc3d a7bc 423e a124 663b
000002e0: 85b6 40bd 073f d6bd 9d45 a33d eb9c e6bc
000002f0: 91e8 583e ab5d d63d 0182 9c3d d9fe b73d
00000300: 303e 923d d2b9 8d3c 256c 0b3e e090 73bd
00000310: 1fc7 783c b00d 683e aa34 133e ee83 7d3c
00000320: b058 333e 2349 413e 9d5a ff3d 4dec 22be
00000330: b976 b83d 1a67 4dbd 16de 023e 7993 dbbb
00000340: 90df 483e 0e5a 753d 3bd6 d63d f6ac 95bc
00000350: 5d95 363c 33d0 5cbd 19c0 e4bd e352 183e
00000360: 9ca1 153e 1dfa e83d 2677 cd3d 1aa1 63bd
00000370: ff5b ad3d f5ca 2a3d c0ff 27ba da0e 023e
00000380: 86ce 0b3d cc08 1f3e 2d68 e33d 1e5b 8f3d
00000390: ae0d bbbd dc26 dfbc e19e 75bd ced2 2e3d
000003a0: 1d2e 89bb 4c85 063e 3b95 be3d 8694 553d
000003b0: aaf1 a8bc bfab 003e 9e7e 073d ef5c 183e
000003c0: aab8 83bd 39e9 21be 777e 843d 56b6 babd
000003d0: eee4 15be 6534 163e f370 7f3d 9530 28be
000003e0: 6a4c 5fbd 8fba 573d ae35 2cbe 4094 09be
000003f0: ceca fc3c 967c e53d e17f 573d f77f 033e

conv2.bias f4 [32]
0.18223777 -0.04794251 0.058733966 0.22844903 -0.16441907 -0.22074817 -0.09532061 0.23623556
0.46723464 0.01793011 0.108066514 0.1378093 0.50129217 0.11525796 0.034225833 0.085881315
0.26423648 0.10836563 -0.048016865 0.14168833 0.27856746 -0.14168596 0.24153258 -0.062388048
-0.036383726 0.51402473 0.016764918 0.74065286 0.04945455 0.17046416 -0.08664589 0.38736787
00000000: 8a9c 3a3e 5e5f 44bd 0793 703d 8bee 693e
00000010: 795d 28be cf0b 62be 7437 c3bd bce7 713e
00000020: 6139 ef3e 2be2 923c fa51 dd3d e21d 0d3e
00000030: af54 003f 5e0c ec3d 6330 0c3d 8be2 af3d
00000040: 014a 873e cdee dd3d 55ad 44bd bf16 113e
00000050: 65a0 8e3e 2016 11be 5154 773e 9c8a 7fbd
00000060: 1a07 15bd 2097 033f 9556 893c 6d9b 3d3f
00000070: db90 4a3d 288e 2e3e 6673 b1bd 1555 c63e

conv3.weight f4 [64, 32, 3]
0.08941364 0.0033150853 -0.08031645 0.01085497 -0.01814131 -0.115206786 0.07600465 -0.11070983
-0.21635854 0.11563888 0.12349525 -0.18143742 0.03536425 -0.035448454 -0.1487186 0.08137279
-0.22990292 -0.21729228 0.024526 -0.020269068 -0.12259648 -0.025656927 0.15881741 -0.17963956
-0.016540466 0.2731449 -0.052747358 0.09413098 0.010334256 -0.15294099 0.11717801 0.08118017
-0.067946106 0.09483802 0.00912149 -0.17051126 0.08329654 0.17138726 -0.11253298 0.02486749
0.10845371 -0.25955373 -0.0032565515 0.10129265 -0.22475874 0.2148981 -0.17687386 -0.2845302
0.066191584 0.010072391 -0.019423775 0.03266756 0.1374368 -0.18530844 0.15935345 -0.0056443545
-0.13610835 0.047066208 0.1294436 -0.027564807 -0.062504925 0.012905574 -0.07281825 -0.029328119
-0.073331796 -0.05738416 -0.06833981 0.047780015 -0.20939519 0.11715301 -0.113219015 -0.18418652
0.028855044 -0.0014241609 -0.18792076 0.13378982 0.1496852 -0.108964026 0.025186088 0.012970723
-0.12187551 -0.064606324 0.000282106 -0.23223479 -0.005625023 0.08948862 -0.21058714 -0.0025724494
0.08977583 -0.12007156 0.03066011 -0.05844219 -0.08886922 0.10807599 0.04447413 -0.064737275
0.010867257 0.039357778 -0.19394156 0.07949723 0.07842954 0.0693646 0.122726545 0.037559133
0.06011494 0.114824906 0.08386014 0.01802138 -0.07026226 0.03569721 0.0459372 -0.088213764
0.14056091 0.087425135 0.055434003 -0.051325906 0.031700853 -0.020681458 0.09321327 -0.09074246
0.042686872 -0.08712844 -0.121010296 0.021693882 0.10108534 -0.0022359958 0.067362614 -0.038995426
-0.06783937 0.012899527 0.011977991 -0.0008780694 -0.05183512 -0.110324435 0.04948019 0.123507686
-0.07268702 0.040167075 -0.045332447 0.032665018 0.121341616 0.09685881 0.22603735 0.21274394
0.014801249 -0.059260886 -0.08771007 0.10738585 0.0036875696 0.028183274 0.13141975 -0.018560816
0.09333443 0.063335694 -0.14424875 0.1339391 -0.042335115 0.043994673 -0.17321514 -0.048373133
0.017508887 -0.060342394 0.0636723 -0.055717897 0.021257304 0.07818993 0.18151663 0.035911225
0.073816024 -0.03267103 0.053175278 0.12219289 0.09823621 -0.02894421 -0.07592913 -0.027333867
0.070145234 -0.03940229 0.015330135 -0.08120067 0.023572678 -0.017679969 -0.0073171146 0.10270343
-0.033764552 0.02336621 0.08639133 0.04184834 0.058697674 0.0868749 -0.062662266 -0.04135262
-0.088525206 -0.089057796 -0.13490841 0.059492964 -0.05416724 0.1317875 0.0008606859 -0.0065938127
0.00931426 -0.051297873 -0.08447327 0.024671992 -0.09098896 0.038180042 0.03101471 0.01685321
0.0031824615 -0.10348572 0.081294626 0.023989815 -0.00788139 -0.005364379 -0.033033263 -0.07223969
-0.0016566399 -0.027760377 0.07310733 0.044896793 0.06716491 0.091918714 0.037008237 0.0199238
0.031558037 0.046691697 -0.13074999 0.07729747 -0.0578802 0.034878604 0.06950893 0.0629174
-0.09901698 -0.020605473 -0.015847735 0.011446422 7.5346834e-05 -0.009548873 0.016241614 0.06613093
0.02787982 -0.05895686 -0.0033513648 0.028735057 -0.060510557 0.0015024728 -0.0873776 -0.05525345
0.109117314 -0.09495705 0.005341503 0.11894336 0.013102579 -0.13775313 -0.09184935 0.0074885953
00000000: 801e b73d e741 593b f37c a4bd 0bd9 313c
00000010: 169d 94bc 89f1 ebbd 53a8 9b3d d6bb e2bd
00000020: 188d 5dbe 14d4 ec3d 14eb fc3d bbca 39be
00000030: 1bda 103d 6632 11bd b049 18be c7a6 a63d
00000040: ac6b 6bbe de81 5ebe c0ea c83c 510b a6bc
00000050: dd13 fbbd 7a2e d2bc 08a1 223e 6ff3 37be
00000060: df7f 87bc a6d9 8b3e 9d0d 58bd bec7 c03d
00000070: 0351 293c 909c 1cbe 06fb ef3d ca41 a63d
00000080: 5427 8bbd 703a c23d 4d72 153c 819a 2ebe
00000090: 6097 aa3d 2480 2f3e b177 e6bd e8b6 cb3c
000000a0: fb1c de3d 3ae4 84be de6b 55bb 8572 cf3d
000000b0: 2827 66be 3f0e 5c3e 6c1e 35be f1ad 91be
000000c0: 748f 873d ab06 253c 9c1e 9fbc 6bce 053d
000000d0: 3cbc 0c3e 7fc1 3dbe 8d2d 233e 47f4 b8bb
000000e0: fd5f 0bbe 7fc8 403d dd8c 043e 97cf e1bc
000000f0: 9502 80bd e771 533c bc21 95bd 8641 f0bc
00000100: fb2e 96bd a70b 6bbd bef5 8bbd fab4 433d
00000110: b16b 56be ebed ef3d 5fdf e7bd 649b 3cbe
00000120: 6a61 ec3c e9aa baba 4d6e 40be 3300 093e
00000130: 1447 193e 8828 dfbd 0e53 ce3c 2883 543c
00000140: de99 f9bd 5250 84bd a0e7 9339 f5ce 6dbe
00000150: 1d52 b8bb cf45 b73d 28a4 57be 8a96 28bb
00000160: 64dc b73d 14e8 f5bd e92a fb3c 1461 6fbd
00000170: 1101 b6bd f256 dd3d 812a 363d fa94 84bd
00000180: 940c 323c 9f35 213d 9e98 46be 72cf a23d
00000190: ab9f a03d 070f 8e3d 0e58 fb3d 9bd7 193d
000001a0: 153b 763d 5229 eb3d ddbe ab3d 93a1 933c
000001b0: a9e5 8fbd 3d37 123d a528 3c3d 6ba9 b4bd
000001c0: 33ef 0f3e f30b b33d c40e 633d 1d3b 52bd
000001d0: c1d8 013d 296c a9bc 99e6 be3d 2fd7 b9bd
000001e0: 6ed8 2e3d 6570 b2bd 3fd4 f7bd 5eb7 b13c
000001f0: d505 cf3d c989 12bb 69f5 893d abb9 1fbd
00000200: 5eef 8abd 8a58 533c 563f 443c 3d2e 66ba
00000210: 1051 54bd c7f1 e1bd bdab 4a3d 99f1 fc3d
00000220: efdc 94bd 3b86 243d 84ae 39bd c1cb 053d
00000230: f481 f83d e95d c63d 5676 673e 8cd9 593e
00000240: f080 723c 8bbb 72bd 56a1 b3bd 1ded db3d
00000250: 27ab 713b 9ce0 e63c e692 063e da0c 98bc
00000260: 1f26 bf3d 25b6 813d f2b5 13be 5527 093e
00000270: 9667 2dbd c233 343d 4f5f 31be e822 46bd
00000280: cc6e 8f3c 9629 77bd 9f66 823d 7338 64bd
00000290: cc23 ae3c 0b22 a03d 7fdf 393e a617 133d
000002a0: db2c 973d 0fd2 05bd 52ce 593d 4440 fa3d
000002b0: 1130 c93d 681c edbc bb80 9bbd 46eb dfbc
000002c0: 4ea8 8f3d 4c64 21bd 3f2b 7b3c 894c a6bd
000002d0: 7d1b c13c 95d5 90bc 68c4 efbb 2d56 d23d
000002e0: b34c 0abd 7e6a bf3c f0ed b03d 2a69 2b3d
000002f0: f96c 703d 78eb b13d 1355 80bd 5d61 29bd
00000300: b44c b5bd ef63 b6bd 6e25 0abe e5ae 733d
00000310: 78de 5dbd 4df3 063e a79f 613a e910 d8bb
00000320: d79a 183c b81d 52bd 5200 adbd eb1c ca3c
00000330: 6b58 babd ad62 1c3d 9012 fe3c be0f 8a3c
00000340: d890 503b 52f0 d3bd cc7d a63d 4a86 c43c
00000350: f220 01bc acc7 afbb e34d 07bd 67f2 93bd
00000360: 9c23 d9ba bb69 e3bc 4cb9 953d b3e5 373d
00000370: c28d 893d e13f bc3d f395 173d 3d37 a33c
00000380: 0043 013d cb3f 3f3d 53e3 05be 234e 9e3d
00000390: ca13 6dbd dedc 0e3d b35a 8e3d d6da 803d
000003a0: 6ac9 cabd cfcc a8bc 1cd3 81bc c689 3b3c
000003b0: 8603 9e38 e072 1cbc 220d 853c a76f 873d
000003c0: 3864 e43c c07c 71bd 92a2 5bbb c865 eb3c
000003d0: ebd9 77bd 9fee c43a 07f3 b2bd 7151 62bd
000003e0: e678 df3d d878 c2bd c607 af3b 9498 f33d
000003f0: 33ac 563c 280f 0dbe 831b bcbd e462 f53b

conv3.bias f4 [64]
0.2354831 -0.080440424 -0.12882479 -0.12408965 0.117331244 0.24753042 -0.070596956 -0.27887434
0.46727657 0.29625353 0.29291105 0.20072205 0.24253388 0.22632813 0.14977911 0.3251477
-0.02179092 0.028108804 0.24719895 0.29356638 -0.005819888 0.044001397 -0.20217887 0.16958356
-0.1994202 -0.051463116 -0.18576005 -0.16952583 -0.046006076 -0.12851751 0.47416103 -0.074861
-0.15111302 0.24387513 0.38537243 0.21607955 -0.21303988 -0.097973906 -0.04531033 -0.087731965
0.029829169 0.09859648 0.20963134 0.012940579 0.057611167 -0.104673736 -0.27071282 0.19075459
-0.15494838 0.10410144 0.06768975 -0.13483348 0.23239776 -0.1384837 -0.33973974 -0.050167896
-0.07045307 0.045881733 -0.0072302283 0.13960953 0.2266959 0.15673824 0.12087544 0.3379169
00000000: 7b22 713e f3bd a4bd a5ea 03be b722 febd
00000010: 5d4b f03d 9d78 7d3e 2395 90bd 9ec8 8ebe
00000020: e03e ef3e 8bae 973e 70f8 953e 158a 4d3e
00000030: cd5a 783e 90c2 673e b25f 193e c279 a63e
00000040: df82 b2bc 6f44 e63c b921 7d3e 554e 963e
00000050: c2b4 bebb cf3a 343d fa07 4fbe 50a7 2d3e
00000060: cf34 4cbe fdca 52bd e237 3ebe 2e98 2dbe
00000070: de70 3cbd 189a 03be 3cc5 f23e b950 99bd
00000080: 5fbd 1abe 67ba 793e 894f c53e f543 5d3e
00000090: 2027 5abe 8ba6 c8bd 5397 39bd d1ac b3bd
000000a0: 4d5c f43c f4ec c93d 99a9 563e b904 543c
000000b0: b0f9 6b3d 2f5f d6bd df9a 8abe 2c55 433e
000000c0: caaa 1ebe 2333 d53d eca0 8a3d ca11 0abe
000000d0: aef9 6d3e acce 0dbe 5ef2 adbe da7c 4dbd
000000e0: b349 90bd 7cee 3b3d 8deb ecbb cdf5 0e3e
000000f0: f822 683e fd7f 203e 8b8d f73d 7203 ad3e

conv4.weight f4 [128, 64, 3]
-0.014051933 0.0064326855 -0.017407952 -0.0059855394 0.007881919 0.041328136 -0.042528458 -0.022679815
-0.075946055 0.0050699664 0.035833087 0.038881056 -0.073704064 0.015210025 -0.07781616 -0.026247032
0.034813125 -0.045351684 0.06511035 0.04288613 0.0050436924 -0.03631155 -0.03767448 0.018018018
-0.054349706 -0.07941447 0.012688492 -0.03681344 0.04851604 0.030679937 -0.030304193 -0.01040654
-0.039250214 -0.023981765 -0.013174176 0.009835579 -0.07276211 -0.03631451 -0.07644798 0.047731575
0.04106675 0.014288776 0.05541242 -0.06475092 -0.029421078 0.033320226 -0.07903812 -0.019430881
0.0019152453 0.032140568 0.02567318 0.03381917 -0.0699772 -0.06085178 0.047133196 0.046441346
0.0037539124 -0.049545303 -0.044956192 -0.017856833 0.0068994737 -0.0046559074 0.026483284 0.014545778
-0.065322764 0.03705925 0.03948674 0.028646 0.011200268 0.028829362 -0.020992555 -0.028481273
-0.006798686 -0.06581903 -0.03976424 0.04678869 -0.010587569 0.06291436 -0.052683633 0.025910702
0.05315317 -0.03216598 0.00080915494 0.001158899 -0.022609591 0.043197967 -0.053372987 -0.057027288
-0.055983946 0.0058380943 0.028450394 0.007179555 0.057597496 -0.044024277 -0.056540452 0.05072349
0.01620848 0.02156793 0.012074528 -0.017408598 -0.026356667 0.049602285 -0.04005007 0.007998058
0.0038268329 -0.013210016 0.04214675 -0.023748798 0.032655906 0.047619913 -0.0646891 -0.009665282
0.044244062 -0.050925504 -0.08000771 0.017671246 0.0030051603 0.0028173462 0.021733815 -0.06851667
0.045507923 0.054376103 -0.026492393 -0.0054722996 -0.030462578 -0.02042968 -0.014564283 -0.04179863
-0.060151506 -0.07308286 0.045070793 -0.073613435 -0.070716076 -0.0022334338 0.025691802 -0.05178148
0.009131577 -0.014995179 -0.021231217 0.008006719 0.057142254 0.005823136 -0.050998285 -0.010632626
-0.019956935 -0.04710353 -0.04099572 -0.028159164 -0.066736974 -0.04945491 -0.0006092203 0.039516404
-0.01331858 -0.005490538 0.028750267 -0.0026620587 -0.05799593 0.03232581 -0.04045749 0.059205685
-0.0027806999 -0.061081212 -0.058583207 0.0084428545 -0.03662781 -0.008878159 -0.009045116 0.04831742
0.041029304 0.022057744 0.01580273 0.005461587 -0.009196487 0.03078317 0.027516136 0.0055300375
0.04200141 -0.07631344 -0.04813739 -0.045219496 -0.06622366 -0.073609605 -0.04285894 0.01687055
-0.04275477 0.056697097 -0.013566487 -0.06662978 0.029989714 -0.029638417 -0.050194126 -0.009897327
0.028658349 0.011048117 -0.041444454 -0.07441774 -0.038236935 0.039024033 -0.046994165 -0.01008895
0.14454521 -0.027741771 -0.06555401 0.19275953 -0.06462987 -0.0033090615 0.10247525 -0.01638491
-0.07077545 -0.13189468 0.013813918 -0.05789097 0.057729803 0.12507732 0.048710596 0.0651446
0.030278573 -0.07510343 -0.032659914 0.009501437 -0.050848573 -0.09905049 0.007010792 0.04097112
-0.056477964 -0.024096407 0.007952011 0.0063169906 0.051486336 0.06782375 -0.020564742 -0.043248747
-0.027000975 -0.046396047 -0.010420383 0.009395618 -0.0038196743 -0.033013534 0.018152136 -0.04075877
0.07340938 -0.103570744 0.12571374 -0.022513688 -0.024823636 -0.010142488 -0.08817634 0.037206054
0.089689374 -0.018561762 -0.090283535 -0.06438546 -0.033606675 -0.010824334 0.027821269 0.086109705
00000000: 143a 66bc 47c9 d23b 1f9b 8ebc 5822 c4bb
00000010: 2a23 013c b147 293d 5232 2ebd 05cb b9bc
00000020: 9b89 9bbd f621 a63b b7c5 123d be41 1f3d
00000030: 28f2 96bd 7833 793c 145e 9fbd 0404 d7bc
00000040: 3598 0e3d b0c2 39bd 9358 853d 5ea9 2f3d
00000050: 8f45 a53b 6bbb 14bd 8e50 1abd 869a 933c
00000060: cc9d 5ebd 0ea4 a2bd 65e3 4f3c b1c9 16bd
00000070: c1b8 463d 7e54 fb3c 8040 f8bc 3180 2abc
00000080: d5c4 20bd 6875 c4bc 80d8 57bc 6925 213c
00000090: 4d04 95bd 86be 14bd c290 9cbd 2f82 433d
000000a0: 9c35 283d 781b 6a3c 22f8 623d 219c 84bd
000000b0: 7904 f1bc ca7a 083d bdde a1bd 832d 9fbc
000000c0: f808 fb3a d4a5 033d 9050 d23c f885 0a3d
000000d0: 3550 8fbd b73f 79bd bd0e 413d 4839 3e3d
000000e0: 3304 763b 04f0 4abd fc23 38bd 7e48 92bc
000000f0: fb14 e23b 9590 98bb 79f3 d83c 6a51 6e3c
00000100: f1c7 85bd 71cb 173d d9bc 213d 04ab ea3c
00000110: 5481 373c 8e2b ec3c 94f8 abbc 8f51 e9bc
00000120: 83c7 debb 21cc 86bd d4df 22bd 7fa5 3f3d
00000130: 7c77 2dbc 3ed9 803d cbca 57bd ae42 d43c
00000140: 23b7 593d 7ac0 03bd 781d 543a 33e6 973a
00000150: c037 b9bc 5af0 303d a29d 5abd 7295 69bd
00000160: 6c4f 65bd 7c4d bf3b cd10 e93c 7942 eb3b
00000170: 5aeb 6b3d cd52 34bd f696 67bd 6fc3 4f3d
00000180: a5c7 843c 3aaf b03c 3ed4 453c 7a9c 8ebc
00000190: f0e9 d7bc c42b 4b3d 8b0b 24bd 490a 033c
000001a0: 9acb 7a3b d36e 58bc 12a2 2c3d d78c c2bc
000001b0: 33c2 053d 190d 433d b87b 84bd 225b 1ebc
000001c0: 4339 353d 4397 50bd 15db a3bd 4ac3 903c
000001d0: 39f2 443b 3aa3 383b 1d0b b23c 7852 8cbd
000001e0: 8466 3a3d 7ab9 5e3d 9306 d9bc fa50 b3bb
000001f0: a88c f9bc 255c a7bc 089f 6ebc 0a35 2bbd
00000200: 6d61 76bd 77ac 95bd 279c 383d a4c2 96bd
00000210: 97d3 90bd cd5e 12bb 9d77 d23c d118 54bd
00000220: 9c9c 153c 57ae 75bc 17ed adbc 9d2e 033c
00000230: ff0d 6a3d 01d0 be3b 94e3 50bd 7734 2ebc
00000240: ba7c a3bc a2ef 40bd 21eb 27bd 0cae e6bc
00000250: 65ad 88bd 3b91 4abd 15b4 1fba f4db 213d
00000260: 2c36 5abc f9e9 b3bb ae85 eb3c ef75 2ebb
00000270: 248d 6dbd 1268 043d c1b6 25bd a981 723d
00000280: 673c 36bb 4b30 7abd f2f4 6fbd e653 0a3c
00000290: 0b07 16bd b375 11bc f731 14bc 7de8 453d
000002a0: 580e 283d 71b2 b43c ba74 813c 1df7 b23b
000002b0: ddac 16bc fd2c fc3c 8569 e13c 5135 b53b
000002c0: ac09 2c3d 394a 9cbd b62b 45bd 1438 39bd
000002d0: 45a0 87bd a2c0 96bd db8c 2fbd 1c34 8a3c
000002e0: a01f 2fbd 373b 683d f845 5ebc 3275 88bd
000002f0: fdac f53c 44cc f2bc 5b98 4dbd 6628 22bc
00000300: eac4 ea3c 2903 353c a9c1 29bd 5468 98bd
00000310: 559e 1cbd aad7 1f3d f47c 40bd 204c 25bc
00000320: a903 143e b642 e3bc 2e41 86bd c162 453e
00000330: aa5c 84bd d7dc 58bb 8bde d13d a639 86bc
00000340: b8f2 90bd 660f 07be c653 623c 151f 6dbd
00000350: 1676 6c3d 4514 003e c384 473d 886a 853d
00000360: c50a f83c d4cf 99bd 67c6 05bd eaab 1b3c
00000370: 9846 50bd fcda cabd c9ba e53b 55d1 273d
00000380: 7055 67bd d465 c5bc 2749 023c c2fe ce3b
00000390: 56e3 523d 2ee7 8a3d 6477 a8bc 9925 31bd
000003a0: 2631 ddbc c809 3ebd 41ba 2abc 14f0 193c
000003b0: 8053 7abb 3339 07bd cab3 943c abf2 26bd
000003c0: a857 963d e61c d4bd 1abb 003e a06e b8bc
000003d0: f05a cbbc ae2c 26bc cc95 b4bd 6065 183d
000003e0: 10af b73d d60e 98bc 93e6 b8bd 86dc 83bd
000003f0: 27a7 09bd 8c58 31bc 6ee9 e33c 495a b03d

conv4.bias f4 [128]
-0.0781371 -0.26117355 -0.0012359363 -0.13090104 -0.12539217 -0.27496198 -0.19106518 -0.2018015
-0.108269356 -0.22927114 -0.16502915 -0.2688954 -0.12260164 -0.15549698 -0.32263863 -0.0838464
-0.24988328 -0.088357076 -0.09653592 0.24320376 -0.18734454 -0.26544076 -0.24037716 -0.2522892
0.23038019 0.20365301 -0.21301731 0.12272335 -0.006200952 -0.22745317 -0.18551634 -0.032031104
-0.1568101 -0.20106089 -0.25476748 -0.05190459 0.15346768 -0.21841878 -0.2781208 -0.17975572
-0.041103855 -0.15347688 0.038792145 -0.11197228 -0.23769383 -0.006145609 -0.23773357 0.26946548
-0.06966183 -0.16096374 -0.2155677 -0.23011686 -0.20078477 -0.095943905 -0.047011584 0.100565284
-0.18304801 0.29430097 -0.3073448 0.20305453 -0.06706377 -0.02829088 0.1136228 0.13314961
0.09737385 0.2699434 -0.26163888 -0.24073943 -0.2540517 -0.27005228 -0.1611757 -0.2000919
-0.27333173 -0.2578997 -0.32116956 -0.1917828 -0.20974818 -0.2719034 -0.2448811 0.01201672
-0.29241237 0.20459431 -0.1845984 -0.29947895 0.18618089 0.19390252 -0.090870574 -0.15804714
0.2784048 0.1467207 0.14361249 -0.13174713 -0.040731147 -0.22882836 -0.23463295 -0.2762099
-0.21878445 -0.14711832 -0.30374122 -0.12359221 0.30209503 -0.21169616 0.19194154 -0.2658255
0.012177787 0.1495302 0.3020243 -0.16797115 0.08214171 0.009616407 -0.089914106 -0.03135858
-0.28794897 -0.18439038 -0.22600769 0.30221322 -0.057283726 -0.30216742 -0.26676068 -0.22777368
0.2242304 -0.235751 -0.21236159 -0.19434668 0.2616447 -0.27263537 -0.291127 -0.22618826
00000000: 5806 a0bd 8ab8 85be 24ff a1ba ec0a 06be
00000010: ce66 00be d1c7 8cbe 97a6 43be 0da5 4ebe
00000020: 53bc ddbd 0ec6 6abe 67fd 28be a8ac 89be
00000030: 9216 fbbd 9a3a 1fbe e430 a5be a9b7 abbd
00000040: 67e1 7fbe 8ef4 b4bd a0b4 c5bd 680a 793e
00000050: 3fd7 3fbe dae7 87be 6e25 76be 0d2c 81be
00000060: c9e8 6b3e 6a8a 503e 3621 5abe 6156 fb3d
00000070: 5b31 cbbb 7ce9 68be fff7 3dbe 0c33 03bd
00000080: d492 20be e8e2 4dbe e270 82be e899 54bd
00000090: a226 1d3e 2ca9 5fbe d965 8ebe e211 38be
000000a0: 845c 28bd 0b29 1dbe 83e4 1e3d b951 e5bd
000000b0: 0366 73be 1b61 c9bb 6e70 73be 61f7 893e
000000c0: ddaa 8ebd aed3 24be c7bd 5cbe c1a3 6bbe
000000d0: 869a 4dbe 3d7e c4bd 388f 40bd 2cf5 cd3d
000000e0: f070 3bbe 9eae 963e 4c5c 9dbe 87ed 4f3e
000000f0: bb58 89bd 47c2 e7bc 12b3 e83d 5f58 083e
00000100: f16b c73d 0536 8a3e 88f5 85be 6684 76be
00000110: 1013 82be 4b44 8abe 3e0b 25be e4e4 4cbe
00000120: 23f2 8bbe 6e0b 84be 5670 a4be b662 44be
00000130: 3ac8 56be ec36 8bbe 1cc2 7abe c7e1 443c
00000140: 13b7 95be 2c81 513e 5d07 3dbe 4e55 99be
00000150: 34a6 3e3e 628e 463e 5a1a babd 1cd7 21be
00000160: 138b 8e3e f43d 163e 270f 133e b8e8 06be
00000170: b4d5 26bd fb51 6abe 9f43 70be 626b 8dbe
00000180: 0809 60be 2fa6 16be f883 9bbe ea1d fdbd
00000190: 33ac 9a3e e1c6 58be 538c 443e 481a 88be
000001a0: 5785 473c 721e 193e eea2 9a3e a100 2cbe
000001b0: ea39 a83d 228e 1d3c e324 b8bd db71 00bd
000001c0: 0c6e 93be d5d0 3cbe 8f6e 67be b1bb 9a3e
000001d0: 57a2 6abd b0b5 9abe db94 88be 813d 69be
000001e0: a79c 653e b668 71be 5175 59be d102 47be
000001f0: 4bf6 853e dd96 8bbe 990e 95be e59d 67be

fc1.weight f4 [32, 128]
0.007961923 -0.02698617 -0.08459454 -0.07637925 -0.1618875 -0.030607196 -0.109477945 -0.08030764
-0.05365383 -0.05017737 -0.025818152 -0.012580685 -0.084246516 -0.058289442 -0.01847782 -0.12531255
0.012539396 -0.11174882 -0.15006338 0.17055993 0.0018204603 -0.1117363 -0.12302945 0.030603535
0.19871596 0.18035801 -0.10453864 0.18603961 0.07223193 -0.045202814 -0.03145737 -0.025014333
0.03824644 0.033155516 0.022367695 -0.006237752 0.20547669 -0.08194951 -0.10800702 0.022123292
-0.05656898 -0.039921075 -0.012199262 -0.056699567 -0.05845785 0.0016236245 -0.0056043314 0.061556995
-0.12101448 -0.09603434 0.019661445 -0.09342298 -0.1106913 -0.13459119 -0.14674449 0.16704832
-0.06801087 0.1657824 -0.041147266 0.14098538 0.02588197 -0.09547306 0.15333794 0.17552899
-0.08673542 0.14148629 -0.055459622 -0.024907999 -0.08459499 -0.06816277 -0.117604844 0.018420137
-0.11064326 -0.0826321 -0.049572792 -0.05156301 -0.10847576 -0.043683536 -0.06772516 0.045063637
-0.013610839 0.18161058 -0.08470473 -0.065804884 0.16658758 0.12250987 -0.085381284 -0.054668397
0.2470462 0.21297616 0.15580602 -0.055509005 -0.1657931 -0.10384881 -0.07770911 0.028127057
-0.12484771 -0.11390638 -0.023887413 -0.03331189 0.105464764 0.0060209758 0.2156994 -0.057429783
0.0072739776 0.09387559 0.1348773 -0.06627066 0.104782656 -0.08541411 0.083982326 -0.08092157
-0.12311282 -0.060480032 -0.032806262 0.16756205 -0.07427768 0.042342167 -0.04328982 -0.12010267
0.13832256 -0.034764584 -0.109226614 -0.0069472515 0.16320936 -0.118193455 -0.08799685 -0.011164621
-0.032932945 -0.13926387 0.033547305 -0.12904106 -0.20942892 -0.112440825 -0.11667105 -0.11094663
-0.077743255 0.017319903 -0.055307634 -0.12351307 -0.013249335 -0.06953179 -0.08925136 -0.16088785
-0.09920132 -0.10088236 -0.1324915 0.17516014 -0.003210755 -0.052211203 -0.10182235 -0.07424714
0.20469053 0.2141636 -0.10570846 0.122529075 -0.023359753 -0.10915247 -0.053026117 -0.012357557
-0.011398545 -0.11780511 0.013070222 -0.12991206 0.11696141 -0.028450914 -0.010716154 -0.087591186
-0.026471628 -0.1362681 -0.059342183 -0.1061948 -0.13416292 0.059570786 -0.033453908 0.067010276
-0.07743179 -0.080856115 -0.1033629 -0.069827974 -0.12067229 -0.12805812 -0.039121512 0.06958984
-0.12778819 0.2299991 -0.008896357 0.1719728 -0.046691548 0.0100614345 0.051863864 0.10388204
0.006637566 0.1487458 -0.042941254 -0.022663673 -0.08819949 -0.07982889 -0.07467551 -0.11458298
-0.007709164 -0.03306986 -0.050220333 0.020845585 -0.11155641 -0.079764836 0.00027229285 0.042108916
-0.10510545 0.15612365 -0.076033264 -0.048385598 0.06818534 0.13176756 -0.06917769 -0.065600045
0.19932154 0.23401782 0.14562932 -0.060052834 -0.15825444 0.0052854912 -0.10058397 -0.08283716
0.040327497 0.005287229 -0.023404308 -0.11103936 0.23441054 -0.0005356665 0.2006501 -0.051834986
0.023214225 0.16516599 0.1681084 -0.023640107 0.09005076 0.07675347 0.006003797 -0.060989436
-0.0028925375 -0.11178379 -0.08305451 0.22795941 0.08838127 -0.061905224 -0.081550054 -0.103206165
0.20321387 -0.009529421 -0.017487269 -0.051773366 0.08894071 -0.03513969 -0.0619022 -0.012356818
00000000: ba72 023c 1a12 ddbc e73f adbd b96c 9cbd
00000010: d6c5 25be f1bb fabc f935 e0bd 5578 a4bd
00000020: 1ec4 5bbd c986 4dbd 9780 d3bc 381f 4ebc
00000030: 7089 acbd e9c0 6ebd cc5e 97bc ef51 00be
00000040: 0a72 4d3c 91dc e4bd 37aa 19be 43a7 2e3e
00000050: 839c ee3a 00d6 e4bd ddf6 fbbd 44b4 fa3c
00000060: 327c 4b3e c5af 383e 5b18 d6bd 2b81 3e3e
00000070: 56ee 933d 9626 39bd 71d9 00bd dcea ccbc
00000080: 4da8 1c3d 14ce 073d 753c b73c 0e66 ccbb
00000090: 7b68 523e 25d5 a7bd c932 ddbd e83b b53c
000000a0: e0b4 67bd 4884 23bd 6adf 47bc ce3d 68bd
000000b0: 8071 6fbd cccf d43a 8aa4 b7bb 3023 7c3d
000000c0: 71d6 f7bd a7ad c4bd 0a11 a13c 8c54 bfbd
000000d0: 1fb2 e2bd 46d2 09be 3044 16be b70e 2b3e
000000e0: 4849 8bbd ddc2 293e 098a 28bd 795e 103e
000000f0: 6d06 d43c 6187 c3bd 9f04 1d3e dfbd 333e
00000100: 57a2 b1bd c8e1 103e a129 63bd dc0b ccbc
00000110: 2340 adbd ec98 8bbd cfda f0bd d4e5 963c
00000120: ef98 e2bd 053b a9bd d70c 4bbd bc33 53bd
00000130: 8a28 debd 82ed 32bd 7db3 8abd a694 383d
00000140: ffff 5ebc 20f8 393e ac79 adbd b6c4 86bd
00000150: ef95 2a3e 74e6 fa3d 62dc aebd f8eb 5fbd
00000160: aef9 7c3e 6c16 5a3e 9d8b 1f3e 695d 63bd
00000170: abc5 29be afae d4bd f425 9fbd b76a e63c
00000180: 28b0 ffbd c047 e9bd 89af c3bc 0c72 08bd
00000190: e9fd d73d 9b4b c53b 4ee0 5c3e 7e3b 6bbd
000001a0: 8c5a ee3b d841 c03d 461d 0a3e e9b8 87bd
000001b0: 4a98 d63d 98ed aebd edfe ab3d 35ba a5bd
000001c0: 9322 fcbd e9b9 77bd dc5f 06bd 6395 2b3e
000001d0: e51e 98bd fb6e 2d3d ab50 31bd 63f8 f5bd
000001e0: 6ea4 0d3e 4f65 0ebd 34b2 dfbd c5a5 e3bb
000001f0: 5b20 273e 690f f2bd b137 b4bd d1eb 36bc
00000200: b2e4 06bd 309b 0ebe e668 093d 5723 04be
00000210: 8974 56be 6047 e6bd 3bf1 eebd fd37 e3bd
00000220: db37 9fbd 78e2 8d3c 428a 62bd 6cf4 fcbd
00000230: bd13 59bc af66 8ebd 6bc9 b6bd c9bf 24be
00000240: 102a cbbd 699b cebd daab 07be 2e5d 333e
00000250: 886b 52bb 6adb 55bd 3c88 d0bd e20e 98bd
00000260: 659a 513e b44d 5b3e ad7d d8bd 86f0 fa3d
00000270: f45c bfbc 558b dfbd ea31 59bd 5a77 4abc
00000280: f6c0 3abc ce43 f1bd 7c24 563c ab07 05be
00000290: 7789 ef3d e411 e9bc cf92 2fbc 0263 b3bd
000002a0: 07db d8bc dd89 0bbe ca10 73bd a97c d9bd
000002b0: 0162 09be 7f00 743d f706 09bd af3c 893d
000002c0: 8f94 9ebd e497 a5bd eeaf d3bd f801 8fbd
000002d0: 0923 f7bd ab21 03be e13d 20bd 1e85 8e3d
000002e0: e8da 02be e284 6b3e 07c2 11bc a319 303e
000002f0: a33f 3fbd b7d8 243c 346f 543d 1bc0 d43d
00000300: f07f d93b d250 183e 2be3 2fbd 2ba9 b9bc
00000310: efa1 b4bd 547d a3bd 79ef 98bd 7baa eabd
00000320: 289d fcbb 4374 07bd d6b3 4dbd 5cc4 aa3c
00000330: b077 e4bd bf5b a3bd 87c2 8e39 667a 2c3d
00000340: 8741 d7bd e1de 1f3e 54b7 9bbd fa2f 46bd
00000350: c1a4 8b3d 13ee 063e 08ad 8dbd 5159 86bd
00000360: f21a 4c3e 5ea2 6f3e da1f 153e f6f9 75bd
00000370: 740d 22be ea31 ad3b f8fe cdbd 87a6 a9bd
00000380: 722e 253d 7e40 ad3b 64ba bfbc 9b68 e3bd
00000390: 5109 703e f86b 0cba 3877 4d3e ec50 54bd
000003a0: c22b be3c 4621 293e 9c24 2c3e e6a8 c1bc
000003b0: 886c b83d ec30 9d3d 80bb c43b 0fd0 79bd
000003c0: ba90 3dbb e6ee e4bd 7c18 aabd 316e 693e
000003d0: 3d01 b53d 5590 7dbd b703 a7bd c15d d3bd
000003e0: 4c17 503e 4a21 1cbc 7641 8fbc 4f10 54bd
000003f0: 8c26 b63d a3ee 0fbd 298d 7dbd 4074 4abc

fc1.bias f4 [32]
0.13139038 0.09943644 -0.15523756 -0.011220185 0.04611557 -0.08880475 0.11833973 -0.090410404
-0.033319525 -0.12013673 0.051113736 0.10498463 -0.09806928 0.05283378 0.054612305 0.08419221
-0.047283366 -0.12049154 0.058489297 -0.12293367 0.045706134 0.08323666 -0.061137825 0.044896655
-0.07471594 0.037907198 -0.0010138187 -0.003609421 0.14903256 -0.13235968 0.1087724 0.14064772
00000000: 338b 063e 55a5 cb3d 98f6 1ebe ded4 37bc
00000010: aee3 3c3d 44df b5bd 1a5c f23d 1729 b9bd
00000020: 0e7a 08bd 3f0a f6bd a35c 513d 2f02 d73d
00000030: 8cd8 c8bd 3c68 583d 27b1 5f3d f76c ac3d
00000040: 34ac 41bd 45c4 f6bd 7992 6f3d a6c4 fbbd
00000050: 5b36 3b3d fb77 aa3d a86b 7abd 8ee5 373d
00000060: ac04 99bd 9444 1b3d 1ce2 84ba 098c 6cbb
00000070: fe9b 183e 4c89 07be 10c4 de3d f505 103e

fc2.weight f4 [1, 32]
0.1585769 0.15241086 -0.11879739 -0.18031093 0.18414024 -0.16743258 0.11305841 -0.11498517
-0.17413965 -0.13773225 0.20354055 0.17080694 -0.14736673 0.11248769 0.20317467 0.12582563
-0.2015267 -0.17564988 0.119870566 -0.106034786 0.15697992 0.16467921 -0.13453993 0.13965616
-0.17567967 0.192937 -0.13226381 0.20284913 0.14370167 -0.18542069 0.12859939 0.11741134
00000000: fc61 223e 9811 1c3e 0c4c f3bd 6ea3 38be
00000010: 428f 3c3e 7273 2bbe 2b8b e73d 587d ebbd
00000020: aa51 32be af09 0dbe ef6c 503e 04e8 2e3e
00000030: 4ee7 16be f25f e63d 050d 503e 6fd8 003e
00000040: 045d 4ebe 90dd 33be b37e f53d c428 d9bd
00000050: 58bf 203e aba1 283e d6c4 09be 0602 0f3e
00000060: 5fe5 33be 4791 453e 2a70 07be afb7 4f3e
00000070: 8826 133e ecde 3dbe 8faf 033e 5b75 f03d

exp_avg f4 [16, 1, 3]
0.16329736 1.1546685 -0.79424363 -2.807659 -3.0710835 0.015863825 0.24375275 0.27862552
0.43992177 -0.48063475 -1.2284765 -0.3155859 -1.035497 -0.8896132 0.8303002 -0.19091576
1.5506325 0.90304554 -1.1544632 -0.99867004 -0.48375762 -0.26974306 -0.54142666 0.45272893
1.938164 2.4396315 0.30581084 1.5867566 1.4976715 1.0693392 0.13822685 -0.25121614
-0.09792532 0.045795627 0.090336256 1.2496057 -2.5881598 -1.5609851 -0.030746145 -1.5378469
-0.22049752 -1.11695 0.2375665 0.22871274 0.47172403 -0.28717324 -0.066593565 0.08358086
00000000: 6c37 273e 2dcc 933f 8d53 4bbf afb0 33c0
00000010: a28c 44c0 daf4 813c 529a 793e 01a8 8e3e
00000020: 6d3d e13e c215 f6be b83e 9dbf 7a94 a1be
00000030: 2a8b 84bf b1bd 63bf 8e8e 543f 6c7f 43be
00000040: 207b c63f fe2d 673f 73c5 93bf d7a8 7fbf
00000050: 14af f7be c31b 8abe f09a 0abf 16cc e73e
00000060: c215 f83f ec22 1c40 3d93 9c3e d71a cb3f
00000070: b3b3 bf3f 1be0 883f 578b 0d3e 679f 80be
00000080: 128d c8bd 3294 3b3d 3702 b93d 14f3 9f3f
00000090: 69a4 25c0 5cce c7bf 57df fbbc 2bd8 c4bf
000000a0: 1aca 61be 38f8 8ebf a244 733e ac33 6a3e
000000b0: d085 f13e 5f08 93be 3562 88bd 712c ab3d

exp_avg_sq f4 [16, 1, 3]
2046.5343 2158.1174 2152.4968 7206.7056 8271.764 10616.035 272.33517 265.85413
254.53758 77.477135 82.063 26.208727 779.91095 836.5945 905.0176 7270.798
7754.0405 824.04224 51.16196 50.481693 51.555664 5189.107 5570.4097 5932.3193
2122.232 2491.883 254.69109 30.20856 35.06739 16.22185 6.2506886 5.552648
4.1212935 7.8278317 9.845965 29.658802 488.7662 359.33102 17.109375 3209.3455
3450.3652 3445.2678 949.1778 940.5125 164.98022 3.749407 4.470676 3.4887903
00000000: 19d1 ff44 e1e1 0645 f387 0645 a535 e145
00000010: 0e3f 0146 24e0 2546 e72a 8843 54ed 8443
00000020: 9f89 7e43 4bf4 9a42 4220 a442 79ab d141
00000030: 4dfa 4244 0c26 5144 2041 6244 6236 e345
00000040: 5350 f245 b402 4e44 d9a5 4c42 41ed 4942
00000050: 0039 4e42 db28 a245 4713 ae45 8e62 b945
00000060: b6a3 0445 21be 1b45 ebb0 7e43 22ab f141
00000070: 0245 0c42 59c6 8141 a405 c840 4baf b140
00000080: a3e1 8340 997d fa40 1389 1d41 3a45 ed41
00000090: 1362 f443 5faa b343 00e0 8841 8795 4845
000000a0: d8a5 5745 4954 5745 614b 6d44 cd20 6b44
000000b0: f0fa 2443 49f6 6f40 c70f 8f40 5748 5f40

exp_avg f4 [16]
-0.12976415 -0.1887358 -0.058718693 -0.04601563 -0.109670796 -0.22248644 0.027898625 -0.18021797
0.003868293 -0.041306455 -0.0006486184 -0.0016440555 0.12479084 -0.064039454 -0.06319263 -0.020313537
00000000: e5e0 04be f543 41be 0383 70bd e37a 3cbd
00000010: 159b e0bd 7cd3 63be a88b e43c 0f8b 38be
00000020: 3083 7d3b f530 29bd 0b08 2aba 597d d7ba
00000030: 5792 ff3d 1e27 83bd 236b 81bd 9368 a6bc

exp_avg_sq f4 [16]
0.21834444 1.0107021 0.037784718 0.123472236 0.10376824 0.852221 0.0105468845 0.6345541
0.14998898 0.04479728 0.025556153 0.024593787 0.3669493 0.28192466 0.119575776 0.009882947
00000000: af95 5f3e b05e 813f 26c4 1a3d 03df fc3d
00000010: 7184 d43d 282b 5a3f d7cc 2c3c 2372 223f
00000020: b696 193e 5a7d 373d 235b d13c e978 c93c
00000030: c7e0 bb3e 6e58 903e 25e4 f43d 16ec 213c

exp_avg f4 [32, 16, 3]
0.4463785 0.20930354 -0.744548 -0.032491494 0.28570023 -0.11426522 0.1405713 0.13994944
-0.1341401 0.31726685 -0.075231396 -0.12918042 0.5916553 0.3745104 -0.67394066 0.050912265
0.505362 -0.30117118 0.11291691 0.2331234 -0.13450328 -0.010135833 0.17963587 -0.17970696
-0.0011874627 0.0742131 0.053887147 -0.04325427 -0.1852478 -0.0004530581 0.31755382 -0.0599471
-0.14123444 0.21139964 0.4012666 -0.2119629 0.2327951 -0.23209612 -0.025639977 -0.082697265
0.24821089 -0.25308257 0.16510934 0.2233363 -0.21595934 0.35992518 -0.2175045 -0.15407519
0.21787408 -0.058591455 5.944885e-09 -0.2321334 -0.46702123 2.7909223e-06 -0.20439386 -0.10125903
1.263369e-06 -0.56097686 -0.081787616 1.3080665e-06 -0.62627953 0.07278043 2.3236531e-08 -0.2608583
-0.39098886 1.5542063e-06 0.07902153 -0.49251896 2.329771e-06 -0.07166744 -0.20338662 -1.3999148e-10
-0.71658933 -0.0927481 4.416927e-07 -0.5003046 0.06886779 1.9626212e-07 -0.36278436 -0.06933642
5.811603e-06 -0.18499976 -0.9371657 7.38676e-06 -0.6232523 -0.033575878 2.8452757e-06 0.24937029
-0.47644448 5.4705597e-06 -0.51094055 0.16788451 1.0549444e-09 -0.5657222 0.08447732 3.865991e-06
0.3996051 1.0772758 1.0902667 0.014157461 -0.025250062 0.025093421 -0.04087153 0.1466713
0.21039236 -0.107205026 0.1397247 0.021932838 -0.1350948 0.9208825 1.0414603 -0.03625618
-0.04251649 0.05277774 0.13238464 0.035176188 0.19841705 0.08352971 0.10837316 0.11445903
-0.29156488 -0.0070923874 0.08327506 -0.102199644 0.12680463 0.059360318 -0.0746939 0.11638528
0.017501414 0.18280707 -0.16461717 0.014375384 -0.088626735 0.13069712 0.032937493 0.35541072
0.15417315 0.0778884 -0.20149922 0.10696547 0.15783776 -0.08442256 0.22779918 0.030476056
-0.12782142 0.0019111988 0.032052133 0.062061045 0.10295207 -0.026938144 0.031649865 0.019623902
0.010567422 0.20501274 -0.0086426325 -0.061938643 0.07440245 -0.033578303 0.04704318 0.011964284
0.07563071 -0.024282174 -0.018409217 0.10666599 0.005148457 0.012869979 0.046912525 -0.019108975
0.06729544 -0.062459502 0.017364785 0.021496566 -0.13310999 -0.014109489 0.20631596 0.0036299352
-0.056936678 0.21329615 0.21663763 -0.07642195 0.15866679 -0.07585002 -0.04092775 -0.00028124527
0.14964305 -0.04769071 0.06888594 -0.049051702 -0.0126505215 0.24445908 -0.07189409 -0.07351768
-0.45366502 -0.32616553 -0.38931826 0.005182427 -0.035434697 -0.04673815 -0.08733668 -0.08907574
-0.08056737 -0.029375771 -0.013089719 0.058878325 -0.41618237 -0.38555926 -0.32345182 -0.012906731
-0.040025007 -0.095747374 -0.09045995 -0.05755276 -0.13066038 -0.02594229 -0.045197923 -0.051893275
0.038444147 -0.056407433 -0.021679932 0.09210981 0.009151156 0.009944688 -0.053242054 -0.005839993
0.06142601 -0.06593527 -0.013132676 -0.041905552 0.0032381618 0.011768848 0.053056903 -0.0336238
-0.016217545 -0.06962542 -0.041324373 -0.080732495 -0.044336572 -0.046206865 0.004567201 0.09113363
0.4905032 0.18562867 -0.08305654 -0.034114305 -0.042786043 -0.038920924 0.11252661 0.036263414
0.0012499372 0.03470956 -0.04539127 0.004104853 0.4880687 0.17758474 -0.0015136136 0.09787084
00000000: b98b e43e ab53 563e b39a 3ebf cd15 05bd
00000010: 4d47 923e e203 eabd ecf1 0f3e e84e 0f3e
00000020: 065c 09be cd70 a23e eb12 9abd df47 04be
00000030: b976 173f d4bf bf3e 6087 2cbf 6189 503d
00000040: 675f 013f 1c33 9abe fb40 e73d e7b7 6e3e
00000050: 3abb 09be c410 26bc 77f2 373e 1a05 38be
00000060: a3a4 9bba 0afd 973d c5b8 5c3d 642b 31bd
00000070: 99b1 3dbe 6e88 edb9 6a96 a23e 178b 75bd
00000080: c39f 10be 2679 583e d172 cd3e cd0c 59be
00000090: d761 6e3e 9baa 6dbe ee0a d2bc 2f5d a9bd
000000a0: ff2a 7e3e 0a94 81be 6c12 293e 45b2 643e
000000b0: 7224 5dbe 1d48 b83e 80b9 5ebe e3c5 1dbe
000000c0: 621a 5f3e 98fd 6fbd c343 cc31 61b4 6dbe
000000d0: 681d efbe ae4b 3b36 a04c 51be e560 cfbd
000000e0: 0791 a935 2e9c 0fbf 4480 a7bd d390 af35
000000f0: db53 20bf e80d 953d ac99 c732 388f 85be
00000100: b12f c8be 1f9a d035 0ad6 a13d 722b fcbe
00000110: 2959 1c36 61c6 92bd 9544 50be 19ec 19af
00000120: 6672 37bf b7f2 bdbd c821 ed34 f613 00bf
00000130: 8e0a 8d3d 1fbc 5234 dfbe b9be 4100 8ebd
00000140: 4a01 c336 9470 3dbe 17ea 6fbf c9db f736
00000150: 768d 1fbf dc86 09bd 77f1 3e36 ed5a 7f3e
00000160: 88f0 f3be c08f b736 00cd 02bf ebe9 2b3e
00000170: 8efd 9030 2cd3 10bf 7202 ad3d 9cb8 8136
00000180: 0a99 cc3e 2ce4 893f dc8d 8b3f b2f4 673c
00000190: 38d9 cebc b890 cd3c e868 27bd 0031 163e
000001a0: 1871 573e 4f8e dbbd fe13 0f3e 7fac b33c
000001b0: 4b56 0abe f5be 6b3f 924e 853f 5c81 14bd
000001c0: c525 2ebd 792d 583d d78f 073e e814 103d
000001d0: d72d 4b3e a011 ab3d bff2 dd3d 7f69 ea3d
000001e0: fe47 95be 4267 e8bb 1d8c aa3d 0c4e d1bd
000001f0: 13d9 013e ce23 733d 1ef9 98bd 685b ee3d
00000200: 205f 8f3c c731 3b3e 6791 28be bb86 6b3c
00000210: ef81 b5bd 77d5 053e 77e9 063d 65f8 b53e
00000220: 91df 1d3e f483 9f3d d055 4ebe b610 db3d
00000230: 39a0 213e bce5 acbd 3044 693e eca8 f93c
00000240: 9ee3 02be 3181 fa3a 1949 033d b933 7e3d
00000250: 89d8 d23d 62ad dcbc 4aa3 013d 4ec2 a03c
00000260: fb22 2d3c dcee 513e d499 0dbc 60b3 7dbd
00000270: 5060 983d 6789 09bd 59b0 403d d805 443c
00000280: 46e4 9a3d 69eb c6bc edce 96bc b373 da3d
00000290: 63b4 a83b 9bdc 523c 5927 403d 6d8a 9cbc
000002a0: 31d2 893d 89d5 7fbd 9840 8e3c 9119 b03c
000002b0: fc4d 08be 7c2b 67bc 7e44 533e 35e4 6d3b
000002c0: 6f36 69bd 4e6a 5a3e 41d6 5d3e 1c83 9cbd
000002d0: 8c79 223e 4157 9bbd dba3 27bd 1a74 93b9
000002e0: 073c 193e 5557 43bd 1214 8d3d 70ea 48bd
000002f0: 2244 4fbc 7b53 7a3e 353d 93bd 7090 96bd
00000300: c846 e8be 2bff a6be b954 c7be 59d1 a93b
00000310: f923 11bd 8170 3fbd 93dd b2bd 576d b6bd
00000320: 8100 a5bd 75a5 f0bc 4376 56bc 662a 713d
00000330: db15 d5be 0668 c5be 7a9b a5be c176 53bc
00000340: 43f1 23bd 3317 c4bd 1143 b9bd 71bc 6bbd
00000350: d6cb 05be ed84 d4bc 7521 39bd 0b8e 54bd
00000360: 9c77 1d3d 7b0b 67bd 1d9a b1bc 11a4 bc3d
00000370: bbee 153c 0bef 223c 5714 5abd 695d bfbb
00000380: d799 7b3d 1209 87bd 6f2a 57bc 28a5 2bbd
00000390: 5737 543b 20d2 403c 3252 593d 1cb9 09bd
000003a0: a8da 84bc c697 8ebd bf43 29bd 1457 a5bd
000003b0: 449a 35bd 6943 3dbd 75a8 953b 45a4 ba3d
000003c0: 3c23 fb3e 7115 3e3e 8c19 aabd 71bb 0bbd
000003d0: 6b40 2fbd 8c6b 1fbd 5a74 e63d f288 143d
000003e0: efd4 a33a 9d2b 0e3d 32ec 39bd 0182 863b
000003f0: 24e4 f93e c6d8 353e 7264 c6ba 8270 c83d

exp_avg_sq f4 [32, 16, 3]
710.92084 887.6077 909.4234 1.7999864 2.2094517 1.7071371 25.165 31.327887
32.13981 3.9119246 5.4586477 3.275372 583.97565 730.9689 753.762 2.4206564
3.5770805 104.3471 25.84857 32.202927 36.662613 9.883045 12.506687 11.335167
2.5104775 2.0110545 29.32984 1.7546237 2.112159 42.11303 3.424796 4.488305
3.5940218 3.0354605 3.5896091 6.0998607 3.7694323 5.269384 2.8425815 13.194596
17.58369 12.45301 9.273474 9.006435 117.14535 5.9369817 8.199759 6.1984644
5349.539 5356.843 0.0003724672 10.996594 8.049618 0.00031236422 189.32701 189.49275
0.00016483157 6.1310596 1.8338083 0.00038871026 4440.339 4453.343 0.0009560879 15.795392
598.30475 0.0005229228 190.19992 216.15382 0.00022802717 70.75532 65.11401 2.3307273e-05
11.2402525 170.44386 0.0007411971 5.677214 238.63245 0.0006226943 4.90227 2.2459972
0.0005008678 8.895992 9.120783 0.0012710948 7.7419043 0.9701364 0.0007115886 88.97481
67.147804 0.00040675103 59.297173 681.93384 0.00024343422 9.407992 2.6713774 0.00057251187
1252.4158 1272.6703 40.59389 2.6113923 1.8604196 0.04957324 43.981606 44.80011
1.4823494 4.836672 2.7255442 0.048103373 1030.2787 1056.5668 34.939247 4.0349827
118.339806 0.24326964 45.215466 50.165558 1.4782712 16.893309 14.855044 0.4562766
2.6372695 35.498466 0.1799579 2.6096325 46.951473 0.052204963 3.9612715 3.0273676
0.054710805 3.4966688 5.7919173 0.07530108 5.282667 2.1915243 0.05547901 21.039173
15.001566 0.4379922 13.394994 140.0311 0.8694782 7.5606194 4.9546366 0.079783484
304.58142 300.4649 3.6179106 0.6106978 0.3393287 0.17673984 10.72716 10.5934925
0.14184515 1.773244 1.9055032 1.354868 251.02583 249.99388 2.759355 0.89710236
31.482166 0.6914935 10.880119 11.65475 0.26491848 4.034042 3.3971236 0.10430419
0.69796735 9.924441 0.19935086 0.7610753 14.081612 0.39129195 1.4920682 1.7408078
1.39445 1.0641919 1.5355842 1.9426215 1.7682718 1.8272165 1.1064793 5.058671
3.2728195 0.43055534 3.257578 37.80958 0.52574813 2.6397889 3.1109364 2.3254964
41.587105 40.439404 33.493446 0.061645593 0.067230165 0.06462891 1.4992858 1.4789219
1.2266461 0.17213891 0.23308152 0.107756056 35.064693 34.773006 28.645247 0.18621849
0.16024025 4.937115 1.5008769 1.4249843 1.3387804 0.48218548 0.45368958 0.34012803
0.21259056 0.16397959 1.6538525 0.09387727 0.13057293 2.3704343 0.14638567 0.19355443
0.12855253 0.1428743 0.17303345 0.2978486 0.17045747 0.25050524 0.09186952 0.493369
0.48721683 0.32071197 0.77883476 0.65449136 5.809631 0.25670627 0.3712521 0.20538133
3.3288484 2.3581176 5.498144 0.09677825 1.0441767 0.1174351 0.14574425 0.1221753
0.19784318 10.161738 8.163611 0.03044542 2.9411607 2.295358 3.9627895 0.5051228
00000000: efba 3144 e5e6 5d44 195b 6344 f465 e63f
00000010: a867 0d40 7883 da3f ec51 c941 839f fa41
00000020: 2a8f 0042 f95c 7a40 3ead ae40 b29f 5140
00000030: 71fe 1144 02be 3644 c570 3c44 09ec 1a40
00000040: e3ee 6440 b7b1 d042 dfc9 ce41 cccf 0042
00000050: 84a6 1242 f420 1e41 641b 4841 d85c 3541
00000060: aaab 2040 1eb5 0040 83a3 ea41 8297 e03f
00000070: 9d2d 0740 be73 2842 dc2f 5b40 32a0 8f40
00000080: 7404 6640 fc44 4240 28bc 6540 0f32 c340
00000090: 613e 7140 cb9e a840 dbec 3540 111d 5341
000000a0: 66ab 8c41 873f 4741 2660 1441 5c1a 1041
000000b0: 6b4a ea42 c1fb bd40 3632 0341 d259 c640
000000c0: 502c a745 be66 a745 b447 c339 0df2 2f41
000000d0: 3ccb 0041 d1c4 a339 b753 3d43 257e 3d43
000000e0: a3d6 2c39 a431 c440 3bba ea3f cfcb cb39
000000f0: b6c2 8a45 be2a 8b45 f9a1 7a3a edb9 7c41
00000100: 8193 1544 c114 093a 2e33 3e43 6127 5843
00000110: 941a 6f39 b982 8d42 603a 8242 fd83 c337
00000120: 13d8 3341 a171 2a43 e54c 423a bdab b540
00000130: e8a1 6e43 4f3c 233a 65df 9c40 6bbe 0f40
00000140: ab4c 033a fc55 0e41 baee 1141 dd9a a63a
00000150: aebd f740 dc5a 783f e789 3a3a 1af3 b142
00000160: ad4b 8642 3341 d539 4e30 6d42 c47b 2a44
00000170: 6042 7f39 2387 1641 d9f7 2a40 9f14 163a
00000180: 4e8d 9c44 7315 9f44 2560 2242 0d21 2740
00000190: 3b22 ee3f 4f0d 4b3d 2aed 2f42 5033 3342
000001a0: a0bd bd3f 04c6 9a40 516f 2e40 0b08 453d
000001b0: ebc8 8044 2312 8444 cac1 0b42 941e 8140
000001c0: fbad ec42 ad1b 793e a3dc 3442 88a9 4842
000001d0: fe37 bd3f 7f25 8741 43ae 6d41 169d e93e
000001e0: 06c9 2840 6efe 0d42 e246 383e 3804 2740
000001f0: 4fce 3b42 dfd4 553d 7985 7d40 64c0 4140
00000200: 7018 603d 6cc9 5f40 6357 b940 7437 9a3d
00000210: 9c0b a940 ef41 0c40 f53d 633d 3a50 a841
00000220: 6a06 7041 8340 e03e e551 5641 f607 0c43
00000230: 2096 5e3f 98f0 f140 628c 9e40 8665 a33d
00000240: 6c4a 9843 823b 9643 d98b 6740 b156 1c3f
00000250: 7ebc ad3e 4afb 343e 73a2 2b41 f27e 2941
00000260: db3f 113e a9f9 e23f 87e7 f33f 516c ad3f
00000270: 9d06 7b43 6ffe 7943 4699 3040 80a8 653f
00000280: 7adb fb41 b805 313f f814 2e41 db79 3a41
00000290: 65a3 873e df16 8140 796a 5940 6f9d d53d
000002a0: fdad 323f 83ca 1e41 a222 4c3e d5d5 423f
000002b0: 484e 6141 6b57 c83e 17fc be3f cad2 de3f
000002c0: 567d b23f 7137 883f 068e c43f d2a7 f83f
000002d0: bb56 e23f 3be2 e93f 1da1 8d3f a2e0 a140
000002e0: e075 5140 c071 dc3e 287c 5040 033d 1742
000002f0: 6e97 063f 4df2 2840 9519 4740 efd4 1440
00000300: 3259 2642 f3c1 2142 4af9 0542 1780 7c3d
00000310: f8af 893d 295c 843d 99e8 bf3f 504d bd3f
00000320: bd02 9d3f 2f45 303e ecac 6e3e 35af dc3d
00000330: 3f42 0c42 8f17 0b42 7729 e541 0fb0 3e3e
00000340: 0516 243e d9fc 9d40 bc1c c03f e365 b63f
00000350: 285d ab3f 04e1 f63e 004a e83e 4325 ae3e
00000360: 57b1 593e 44ea 273e 70b1 d33f ba42 c03d
00000370: e9b4 053e 32b5 1740 20e6 153e 2233 463e
00000380: 46a3 033e a44d 123e ae2f 313e 9d7f 983e
00000390: 678c 2e3e 3942 803e 1626 bc3d dd9a fc3e
000003a0: 7c74 f93e 5c34 a43e b761 473f bf8c 273f
000003b0: 7fe8 b940 016f 833e c114 be3e 7c4f 523e
000003c0: da0b 5540 66eb 1640 ccf0 af40 ad33 c63d
000003d0: 95a7 853f d081 f03d fb3d 153e 0b37 fa3d
000003e0: 6797 4a3e 7b96 2241 279e 0241 ac68 f93c
000003f0: fa3b 3c40 25e7 1240 589e 7d40 ba4f 013f

exp_avg f4 [32]
0.06264213 -0.14858173 -0.052322533 0.033444937 -0.018629925 0.028581263 -0.035842575 0.060994286
0.1195768 -0.069087364 -0.003242181 -0.024746044 0.024430359 -0.0042596026 -0.026298301 -0.15785548
0.020843318 0.07519105 -0.07705644 -0.07974611 0.11124897 -0.039386254 0.01142203 -0.10760226
-0.016859088 -0.0026139794 -0.033100378 -0.003487598 -0.024912575 -0.037734352 -0.069616005 0.009530925
00000000: 844a 803d cf25 18be 2750 56bd 8ffd 083d
00000010: c99d 98bc 4123 ea3c aacf 12bd 25d5 793d
00000020: aee4 f43d ad7d 8dbd c57a 54bb 37b8 cabc
00000030: 2d22 c83c 2394 8bbb 896f d7bc dea4 21be
00000040: 9bbf aa3c c4fd 993d c4cf 9dbd ee51 a3bd
00000050: 80d6 e33d 7b53 21bd 7723 3b3c 935e dcbd
00000060: 121c 8abc 4c4f 2bbb 4394 07bd 2f90 64bb
00000070: 7515 ccbc 568f 1abd d692 8ebd 9927 1c3c
