checkpoints/CNN1D/window168_lr0.00010_batch512_fold0_checkpoint.pth (torch, 456446 bytes, 33 tensors)

conv1.weight f4 [16, 1, 3]
0.34589192 -0.5178345 0.015524563 -0.29302925 0.44746658 0.39693514 0.46366158 0.1309279
0.65240365 0.0013605915 -0.48584726 -0.30650333 0.3720574 0.16962215 -0.4756693 0.486123
-0.6746606 0.48963633 0.1067941 -0.39419642 0.21361998 0.39408192 0.59450036 -0.48672405
0.1560341 -0.49920952 -0.35583708 -0.4387662 0.36187997 -0.30595973 0.10326246 -0.48806047
0.5197723 0.5843299 -0.4961557 -0.09363851 -0.08000666 0.10850787 0.6735282 0.41644743
-0.13320836 -0.2936433 0.49585545 -0.25878423 0.7057008 -0.09273945 0.11118548 0.71297723
00000000: bf18 b13e cd90 04bf bd5a 7e3c ee07 96be
00000010: 571a e53e 153b cb3e 0d65 ed3e f711 063e
00000020: ed03 273f e055 b23a f9c0 f8be 01ee 9cbe
00000030: 4f7e be3e 6eb1 2d3e ed8a f3be 1de5 f83e
00000040: 8fb6 2cbf 9db1 fa3e ddb6 da3d 1dd4 c9be
00000050: 32bf 5a3e 1bc5 c93e 2d31 183f e533 f9be
00000060: 67c7 1f3e 6498 ffbe 4730 b6be f7a5 e0be
00000070: 5548 b93e c1a6 9cbe 457b d33d 10e3 f9be
00000080: cc0f 053f a596 153f 1f08 febe 8cc5 bfbd
00000090: 88da a3bd 6039 de3d 586c 2c3f 9938 d53e
000000a0: c667 08be 6a58 96be c4e0 fd3e 5e7f 84be
000000b0: cfa8 343f 2eee bdbd 37b5 e33d ad85 363f

conv1.bias f4 [16]
-0.14816841 0.44435313 0.078553475 -0.25365394 -0.16828726 0.049677122 0.40229508 0.011820403
-0.4531919 0.32985747 -0.31987968 -0.5724622 0.67571163 -0.17524785 -0.2564521 0.84702194
00000000: 76b9 17be 4182 e33e a5e0 a03d eede 81be
00000010: 7f53 2cbe 3d7a 4b3d 9ff9 cd3e 5daa 413c
00000020: c508 e8be 14e3 a83e 45c7 a3be e28c 12bf
00000030: 70fb 2c3f 2c74 33be b14d 83be 6ed6 583f

conv2.weight f4 [32, 16, 3]
0.035778087 -0.109568946 0.12844303 0.083292 -0.13879757 0.1677372 0.07629434 -0.07757559
0.11819662 -0.07025033 0.01020747 -0.035122048 0.08221051 -0.005797949 0.009876682 0.10004534
0.016611343 -0.08093279 -0.08583302 -0.13207185 0.08189358 0.0069475686 -0.11853969 0.017874863
-0.005105344 0.09083941 0.05146575 0.07411864 -0.0151619185 0.084843844 -0.1501513 -0.2068496
-0.07693716 -0.1259201 0.09685339 0.07406499 0.017970882 -0.023564303 0.13452522 0.096797474
-0.07740392 -0.029812954 -0.09804447 -0.09447258 0.11025341 -0.13756306 -0.033611737 0.15080443
0.13165505 0.07178709 -0.033596333 -0.03126664 -0.073422156 -0.0350312 -0.10493236 0.045891624
-0.024199843 -0.12304671 -0.00043779664 0.049131673 0.12141795 0.02513474 -0.040708378 0.06734251
0.09454032 0.09361039 0.1614438 -0.05536939 0.15302503 -0.034586195 -0.0860863 0.22763887
0.011569403 -0.019374128 0.111730665 -0.11535305 0.0700248 0.09841941 0.020356188 0.08775349
0.18050097 -0.026682794 0.040869005 0.16818142 0.07244863 0.043658074 -0.08782745 0.12130937
-0.0015381809 0.113386646 -0.08092476 0.078679405 0.005153454 -0.048613217 -0.056687966 -0.019685091
-0.032340333 -0.09047805 0.15611176 0.16061519 0.120548874 -0.13439927 0.07427827 -0.019193273
-0.07038066 0.03821828 -0.015381532 -0.0059446064 -0.026885372 0.07553209 -0.107192025 -0.079067215
-0.007834215 0.16371667 0.0669241 -0.0026599066 -0.054390702 -0.0748995 -0.012588574 0.1004097
-0.06682995 -0.07003247 0.08306393 0.052490342 -0.10804041 -0.032144256 0.16685346 -0.09042823
0.22064339 -0.010412406 -0.0114628235 0.08247039 0.14202903 -0.030772656 -0.10918283 0.042493664
-0.099682935 0.114090234 0.08464225 0.011758537 0.12461762 0.115521304 -0.04287935 -0.077578634
-0.04675578 0.114021815 -0.0763871 -0.06212199 0.1367076 0.11440289 0.093397535 -0.024426026
0.1693164 0.15239398 -0.08321707 0.007421712 0.16963227 -0.018740643 0.016078081 0.07197748
-0.01435454 -0.041316368 0.09134513 -0.08889908 0.17046268 -0.016948964 0.002720445 -0.020810217
-0.08790424 0.00327502 -0.022959074 0.019397859 0.15526484 0.16495815 0.025702313 -0.08953137
-0.13329753 0.0028431672 0.027673626 0.08615259 0.048017677 -0.011564509 0.20206864 0.07081703
0.19193137 0.0616405 -0.10691379 0.029398384 0.2041328 -0.09901058 0.0044624023 0.13544913
0.019084359 0.00442512 0.027066924 -0.050472748 -0.15860713 -0.46716744 0.09774474 0.07895352
-0.022460159 -0.04138055 0.08703451 -0.12497667 0.06090719 0.089235246 -0.02860806 0.03643326
-0.08057769 0.3129702 -0.02558888 0.07317529 0.10209198 0.0034529888 -0.10580638 0.018206427
-0.100815244 -0.07791259 0.12507431 -0.01786622 0.112542726 0.1717498 0.19129144 0.16568555
0.1962065 -0.029827205 0.059833042 0.0046191458 -0.09135329 -0.033296447 -0.35766366 -0.08032672
-0.035121214 -0.07444265 -0.07410873 -0.08816701 -0.012256647 0.0036893561 -0.050295442 -0.3165144
0.030715346 0.09600821 0.06945689 -0.024908913 -0.09461138 -0.24046393 -0.092733525 0.015923023
0.119641185 -0.120832 -0.009269747 0.08471487 -0.06508592 -0.043138508 -0.09878646 0.09820482
00000000: 0b8c 123d af65 e0bd 9286 033e ff94 aa3d
00000010: f320 0ebe 4dc3 2b3e 3540 9c3d f3df 9ebd
00000020: 1211 f23d 68df 8fbd 3b3d 273c 23dc 0fbd
00000030: fc5d a83d b9fc bdbb cfd1 213c 92e4 cc3d
00000040: 8314 883c 17c0 a5bd 39c9 afbd d83d 07be
00000050: d2b7 a73d 6ea8 e33b f0c4 f2bd 4e6e 923c
00000060: bb4a a7bb 030a ba3d c0cd 523d 83cb 973d
00000070: b269 78bc 9cc2 ad3d 43c1 19be 62d0 53be
00000080: 3b91 9dbd 33f1 00be 125b c63d 63af 973d
00000090: ac37 933c ed09 c1bc fbc0 093e c13d c63d
000000a0: f285 9ebd 4c3a f4bc 8acb c8bd d77a c1bd
000000b0: 8acc e13d 55dd 0cbe 76ac 09bd 7a6c 1a3e
000000c0: 95d0 063e 1c05 933d 4f9c 09bd 7311 00bd
000000d0: 5b5e 96bd e07c 0fbd c7e6 d6bd dbf8 3b3d
000000e0: c03e c6bc eaff fbbd 1288 e5b9 4b3e 493d
000000f0: f9a9 f83d 5fe7 cd3c d4bd 26bd dfea 893d
00000100: 5b9e c13d ceb6 bf3d 8651 253e 03cb 62bd
00000110: 98b2 1c3e 41aa 0dbd 044e b0bd 2a1a 693e
00000120: 988d 3d3c 7eb6 9ebc 0cd3 e43d 383e ecbd
00000130: 2a69 8f3d 1e90 c93d 05c2 a63c 1ab8 b33d
00000140: 3fd5 383e e095 dabc 4266 273d c037 2c3e
00000150: f35f 943d cfd2 323d e1de b3bd 0c71 f83d
00000160: c99c c9ba 4237 e83d e1bb a5bd ab22 a13d
00000170: 4ede a83b a71e 47bd a431 68bd a142 a1bc
00000180: 4c77 04bd 8e4c b9bd c3db 1f3e 4f78 243e
00000190: 54e2 f63d f69f 09be 351f 983d 363b 9dbc
000001a0: bc23 90bd c58a 1c3d d202 7cbc f9ca c2bb
000001b0: b63e dcbc 92b0 9a3d 7e87 dbbd feed a1bd
000001c0: 145b 00bc 58a5 273e 810f 893d d451 2ebb
000001d0: c9c8 5ebd e964 99bd 4e40 4ebc 9aa3 cd3d
000001e0: 24de 88bd 2f6d 8fbd 6c1d aa3d 1d00 573d
000001f0: 4a44 ddbd b2a9 03bd a2db 2a3e 7032 b9bd
00000200: 57f0 613e cc98 2abc 91ce 3bbc 3ce6 a83d
00000210: 0f70 113e f016 fcbc 3f9b dfbd d60d 2e3d
00000220: 9126 ccbd 24a8 e93d ea58 ad3d e1a6 403c
00000230: 8637 ff3d 6f96 ec3d 42a2 2fbd 8ce1 9ebd
00000240: fd82 3fbd 4584 e93d d770 9cbd a173 7ebd
00000250: 14fd 0b3e 104c ea3d 3547 bf3d 1719 c8bc
00000260: 4761 2d3e 2b0d 1c3e b66d aabd d531 f33b
00000270: 15b4 2d3e fa85 99bc 2eb6 833c ee68 933d
00000280: 4e2f 6bbc 5a3b 29bd 2813 bb3d b910 b6bd
00000290: c58d 2e3e 8ed8 8abc 7e49 323b 307a aabc
000002a0: 2307 b4bd b8a1 563b ab14 bcbc 42e8 9e3c
000002b0: bffd 1e3e caea 283e a88d d23c 395c b7bd
000002c0: 267f 08be 6e54 3a3b cdb3 e23c c570 b03d
000002d0: 2fae 443d 1179 3dbc 15eb 4e3e 8508 913d
000002e0: a889 443e c07a 7c3d 9ef5 dabd e1d4 f03c
000002f0: 3008 513e 0fc6 cabd 5839 923b 2db3 0a3e
00000300: cd56 9c3c 9900 913b 74bb dd3c 83bc 4ebd
00000310: e869 22be 9230 efbe 652e c83d 62b2 a13d
00000320: 5efe b7bc a77e 29bd 263f b23d c5f3 ffbd
00000330: d179 793d f8c0 b63d 735b eabc 0b3b 153d
00000340: ea05 a5bd a13d a03e c59f d1bc eddc 953d
00000350: 9a15 d13d 8a4b 623b 04b1 d8bd a525 953c
00000360: 3978 cebd a390 9fbd 7b13 003e 2e5c 92bc
00000370: cd7c e63d 2edf 2f3e e7e1 433e 79a9 293e
00000380: 5bea 483e 2f58 f4bc 7e13 753d 345c 973b
00000390: 6f17 bbbd db61 08bd b11f b7be 5682 a4bd
000003a0: 43db 0fbd 6375 98bd 51c6 97bd e890 b4bd
000003b0: 1bd0 48bc 20c9 713b 9802 4ebd 2d0e a2be
000003c0: c09e fb3c f49f c43d 6a3f 8e3d c70d ccbc
000003d0: 9cc3 c1bd 2d3c 76be 13eb bdbd 0071 823c
000003e0: 7006 f53d c576 f7bd 23e0 17bc fd7e ad3d
000003f0: c44b 85bd 01b2 30bd 8e50 cabd 9c1f c93d

conv2.bias f4 [32]
0.19606169 -0.18430686 -0.20791404 0.15158504 -0.100413784 -0.3247899 -0.040920876 0.3218056
-0.19227707 0.30181846 -0.022174854 0.64870054 -0.042434603 0.2523029 -0.058369596 0.031515457
0.014104514 0.14617738 -0.03853188 -0.015343685 -0.13421427 0.10646877 0.05309748 -0.09569638
-0.22441068 -0.014536928 -0.06824861 0.017493589 -0.016816396 0.099237025 0.08261024 0.22199395
00000000: 65c4 483e f0ba 3cbe 6be7 54be 1c39 1b3e
00000010: bea5 cdbd dd4a a6be a69c 27bd b4c3 a43e
00000020: 48e4 44be f387 9a3e 0aa8 b5bc 3d11 263f
00000030: e8cf 2dbd d92d 813e f514 6fbd 5a16 013d
00000040: 9f16 673c 86af 153e 9bd3 1dbd 1464 7bbc
00000050: 776f 09be 4c0c da3d be7c 593d 77fc c3bd
00000060: eacb 65be 4c2c 6ebc edc5 8bbd b74e 8f3c
00000070: 8ac2 89bc c83c cb3d 8f2f a93d 6252 633e

conv3.weight f4 [64, 32, 3]
0.08090851 0.047941566 -0.021843962 0.092228204 -0.036871955 -0.060093213 -0.004502032 -0.051949833
0.12703595 0.07788134 -0.074750304 0.04143278 -0.041552104 -0.032500315 0.13270438 -0.061563883
-0.05695096 -0.03997552 -0.08353295 0.049247578 -0.11406799 0.011359197 0.10307493 -0.07378034
-0.012758517 -0.035802614 0.081555046 0.006796869 -0.078333884 -0.089284144 0.024597231 0.06109203
0.05380068 0.028287115 -0.09353944 0.014452155 -0.051143385 0.03339783 0.04152882 -0.021680579
-0.07761575 -0.0140425945 0.03748395 -0.11457888 0.037853282 0.029280208 0.10995174 0.0024479537
-0.045017637 -0.06997031 0.06482146 -0.074497834 -0.10271249 -0.024603754 0.07279215 0.028851159
0.055811673 -0.09597716 -0.01593436 0.08332947 0.09696367 0.08080336 -0.014053449 -0.066108085
0.07285703 0.11489849 -0.0870744 0.013230007 -0.08692217 -0.07989306 0.029531453 0.04990224
-0.045183633 -0.08365373 -0.030746575 -0.0010824724 0.02547452 -0.069949396 0.08406417 0.007818882
-0.05635454 0.004455842 0.066569105 0.074220486 0.11786938 -0.054066945 0.11624268 0.06891866
-0.003171231 -0.047511593 0.09959962 0.07682776 -0.039721336 -0.006941841 0.071104944 -0.050453678
-0.009311117 0.035668243 -0.1296611 -0.07190624 0.061976288 0.10634484 -0.07026286 -0.021146335
-0.09852094 0.012422413 -0.07247084 -0.05278936 -0.09235683 -0.0018782045 0.062193286 -0.098044254
-0.0007920149 -0.07376937 0.058267206 -0.037495635 -0.012761122 -0.05195403 0.059972744 0.03136362
-0.08921097 0.07971455 0.07354045 -0.0943901 -0.13360819 -0.15640928 0.06699864 0.011998191
-0.06786841 -0.08716915 -0.08323239 -0.006845936 -0.018355783 0.056383185 -0.020132601 -0.11774256
-0.10130195 -0.12876646 -0.085973784 -0.025640592 0.08473086 0.07197978 0.030433292 -0.05518818
0.0021916272 -0.11209628 -0.033781238 0.027550917 -0.072754435 -0.031730436 -0.0324432 -0.04796511
0.0060153105 0.022976903 0.066924885 0.18636966 0.018813906 0.038353797 0.044580083 -0.04163667
-0.09539286 0.03565815 0.055217087 0.040865067 0.0025462543 0.015969101 -0.04911841 0.07527711
0.0066189705 -0.07333174 -0.0384875 -0.018468495 -0.061494417 0.013265884 -0.068232104 0.010938713
0.058059152 0.066639446 -0.010500314 0.05537012 0.018288033 0.00860344 0.08719694 -0.1006561
0.05036554 0.0046433797 -0.03349485 -0.07216405 -0.08730588 0.03363946 -0.024060996 -0.06454877
0.065022215 0.06831452 0.024600238 0.085795805 -0.03487732 -0.02125722 0.107216 0.017344255
-0.16330376 0.025789188 0.11117652 0.05883755 0.109826624 0.024488315 -0.0548949 -0.026529027
0.021674113 0.077495866 0.09088115 -0.07056846 -0.0629207 -0.031782985 0.06349731 -0.050415136
-0.033468124 -0.10185135 -0.03783232 0.007595341 0.03612098 -0.08991542 0.066280134 0.0018858082
0.04433645 0.012694924 0.11222217 -0.059674565 0.016736742 -0.046887297 -0.114188105 -0.046412673
0.067370355 0.034805622 -0.020528262 0.099129975 -0.10062745 0.085406914 -0.07516668 -0.07141347
-0.024077969 0.07524843 -0.00970476 0.113979146 -0.0063252156 -0.008764653 0.04579294 0.045764968
-0.13812439 0.033162933 -0.046045434 -0.16871627 0.09349849 -0.009622807 0.07518372 0.035969716
00000000: 5cb3 a53d 605e 443d 1cf2 b2bc 24e2 bc3d
00000010: 0c07 17bd 4d24 76bd c885 93bb 59c9 54bd
00000020: b615 023e 4180 9f3d b016 99bd 6bb5 293d
00000030: 8a32 2abd 0d1f 05bd a8e3 073e 692a 7cbd
00000040: 6945 69bd 5fbd 23bd 5313 abbd d4b7 493d
00000050: 7a9c e9bd ed1b 3a3c f318 d33d 261a 97bd
00000060: 1909 51bc c3a5 12bd 5506 a73d 45b8 de3b
00000070: 846d a0bd 9bda b6bd 2280 c93c a33b 7a3d
00000080: 1a5e 5c3d 61ba e73c 9b91 bfbd bbc8 6c3c
00000090: ba7b 51bd 2acc 083d 201a 2a3d 789b b1bc
000000a0: 02f5 9ebd e912 66bc c588 193d 55a8 eabd
000000b0: 0b0c 1b3d 0cdd ef3c 612e e13d d96d 203b
000000c0: 6a64 38bd 984c 8fbd 1dc1 843d 5292 98bd
000000d0: ed5a d2bd d08d c9bc 0d14 953d 4459 ec3c
000000e0: c89a 643d ac8f c4bd c688 82bc a4a8 aa3d
000000f0: e394 c63d 3b7c a53d 7040 66bc ad63 87bd
00000100: 1136 953d e64f eb3d 1054 b2bd acc2 583c
00000110: 4004 b2bd f99e a3bd f2eb f13c 4b66 4c3d
00000120: 7912 39bd a652 abbd 3ee0 fbbc bfe1 8dba
00000130: f1af d03c a141 8fbd d629 ac3d c51a 003c
00000140: 05d4 66bd 5002 923b 6255 883d e900 983d
00000150: 8065 f13d 4d75 5dbd a410 ee3d 3a25 8d3d
00000160: 6dd4 4fbb 849b 42bd e3fa cb3d df57 9d3d
00000170: d7b2 22bd 6278 e3bb 789f 913d 84a8 4ebd
00000180: a88d 18bc dd18 123d e1c5 04be 9443 93bd
00000190: d9da 7d3d 53cb d93d f9e5 8fbd 143b adbc
000001a0: 59c5 c9bd 6087 4b3c 976b 94bd a839 58bd
000001b0: 9425 bdbd 162e f6ba 63be 7e3d 6dcb c8bd
000001c0: 389f 4fba 6514 97bd 98a9 6e3d 0695 19bd
000001d0: 0614 51bc c0cd 54bd fba5 753d 2477 003d
000001e0: 3eb4 b6bd 6241 a33d 609c 963d 994f c1bd
000001f0: 96d0 08be c129 20be 9536 893d 0f94 443c
00000200: 98fe 8abd bd85 b2bd be75 aabd e053 e0bb
00000210: de5e 96bc 0ef2 663d 20ed a4bc 0323 f1bd
00000220: 6677 cfbd 5bdb 03be 0613 b0bd 380c d2bc
00000230: 6087 ad3d 236a 933d 3d4f f93c 000d 62bd
00000240: 67a1 0f3b bc92 e5bd 325e 0abd 76b2 e13c
00000250: 4700 95bd c6f7 01bd 29e3 04bd 1077 44bd
00000260: 151c c53b 0f3a bc3c ea0f 893d b0d7 3e3e
00000270: 9f1f 9a3c df18 1d3d 9b99 363d 368b 2abd
00000280: 555d c3bd 480e 123d 502b 623d 2162 273d
00000290: 0fdf 263b a2d1 823c 6330 49bd e32a 9a3d
000002a0: f3e3 d83b f42e 96bd 12a5 1dbd 3e4b 97bc
000002b0: 92e1 7bbd 2659 593c 46bd 8bbd 4a38 333c
000002c0: 6fcf 6d3d 437a 883d 8209 2cbc c7cb 623d
000002d0: c9d0 953c 71f5 0c3c 4f94 b23d c924 cebd
000002e0: 194c 4e3d 7e27 983b e531 09bd bfca 93bd
000002f0: 6dcd b2bd 88c9 093d 911b c5bc 2532 84bd
00000300: 5e2a 853d 7ce8 8b3d 7086 c93c b6b5 af3d
00000310: 85db 0ebd 9f23 aebc 1094 db3d 8a15 8e3c
00000320: 1a39 27be d943 d33c 84b0 e33d a5ff 703d
00000330: c8ec e03d b89b c83c 7ad9 60bd 6753 d9bc
00000340: e98d b13c 27b6 9e3d e51f ba3d 3286 90bd
00000350: 91dc 80bd e02e 02bd e10a 823d 1a80 4ebd
00000360: df15 09bd 7197 d0bd 10f6 1abd 57e2 f83b
00000370: 98f3 133d 9325 b8bd e1bd 873d 392d f73a
00000380: 239a 353d 5ffe 4f3c bdd4 e53d 516d 74bd
00000390: 7e1b 893c e50c 40bd 74db e9bd 371b 3ebd
000003a0: 78f9 893d 5790 0e3d e32a a8bc a804 cb3d
000003b0: c415 cebd d2e9 ae3d fdf0 99bd 3a41 92bd
000003c0: 293f c5bc d91b 9a3d b700 1fbc e66d e93d
000003d0: c143 cfbb 9e99 0fbc 6191 3b3d 0c74 3b3d
000003e0: 7b70 0dbe dbd5 073d 239a 3cbd f5c3 2cbe
000003f0: 237c bf3d faa8 1dbc ecf9 993d fb54 133d

conv3.bias f4 [64]
-0.10460335 0.09534427 0.11135563 -0.046491686 0.06460017 -0.099739596 0.09680235 0.27442455
0.089624755 -0.30549556 0.07902809 -0.21577565 -0.049621012 -0.101377055 -0.34696126 -0.3407002
-0.22488777 0.21867028 -0.008628009 -0.053957544 0.07074796 -0.07699703 -0.100224964 -0.0065307156
-0.04914732 0.33546698 -0.098737076 -0.23312569 -0.080793716 0.004008795 -0.074824624 0.2664677
0.09288438 -0.12921362 0.2752159 -0.25802067 -0.11471534 0.12355037 -0.21118467 -0.060686473
-0.22776872 0.1456623 -0.05342761 -0.05702247 -0.1834666 -0.12566502 0.01686726 -0.06226192
0.07705005 -0.05577625 -0.1523304 -0.0214628 0.27545282 0.06077034 -0.30040488 -0.12054946
-0.34487373 -0.02270601 -0.06010037 0.39309084 0.11989905 -0.11472212 0.29806963 -0.02389909
00000000: 483a d6bd db43 c33d 6c0e e43d 116e 3ebd
00000010: 184d 843d 4644 ccbd 4f40 c63d 6081 8c3e
00000020: 2f8d b73d ea69 9cbe 7bd9 a13d 4bf4 5cbe
00000030: 673f 4bbd c69e cfbd e8a4 b1be 4270 aebe
00000040: fb48 66be 1aeb 5f3e 7e5c 0dbc 9602 5dbd
00000050: 4ee4 903d 9eb0 9dbd bf42 cdbd 9dff d5bb
00000060: b34e 49bd 54c2 ab3e aa36 cabd 80b8 6ebe
00000070: 2d77 a5bd 365c 833b a73d 99bd 746e 883e
00000080: 2a3a be3d 9350 04be 19e9 8c3e 491b 84be
00000090: e0ef eabd fa07 fd3d cb40 58be 6192 78bd
000000a0: 343c 69be 7f28 153e e9d6 5abd 6590 69bd
000000b0: abde 3bbe 55ae 00be 352d 8a3c 5b06 7fbd
000000c0: 6bcc 9d3d a375 64bd 80fc 1bbe c1d2 afbc
000000d0: 2708 8d3e 52ea 783d abce 99be a3e2 f6bd
000000e0: 4a93 b0be f401 babc ce2b 76bd 3443 c93e
000000f0: a28d f53d 6ef3 eabd 959c 983e 06c8 c3bc

conv4.weight f4 [128, 64, 3]
-0.004834449 -0.011869546 0.037112955 0.04179997 0.042632293 0.027973806 0.03986214 0.0666281
-0.009716789 -0.030850608 0.052752033 0.059251107 0.041815 0.06598681 -0.09489215 -0.049151674
-0.020552725 -0.034291834 -0.013118803 -0.015892707 0.059433207 0.0051381118 0.04331277 -0.08505305
0.050759044 -0.008151469 0.11072037 -0.042935736 0.036366895 0.04327687 -0.03926029 0.06756673
-0.0127861565 0.019676993 -0.005394376 -0.0043839146 0.0062004374 -0.07744507 -0.0003322587 -0.0873183
-0.08316605 0.120663755 -0.029968968 -0.036327012 0.042163223 -0.055669464 0.02144946 0.017322691
0.06257124 0.012216249 0.014146252 0.07662285 -0.062038124 0.060844786 -0.032143787 -0.061501317
0.038028035 -0.028175503 -0.024343386 0.00037870836 -0.015966855 -0.0026509995 0.046605613 0.073416695
0.06417006 -0.04531628 0.008442941 -0.03413123 -0.02928793 -0.054206524 -0.004883153 0.002476058
-0.009937793 0.054114044 0.057592046 -0.021688377 -0.059355866 -0.06824239 0.010653106 0.0018386635
-0.046649605 -0.032653093 0.044203956 0.03557337 0.045255397 -0.043627527 0.052735068 -0.041993022
0.044046633 0.08599686 -0.03438957 -0.07867491 0.18030159 -0.058369216 0.020675577 0.048129305
0.04166091 0.006130327 -0.04586562 -0.037583884 0.031458247 0.086204775 -0.013601189 0.04465891
0.020255957 0.07964465 0.054451913 0.06951273 -0.046699774 -0.051172204 -0.055369195 0.051893692
0.030145824 -0.06733821 0.019502053 -0.00994778 0.05548696 -0.025074182 -0.014663538 0.054492924
-0.008332794 0.061647557 0.08870276 -0.04276866 -0.051350113 -0.0060075927 -0.06457887 -0.031089574
0.043542568 -0.031878855 -0.01614936 0.012113047 -0.014618028 -0.013945246 0.06395651 0.07803313
0.0675492 0.018238803 0.013368997 0.043909196 -0.026433067 0.031917002 -0.0728581 -0.046575066
-0.029949643 -0.002715297 -0.10392115 0.042842567 0.037516207 0.03308456 0.07985781 -0.11222254
-0.027434707 0.0310248 0.07760335 -0.02617306 -0.04445989 0.052418556 -0.031666216 -0.058496695
-0.04708876 -0.040227067 -0.03800151 0.02607798 0.086724706 -0.0034066814 -0.034288257 -0.047664788
-0.00468319 0.019631252 0.04138684 -0.06661652 0.038505502 -0.008273035 -0.02483571 0.030277573
0.0380475 0.0075695817 -0.021797372 0.027504738 -0.036800474 -0.022048516 -0.12538122 -0.006107673
-0.05436096 0.048066106 0.00022759188 0.011059257 -0.009638832 0.053949226 0.0060400143 -0.06484012
-0.008834975 -0.020753907 0.007706087 0.06640321 -0.0041812626 -0.021439165 -0.041652605 0.028799614
-0.057983924 -0.009068208 -0.030376187 0.05002332 0.024353914 0.05601339 -0.09754846 -0.029672423
-0.022393351 -0.016513305 -0.05925998 0.0010717724 -0.018382208 -0.026885912 -0.051785894 -0.06587197
0.023035863 -0.067077905 0.15902434 -0.03317089 -0.034177404 0.047230296 0.061840013 -0.03620961
0.029248485 0.045575745 0.04946621 0.044797212 -0.038678516 0.02786061 0.021014357 0.023590917
-0.09813425 0.044082757 -0.034918867 -0.003337262 -0.01602639 0.011788912 -0.06189076 0.024857095
0.025335792 -0.08430724 0.11136944 0.026361598 -0.06064712 -0.007954137 -0.032311298 0.044246785
-0.050420437 -0.07099528 -0.03279907 0.08095746 -0.0024051487 -0.03888533 0.079990424 0.0751918
00000000: 4c6a 9ebb 7c78 42bc c103 183d 7236 2b3d
00000010: 339f 2e3d 5329 e53c 7c46 233d 5074 883d
00000020: 2b33 1fbc 6aba fcbc 8412 583d 4ab1 723d
00000030: 3546 2b3d 1824 873d d156 c2bd 4453 49bd
00000040: 305e a8bc 9875 0cbd 3ff0 56bc 6c31 82bc
00000050: 3c70 733d 9b5d a83b bb68 313d 4b30 aebd
00000060: b7e8 4f3d bd8d 05bc 5dc1 e23d 62dd 2fbd
00000070: 74f5 143d 1643 313d 66cf 20bd 6d60 8a3d
00000080: 077d 51bc a531 a13c 4ec3 b0bb f1a6 8fbb
00000090: 0a2d cb3b 859b 9ebd 0233 aeb9 f0d3 b2bd
000000a0: f652 aabd 8f1e f73d 7b81 f5bc a2cb 14bd
000000b0: 58b3 2c3d aa05 64bd c7b6 af3c 51e8 8d3c
000000c0: 5a25 803d a926 483c aec5 673c 71ec 9c3d
000000d0: b01b 7ebd 6238 793d 34a9 03bd cee8 7bbd
000000e0: 49c3 1b3d 50d0 e6bc c86b c7bc 608d c639
000000f0: eccc 82bc 64bc 2dbb 87e5 3e3d 7e5b 963d
00000100: 986b 833d 909d 39bd 4354 0a3c 30cd 0bbd
00000110: 3eed efbc a907 5ebd db02 a0bb 5c45 223b
00000120: 20d2 22bc b0a6 5d3d a3e5 6b3d d3ab b1bc
00000130: 231f 73bd abc2 8bbd 5d8a 2e3c 4fff f03a
00000140: a813 3fbd 40bf 05bd 350f 353d 62b5 113d
00000150: b95d 393d c7b2 32bd ba00 583d e000 2cbd
00000160: 3e6a 343d 1f1f b03d 14dc 0cbd 5020 a1bd
00000170: fba0 383e 8f14 6fbd d45f a93c 3c23 453d
00000180: a1a4 2a3d e9e0 c83b 97dd 3bbd 8ff1 19bd
00000190: 5dda 003d 218c b03d 85d7 5ebc 43ec 363d
000001a0: d2ef a53c bc1c a33d f808 5f3d b15c 8e3d
000001b0: 4348 3fbd f299 51bd cfca 62bd 7b8e 543d
000001c0: 60f4 f63c 9ee8 89bd c5c2 9f3c 03fc 22bc
000001d0: 4b46 633d 5f68 cdbc 563f 70bc f933 5f3d
000001e0: 4586 08bc 2682 7c3d cba9 b53d 312e 2fbd
000001f0: 7f54 52bd 57db c4bb ed41 84bd 90af febc
00000200: b159 323d 6793 02bd aa4b 84bc cd75 463c
00000210: 7480 6fbc 9a7a 64bc a1fb 823d d5cf 9f3d
00000220: 3c57 8a3d 8b69 953c a309 5b3c 21da 333d
00000230: 298a d8bc 67bb 023d a136 95bd 7fc5 3ebd
00000240: f458 f5bc 20f3 31bb 9dd4 d4bd b07b 2f3d
00000250: 98aa 193d ad83 073d 7e8c a33d eed4 e5bd
00000260: c0be e0bc b927 fe3c 81ee 9e3d e368 d6bc
00000270: 931b 36bd d7b4 563d 6fb4 01bd 3b9a 6fbd
00000280: 25e0 40bd 23c5 24bd 79a7 1bbd 7da1 d53c
00000290: b99c b13d a142 5fbb d871 0cbd 273c 43bd
000002a0: 7275 99bb b8d1 a03c 3f85 293d 3e6e 88bd
000002b0: f2b7 1d3d a08b 07bc 4274 cbbc ac08 f83c
000002c0: b2d7 1b3d 410a f83b 6790 b2bc 9e51 e13c
000002d0: 18bc 16bd 179f b4bc ef63 00be e022 c8bb
000002e0: 99a9 5ebd f7e0 443d bba5 6e39 e331 353c
000002f0: 31ec 1dbc ddf9 5c3d 50eb c53b e6ca 84bd
00000300: 92c0 10bc 1904 aabc 5883 fc3b 68fe 873d
00000310: f902 89bb 30a1 afbc ec9b 2abd 2bed eb3c
00000320: 8d80 6dbd d292 14bc 7bd7 f8bc 41e5 4c3d
00000330: dc81 c73c 4c6e 653d 7dc7 c7bd 9513 f3bc
00000340: 4372 b7bc e946 87bc 98ba 72bd b77a 8c3a
00000350: 4996 96bc d83f dcbc 721d 54bd e2e7 86bd
00000360: b5b5 bc3c 2460 89bd 47d7 223e 33de 07bd
00000370: 9bfd 0bbd 8e74 413d f44b 7d3d 8750 14bd
00000380: 859a ef3c a2ad 3a3d 159d 4a3d 487d 373d
00000390: 5d6d 1ebd ef3b e43c 4d26 ac3c bd41 c13c
000003a0: 9cfa c8bd 1f90 343d 1607 0fbd f7b5 5abb
000003b0: c749 83bc 4826 413c 2a81 7dbd 1ba1 cb3c
000003c0: 028d cf3c 46a9 acbd a915 e43d 47f4 d73c
000003d0: 1d69 78bd 1252 02bc da58 04bd 1e3c 353d
000003e0: a985 4ebd f965 91bd 5158 06bd 06cd a53d
000003f0: b39f 1dbb 3946 1fbd 05d2 a33d 29fe 993d

conv4.bias f4 [128]
-0.12268745 -0.16775066 -0.15534961 -0.23240396 -0.13723789 0.09766968 -0.13192649 -0.18786365
0.17446452 -0.23856582 -0.18563822 -0.06586044 -0.008626326 -0.12804784 0.16369633 -0.19243073
-0.10162972 -0.14267087 -0.15772863 -0.20551066 -0.09377314 -0.14379789 -0.15873419 -0.15969636
0.048510473 -0.14116329 0.100282446 -0.12851833 -0.15231922 0.0984169 -0.18091668 -0.143167
0.005805345 -0.18609807 0.11253042 -0.1116796 0.05372733 -0.11898053 -0.19801769 -0.17764921
0.055026166 0.11318282 0.10311688 -0.24352881 -0.13521074 0.122366495 -0.14147738 0.018604057
-0.20842917 -0.1901276 0.019597957 -0.14834476 -0.116896346 -0.24222994 0.11575515 -0.17677279
-0.18742128 -0.16369274 -0.14296389 -0.2074432 -0.111308515 -0.20314169 0.098590605 -0.11778948
-0.16409756 0.05173935 0.05391559 0.05298513 -0.06950858 -0.09320291 0.10659062 0.049921308
0.04327896 0.15921514 0.12942773 0.045268167 0.071038194 0.017550627 0.13991375 0.079050705
-0.10483223 0.16863866 0.14737853 0.039788082 0.119962804 -0.23320052 0.023883909 -0.16607018
-0.22072174 -0.1440431 0.12618808 -0.24111392 -0.19050246 -0.122065455 -0.19911285 -0.19302689
0.1381488 0.20686081 -0.12198361 0.055091478 -0.1645798 -0.1319925 -0.1203194 0.142206
-0.074557744 -0.16999514 -0.18059666 -0.043037456 -0.20751695 0.06365941 -0.19359545 -0.22418301
0.10585958 -0.11266215 0.1125441 -0.12899989 0.038961183 0.058456667 -0.12303915 -0.17259954
-0.07658313 -0.18701358 -0.15930986 -0.19637638 0.143685 -0.25817737 -0.19920982 -0.21237284
00000000: 8f43 fbbd d4c6 2bbe f813 1fbe 4efb 6dbe
00000010: 1788 0cbe 0b07 c83d bd17 07be 545f 40be
00000020: d4a6 323e 994a 74be f217 3ebe d7e1 86bd
00000030: 6f55 0dbc f91e 03be 03a0 273e 900c 45be
00000040: 3e23 d0bd 5018 12be 9d83 21be 6371 52be
00000050: 220c c0bd c13f 13be 378b 22be 7187 23be
00000060: ebb2 463d 1c8d 10be e260 cd3d 4f9a 03be
00000070: 92f9 1bbe cd8e c93d 3942 39be 5f9a 12be
00000080: c33a be3b 7e90 3ebe 5976 e63d 46b8 e4bd
00000090: 3011 5c3d 10ac f3bd 26c5 4abe ade9 35be
000000a0: 1e63 613d 65cc e73d f12e d33d 9e5f 79be
000000b0: af74 0abe 499b fa3d 72df 10be 8967 983c
000000c0: 756e 55be cfb0 42be e58b a03c b0e7 17be
000000d0: 5a67 efbd 200b 78be 0911 ed3d ed03 35be
000000e0: 5deb 3fbe 129f 27be 2065 12be fd6b 54be
000000f0: b8f5 e3bd 6004 50be dfe9 c93d 9c3b f1bd
00000100: 3109 28be a4ec 533d 98d6 5c3d f006 593d
00000110: 845a 8ebd 2be1 bebd 2f4c da3d 497a 4c3d
00000120: 4745 313d 4b09 233e b488 043e 1d6b 393d
00000130: 797c 913d 55c6 8f3c 8d45 0f3e 56e5 a13d
00000140: 48b2 d6bd 9daf 2c3e 66ea 163e d4f8 223d
00000150: 0faf f53d 1ecc 6ebe 30a8 c33c 4d0e 2abe
00000160: e104 62be 0980 13be 7337 013e 91e6 76be
00000170: 1413 43be 74fd f9bd 3de4 4bbe d7a8 45be
00000180: e176 0d3e 52d3 533e 8bd2 f9bd 9aa7 613d
00000190: 9b87 28be 0b29 07be 056a f6bd 739e 113e
000001a0: bbb1 98bd 3513 2ebe 55ee 38be 0b48 30bd
000001b0: 537f 54be dd5f 823d e33d 46be 3b90 65be
000001c0: e8cc d83d 6abb e6bd 857d e63d 8c18 04be
000001d0: c395 1f3d 4270 6f3d f3fb fbbd efbd 30be
000001e0: 9ed7 9cbd 7d80 3fbe 2022 23be e416 49be
000001f0: 2922 133e d32f 84be a9fd 4bbe 4478 59be

fc1.weight f4 [32, 128]
-0.061381232 -0.12432625 -0.0011649205 -0.082317896 -0.097260155 0.069831744 0.012530296 0.0074766744
0.10135263 0.026472531 -0.018300734 -0.071271606 -0.024284482 0.011481393 0.12899312 -0.0067204707
-0.11778159 -0.0009874216 -0.11469653 -0.01091036 -0.016209163 -0.018205483 -0.112316325 0.031750742
0.09467974 -0.02205442 0.17536436 -0.055078883 0.022092257 0.037827916 -0.07553192 0.017383995
0.1677614 0.031682152 0.08495102 -0.07643415 0.14682856 -0.10576284 0.010822566 -0.012203197
0.13248229 0.061537158 0.07576625 -0.06164119 -0.07195953 0.1539098 0.021167878 0.09072446
0.013962541 -0.0038933374 -0.02279517 -0.043771584 -0.106802255 -0.07795332 0.12582435 -0.08699137
-0.09707865 -0.09992187 -0.032662194 -0.1034001 -0.0667217 -0.08559791 0.09452158 0.02091268
-0.05137336 0.04602671 0.20790197 0.04277324 -0.044640537 -0.040419683 0.07848922 0.057890337
0.042566825 0.1282762 0.14334224 0.049645506 0.057326827 0.13229646 0.028499808 0.10237327
-0.119132236 0.07787626 0.09208244 -0.038357347 0.14117105 -0.10390271 0.03058448 -0.08081667
-0.037743818 -0.06749164 0.12972094 0.0063538635 -0.05720028 -0.09129148 0.013354569 -0.005575945
0.053550415 0.14146583 -0.10742403 0.022493651 0.010371494 -0.03484127 -0.023909241 0.13031133
-0.12075349 -0.030896176 -0.033325873 -0.024613654 -0.09748604 0.06345211 0.0029079055 0.009457502
0.07368663 -0.019091198 0.11233241 0.013127509 0.02080669 0.07304204 -0.09362126 -0.09671656
-0.048923716 -0.10718395 -0.11284469 -0.10512876 0.14591119 -0.042589616 -0.0003681749 -0.034839436
0.060149483 0.020160824 0.04639844 0.022027899 0.049250636 -0.14855057 0.10101353 0.071464494
-0.12130249 0.002698258 -0.045049228 0.019315151 0.07800585 0.06898674 -0.10761807 0.08303333
0.022750964 0.08718452 0.10565335 0.11621219 0.12300782 0.11960533 -0.041326262 -0.014787793
-0.08166984 0.038566824 -0.07217948 0.02463237 0.07419586 -0.1274866 -0.017872006 0.09419688
-0.1411549 0.086401306 -0.024567602 0.05504552 -0.14463708 0.062468767 0.053662434 0.048093706
-0.06349093 -0.078954674 -0.09720295 0.09582833 0.0053546163 -0.020152288 -0.013442492 0.008522135
0.07259157 -0.029447474 -0.0493742 0.060681313 0.09522877 0.096328154 -0.15137056 0.0048353192
-0.004568656 0.013246366 -0.047142807 0.09169131 0.09535586 0.054561935 -0.03003284 0.07897981
0.015866112 -0.036296155 -0.08351028 -0.086149484 -0.046626452 0.0930666 -0.14005302 -0.15188555
0.03273504 -0.15737839 -0.058711577 -0.098253034 -0.099551626 -0.13988246 -0.08933369 -0.13955721
0.08946883 -0.0156394 -0.088070355 -0.06859659 -0.12354874 -0.024926202 -0.10903609 0.047563203
0.08930407 0.110775135 -0.1489429 0.046496455 0.105468534 0.044348743 0.027180444 0.03796383
-0.12233537 -0.10675538 0.08368941 -0.050489303 0.056127492 -0.018700488 0.031187467 -0.15413962
-0.016935134 0.028319841 0.0233451 -0.0048544663 -0.0044170325 -0.12790637 0.020360826 0.058794957
-0.1273475 0.0499885 -0.09140568 0.09807913 -0.14977954 -0.10890964 -0.020524798 0.024801796
-0.015874188 0.12502486 0.049266513 -0.04598463 -0.052656762 -0.034141026 -0.014557582 -0.0005382492
00000000: e36a 7bbd c39e febd 3fb0 98ba 4996 a8bd
00000010: 5530 c7bd f203 8f3d df4b 4d3c e4fe f43b
00000020: f891 cf3d ecdc d83c 6ceb 95bc d9f6 91bd
00000030: 40f0 c6bc 741c 3c3c c616 043e 6537 dcbb
00000040: 7937 f1bd 5f6c 81ba 04e6 eabd 5ec1 32bc
00000050: 14c9 84bc aa23 95bc 1a06 e6bd 110d 023d
00000060: 74e7 c13d 79ab b4bc b792 333e 659a 61bd
00000070: d2fa b43c 72f1 1a3d 7bb0 9abd e168 8e3c
00000080: a5c9 2b3e 25c5 013d cdfa ad3d 8289 9cbd
00000090: 3a5a 163e 309a d8bd 2251 313c ebef 47bc
000000a0: 70a9 073e 630e 7c3d 562b 9b3d 797b 7cbd
000000b0: 855f 93bd 889a 1d3e 4268 ad3c bfcd b93d
000000c0: 24c3 643c 5d27 7fbb f0bc babc d549 33bd
000000d0: 24bb dabd fea5 9fbd 19d8 003e 8828 b2bd
000000e0: 2cd1 c6bd d6a3 ccbd cbc8 05bd 6ec3 d3bd
000000f0: 63a5 88bd f54d afbd 8894 c13d 1251 ab3c
00000100: df6c 52bd 8186 3c3d 41e4 543e fe32 2f3d
00000110: ffd8 36bd 1c8f 25bd f5be a03d 6b1e 6d3d
00000120: 8d5a 2e3d d65a 033e 4fc8 123e 1659 4b3d
00000130: 89cf 6a3d b978 073e 6e78 e93c 14a9 d13d
00000140: 9afb f3bd 977d 9f3d b895 bc3d 981c 1dbd
00000150: 258f 103e f2ca d4bd 4e8c fa3c 3683 a5bd
00000160: 4399 1abd 0f39 8abd 91d5 043e 1234 d03b
00000170: d74a 6abd 07f7 babd 1fcd 5a3c 6bb6 b6bb
00000180: ae57 5b3d 6bdc 103e 2101 dcbd 9b44 b83c
00000190: 33ed 293c b8b5 0ebd 50dd c3bc 5570 053e
000001a0: 9b4d f7bd fa19 fdbc b680 08bd 93a2 c9bc
000001b0: c3a6 c7bd 2ef3 813d 8f92 3e3b a3f3 1a3c
000001c0: 04e9 963d 2565 9cbc 890e e63d c314 573c
000001d0: cb72 aa3c 1197 953d 81bc bfbd 5513 c6bd
000001e0: 3c64 48bd 4283 dbbd 1e1b e7bd bf4d d7bd
000001f0: be69 153e 7372 2ebd 9907 c1b9 ccb3 0ebd
00000200: 4e5f 763d 5028 a53c 4a0c 3e3d da73 b43c
00000210: 09bb 493d a41d 18be 2ee0 ce3d fa5b 923d
00000220: 716d f8bd 42d5 303b 8a85 38bd cf3a 9e3c
00000230: 88c1 9f3d ec48 8d3d dd66 dcbd 610d aa3d
00000240: 3b60 ba3c cc8d b23d c960 d83d a800 ee3d
00000250: 86eb fb3d a4f3 f43d ba45 29bd 8048 72bc
00000260: 8442 a7bd 3ff8 1d3d d6d2 93bd d3c9 c93c
00000270: 00f4 973d d98b 02be 5068 92bc 4bea c03d
00000280: e98a 10be 2bf3 b03d ff41 c9bc 6977 613d
00000290: be1b 14be 40df 7f3d 24cd 5b3d e8fd 443d
000002a0: 8807 82bd fdb2 a1bd 5712 c7bd a541 c43d
000002b0: c775 af3b 6916 a5bc e63d 5cbc 6da0 0b3c
000002c0: e4aa 943d d43b f1bc 9a3c 4abd f88c 783d
000002d0: 4d07 c33d b247 c53d e200 1bbe 9971 9e3b
000002e0: aab4 95bb 4907 593c d118 41bd a7c8 bb3d
000002f0: ef49 c33d 567c 5f3d 6e07 f6bc 2bc0 a13d
00000300: a6f9 813c 47ab 14bd 7007 abbd 246f b0bd
00000310: 61fb 3ebd b499 be3d 0f6a 0fbe e387 1bbe
00000320: 2d15 063d cd27 21be 8d7b 70bd e338 c9bd
00000330: b9e1 cbbd 593d 0fbe 95f4 b6bd 16e8 0ebe
00000340: 6f3b b73d 331e 80bc 3b5e b4bd 5e7c 8cbd
00000350: 1f07 fdbd 0932 ccbc 504e dfbd a2d1 423d
00000360: 0de5 b63d 13de e23d 7d84 18be 1173 3e3d
00000370: e3ff d73d 07a7 353d 86a9 de3c f67f 1b3d
00000380: f78a fabd 91a2 dabd 5a65 ab3d dfcd 4ebd
00000390: f1e5 653d c431 99bc dc7c ff3c c7d6 1dbe
000003a0: 8dbb 8abc 03ff e73c 393e bf3c 3712 9fbb
000003b0: c1bc 90bb e3f9 02be bfcb a63c fbd2 703d
000003c0: 6267 02be bec0 4c3d e732 bbbd b6dd c83d
000003d0: cf5f 19be 040c dfbd 9f23 a8bc 232d cb3c
000003e0: 960a 82bc 8406 003e afcb 493d 615a 3cbd
000003f0: 9eae 57bd 76d7 0bbd ed82 6ebc 4b19 0dba

fc1.bias f4 [32]
-0.13054149 0.07301693 -0.10269675 0.09144317 0.10419176 -0.028299307 0.14733568 -0.08938105
0.031044928 0.016920721 -0.08669298 0.0066766487 0.12686267 0.051035102 -0.08731231 -0.038593892
0.016379917 0.051325448 0.059053607 -0.010473738 0.037554376 0.010176639 -0.05498445 0.098507635
-0.03158138 -0.08758313 0.0092538 -0.009597819 -0.076207735 -0.073253095 0.0149772875 -0.0643771
00000000: abac 05be e689 953d ac52 d2bd 8f46 bb3d
00000010: 7d62 d53d f3d3 e7bc 2adf 163e 690d b7bd
00000020: ef51 fe3c 539d 8a3c 178c b1bd cac7 da3b
00000030: 4ae8 013e 2f0a 513d ccd0 b2bd a114 1ebd
00000040: 2d2f 863c a23a 523d 32e2 713d 0b9a 2bbc
00000050: 9ed2 193d ebbb 263c 6037 61bd 5fbe c93d
00000060: 7a5b 01bd c95e b3bd 409d 173c 2c40 1dbc
00000070: cd12 9cbd b805 96bd 4c63 753c 24d8 83bd

fc2.weight f4 [1, 32]
0.14684542 -0.16025545 0.108467005 -0.19815974 -0.10606333 0.21132542 -0.14620343 0.08868071
-0.21575794 -0.19585983 0.20915632 0.12476446 -0.1018622 -0.17769267 0.12294175 0.16841261
0.12953383 -0.12813014 -0.09419924 0.13054308 -0.17122363 -0.18586543 0.2020303 -0.13442844
0.15921247 0.18214007 0.1002148 0.21128874 0.09746934 0.18723425 -0.1776901 0.1582459
00000000: a55e 163e 011a 24be f323 de3d 63ea 4abe
00000010: bb37 d9bd b165 583e 5ab6 15be 3b9e b53d
00000020: a6ef 5cbe 7b8f 48be 132d 563e 8284 ff3d
00000030: 219d d0bd 11f5 35be e2c8 fb3d 5b74 2c3e
00000040: 84a4 043e 8c34 03be 88eb c0bd 16ad 053e
00000050: 3f55 2fbe 8253 3ebe 08e1 4e3e 9ca7 09be
00000060: 9808 233e ed82 3a3e 6b3d cd3d 135c 583e
00000070: 019e c73d 56ba 3f3e 65f4 35be 370b 223e

exp_avg f4 [16, 1, 3]
-0.57758105 -0.7052995 -0.568194 0.4440873 -0.024274535 -0.1545303 -0.15582278 -0.16554955
-0.09254199 -0.28970712 -0.41445342 -0.5352307 -0.037735157 -0.14586923 -0.07477709 -2.4696512
-2.618553 -0.06408733 -1.9841913 -2.1535916 -0.83160245 -0.08535284 -0.28336844 -0.2802756
-0.82704 -1.0171475 -0.77564585 -1.0446922 -1.2051347 -1.2219009 -3.3658094 -3.4966214
-0.058465794 -0.02794466 -0.29438677 -0.4846521 0.5928925 0.3153753 -0.21440387 0.2617587
0.092779495 -0.12747428 -0.08091785 -0.08177664 -0.064867996 1.6200958 1.406923 -0.19474211
00000000: 5adc 13bf 828e 34bf 2975 11bf 695f e33e
00000010: 64db c6bc 313d 1ebe 0290 1fbe d285 29be
00000020: a886 bdbd 7e54 94be 3d33 d4be e104 09bf
00000030: 2e90 1abd be5e 15be bb24 99bd c40e 1ec0
00000040: 5f96 27c0 3840 83bd fbf9 fdbf 72d4 09c0
00000050: e6e3 54bf 78cd aebd ab15 91be 4980 8fbe
00000060: e5b8 53bf e431 82bf ba90 46bf 79b8 85bf
00000070: db41 9abf 4067 9cbf 6c69 57c0 a5c8 5fc0
00000080: d479 6fbd 33ec e4bc ddb9 96be 5224 f8be
00000090: cec7 173f df78 a13e b08c 5bbe 3c05 863e
000000a0: 2d03 be3d 9e88 02be 42b8 a5bd 837a a7bd
000000b0: 83d9 84bd 4d5f cf3f 0e16 b43f 7a6a 47be

exp_avg_sq f4 [16, 1, 3]
87.39385 101.9447 33.290657 8.990735 2.9750755 0.6336782 1.2650247 1.2747519
1.1091337 44.11575 46.373116 45.17529 8.96199 12.83787 17.215803 1066.2396
1106.8221 0.888779 735.804 786.43134 129.85753 0.34857425 1.0304835 3.2013652
99.013725 101.39353 107.26951 239.43042 240.91908 240.97894 1529.4683 1567.6544
2.221318 38.23234 54.58155 60.587048 21.664715 13.484177 1.2924427 4.611073
5.511615 5.678874 0.49703634 0.5822267 0.33153918 81.9855 61.1141 0.73444057
00000000: a7c9 ae42 b0e3 cb42 a229 0542 0dda 0f41
00000010: a367 3e40 bc38 223f 54ec a13f 122b a33f
00000020: 18f8 8d3f 8776 3042 127e 3942 7fb3 3442
00000030: 5064 0f41 ea67 4d41 f7b9 8941 ab47 8544
00000040: 4f5a 8a44 0587 633f 75f3 3744 9b9b 4444
00000050: 87db 0143 5378 b23e e2e6 833f 2be3 4c40
00000060: 0707 c642 7dc9 ca42 fd89 d642 306e 6f43
00000070: 49eb 7043 9cfa 7043 fc2e bf44 f1f4 c344
00000080: 132a 0e40 ebed 1842 8253 5a42 2359 7242
00000090: 5651 ad41 30bf 5741 c36e a53f e98d 9340
000000a0: 265f b040 56b9 b540 8c7b fe3e cf0c 153f
000000b0: 81bf a93e 93f8 a342 d774 7442 4c04 3c3f

exp_avg f4 [16]
0.02442401 -0.044582576 -0.0359723 0.012386782 0.0016616733 0.093952656 0.061814483 -0.009561406
0.033010364 0.026446123 0.14377348 0.033941764 -0.047633007 0.021349609 -0.015601251 -0.07312078
00000000: dd14 c83c 389c 36bd b157 13bd eef1 4a3c
00000010: 81cc d93a 406a c03d 2f31 7d3d 72a7 1cbc
00000020: e035 073d 8aa5 d83c 5b39 133e 8506 0b3d
00000030: d41a 43bd 60e5 ae3c 649c 7fbc 59c0 95bd

exp_avg_sq f4 [16]
0.018558988 0.025644286 0.0076375846 0.011074126 0.0029706114 0.20445053 0.15238765 0.001054634
0.0220929 0.04863308 0.3058406 0.0120502915 0.052799396 0.0048195994 0.0008463209 0.06486242
00000000: 0509 983c f713 d23c b444 fa3b 4070 353c
00000010: 97ae 423b 7b5b 513e 820b 1c3e a53b 8a3a
00000020: 2bfc b43c 7b33 473d 2497 9c3e 966e 453c
00000030: 2e44 583d bbed 9d3b a2db 5d3a 97d6 843d

exp_avg f4 [32, 16, 3]
-0.109584436 -0.07387917 -0.07114618 -0.06814388 -0.12636223 -0.24183796 -0.04777163 -0.12772997
-0.22493057 -0.26874524 -0.26594582 -0.21770835 -0.053515807 -0.040556896 -0.07411115 -0.07035345
-0.056552637 -0.111422025 -0.08395948 -0.0446749 -0.12832196 -0.07850563 -0.045813035 -0.16807646
-0.23699693 -0.24715552 -0.19426183 -0.17971765 -0.15681154 -0.11855885 -0.04287704 -0.059274875
-0.19985959 -0.09169856 -0.035171766 -0.03702897 -0.058075678 -0.14501232 -0.23841058 -0.06006429
-0.039579574 -0.05471799 -0.025191212 -0.09126546 -0.14706695 -0.064523675 -0.15544268 -0.25875875
0.14772148 0.13802686 0.18762559 0.18619448 0.18394615 0.15398307 0.27860394 0.31233183
0.2660436 0.50342923 0.4794558 0.52911866 0.07686214 0.107602015 0.17372912 0.121889815
0.11906549 0.18403156 0.122588485 0.08673271 0.19410662 0.15677658 0.19237772 0.21911135
0.44285005 0.4410586 0.49247515 0.2994299 0.27400357 0.22085698 0.07529848 0.09350792
0.22721396 0.082249604 0.081562676 0.15503068 0.2062611 0.21772324 0.17257036 0.07163342
0.08080529 0.16196927 0.2066281 0.23023072 0.18850294 0.22001888 0.23150921 0.18808413
0.084009446 0.13374855 0.15765356 0.12876193 0.05010845 0.014589392 0.16964911 0.12760493
0.005671516 0.34249377 0.42419973 0.47191024 0.025965588 0.15589984 0.054201376 0.05757563
0.037206344 0.12443154 0.07952237 0.054266386 0.17748173 0.07579525 0.16856527 0.013504507
0.29579145 0.40090224 0.4303752 0.2138071 0.18499424 0.20757583 0.060320288 0.020427654
0.1987492 0.027126731 0.11997111 0.08894288 0.14164425 0.0647402 0.010944234 0.032037154
0.12579584 0.078008495 0.13052614 0.08163967 0.0043168827 0.15083821 0.068744875 0.016277805
-0.26941124 -0.24377488 -0.12979682 -0.07535843 -0.20493793 -0.26547801 -0.07686842 -0.20713066
-0.3433236 -0.84361655 -0.7747662 -0.5257409 -0.2115162 -0.06697313 -0.09432294 -0.07982851
-0.175667 -0.20043758 -0.19616581 -0.20809326 -0.19800252 -0.21169466 -0.061781764 -0.19854853
-0.75885415 -0.70966524 -0.45267603 -0.46462014 -0.42118722 -0.2931735 -0.05376987 -0.22517511
-0.2763019 -0.21387209 -0.11052946 -0.0494789 -0.047863226 -0.2379081 -0.27804208 -0.19413947
-0.087084465 -0.07771183 -0.01622718 -0.16201136 -0.25121018 -0.053926125 -0.25602987 -0.30260968
0.18067044 0.27611107 0.27587673 0.14883105 -0.036873896 0.025962256 0.20521036 0.028367491
-0.030633377 0.8613585 0.9199962 0.94358164 0.016318772 0.17055206 0.03956383 0.07150588
0.038189996 0.24042335 0.15391393 0.09862883 0.38085732 0.09366655 0.13810013 -0.05139617
0.7356048 0.8658173 0.84718895 0.5445664 0.43737313 0.39343944 0.051600736 0.005587798
0.47022846 0.004445303 0.18046306 0.10635645 0.16109724 -0.039971028 0.007715538 0.018340304
0.16105445 0.09432576 0.14901176 -0.0038323356 -0.027825153 0.17187871 -0.04172886 0.019551417
0.090617314 0.14168398 0.1498324 0.06640835 -0.021448089 0.013066679 0.0872414 0.00076973945
-0.0143341245 0.42430696 0.47915876 0.5028233 0.02022701 0.09537583 0.026980907 0.030750316
00000000: ce6d e0bd f64d 97bd 17b5 91bd 058f 8bbd
00000010: 1a65 01be 5fa4 77be 2fac 43bd a5cb 02be
00000020: 3354 66be fa98 89be 0d2a 88be f0ee 5ebe
00000030: 6433 5bbd fd1e 26bd 96c7 97bd 7815 90bd
00000040: bda3 67bd 3b31 e4bd f3f2 abbd 07fd 36bd
00000050: d566 03be 8fc7 a0bd 73a6 3bbd 3c1c 2cbe
00000060: 53af 72be 5616 7dbe 93ec 46be e707 38be
00000070: 3493 20be fbce f2bd d69f 2fbd 36ca 72bd
00000080: fea7 4cbe 74cc bbbd 4510 10bd b0ab 17bd
00000090: c3e0 6dbd 1c7e 14be e721 74be f905 76bd
000000a0: 311e 22bd f91f 60bd cd5d cebc 63e9 babd
000000b0: b898 16be fd24 84bd 5e2c 1fbe 077c 84be
000000c0: 4d44 173e ea56 0d3e ec20 403e c4a9 3e3e
000000d0: 615c 3c3e bdad 1d3e 2da5 8e3e f5e9 9f3e
000000e0: de36 883e bde0 003f 3b7b f53e 5274 073f
000000f0: e669 9d3d 725e dc3d 0ce6 313e 5ea1 f93d
00000100: 9cd8 f33d c572 3c3e ac0f fb3d eba0 b13d
00000110: e3c3 463e 0a8a 203e aafe 443e ba5e 603e
00000120: 3ebd e23e 6fd2 e13e b425 fc3e e04e 993e
00000130: 324a 8c3e 5528 623e 1736 9a3d 1581 bf3d
00000140: c7aa 683e 7b72 a83d 550a a73d 5dc0 1e3e
00000150: 1c36 533e d7f2 5e3e 49b6 303e 8bb4 923d
00000160: 3e7d a53d 46db 253e 5196 533e 9ac1 6b3e
00000170: ea06 413e a14c 613e c010 6d3e 2099 403e
00000180: 250d ac3d 61f5 083e ef6f 213e 2bda 033e
00000190: 853e 4d3d 5808 6f3c 7fb8 2d3e deaa 023e
000001a0: 20d8 b93b 585b af3e b530 d93e 389e f13e
000001b0: c9b5 d43c 35a4 1f3e 4302 5e3d 6cd4 6b3d
000001c0: ae65 183d f7d5 fe3d a0dc a23d 6e46 5e3d
000001d0: c5bd 353e 8a3a 9b3d 609c 2c3e 0242 5d3c
000001e0: fa71 973e 0f43 cd3e 235a dc3e 40f0 5a3e
000001f0: 216f 3d3e c28e 543e 6812 773d e557 a73c
00000200: e984 4b3e e138 de3c 6ab3 f53d af27 b63d
00000210: 310b 113e 8396 843d 724f 333c 6439 033d
00000220: a0d0 003e ebc2 9f3d a5a8 053e b332 a73d
00000230: a374 8d3b 5575 1a3e 1dca 8c3d 0859 853c
00000240: 45f0 89be 1fa0 79be 75e9 04be 8555 9abd
00000250: 40db 51be bcec 87be 316d 9dbd 0f1a 54be
00000260: 1cc8 afbe 41f7 57bf 1457 46bf f596 06bf
00000270: b497 58be 3529 89bd 632c c1bd 217d a3bd
00000280: 0de2 33be 823f 4dbe b1df 48be 6616 55be
00000290: 2cc1 4abe 7cc6 58be e00e 7dbd 4e50 4bbe
000002a0: 4444 42bf 9fac 35bf 27c5 e7be b1e2 edbe
000002b0: daa5 d7be d61a 96be cc3d 5cbd 4e94 66be
000002c0: 7177 8dbe 4901 5bbe 455d e2bd 63aa 4abd
000002d0: 3b0c 44bd 2e9e 73be 885b 8ebe 7fcc 46be
000002e0: 5759 b2bd 6127 9fbd ddee 84bc 4ee6 25be
000002f0: 9f9e 80be a4e1 5cbd 5916 83be a8ef 9abe
00000300: ac01 393e 6e5e 8d3e b73f 8d3e 2b67 183e
00000310: 1509 17bd ccae d43c aa22 523e f162 e83c
00000320: d9f2 fabc fe81 5c3f df84 6b3f 918e 713f
00000330: f2ae 853c 33a5 2e3e af0d 223d ad71 923d
00000340: 1d6d 1c3d 8a31 763e 9d9b 1d3e e9fd c93d
00000350: bbff c23e 40d4 bf3d 1f6a 0d3e ca84 52bd
00000360: 9950 3c3f 34a6 5d3f 60e1 583f b468 0b3f
00000370: 5fef df3e e570 c93e 4b5b 533d d919 b73b
00000380: c9c1 f03e e8a9 913b 4fcb 383e 69d1 d93d
00000390: adf6 243e a9b8 23bd a0d2 fc3b 683e 963c
000003a0: 75eb 243e dd2d c13d 8a96 183e ec27 7bbb
000003b0: 93f1 e3bc f900 303e e2eb 2abd 4b2a a03c
000003c0: 9295 b93d 9b15 113e aa6d 193e 1a01 883d
000003d0: e7b3 afbc a015 563c 9eab b23d 57c8 493a
000003e0: add9 6abc c33e d93e 4c54 f53e 07b9 003f
000003f0: 1db3 a53c 6754 c33d 1007 dd3c 16e8 fb3c

exp_avg_sq f4 [32, 16, 3]
0.9572337 1.2078867 1.3005306 0.30154622 0.4615898 0.72754747 1.1645373 1.5002311
2.0768507 15.794754 18.246407 17.42315 0.348533 0.3026775 0.48346186 0.103181556
0.16206482 1.8009224 0.24256897 0.3076287 2.828843 0.40583593 0.33391428 1.1764685
12.695963 14.808233 13.709196 3.910549 4.1600513 4.0752397 0.03561773 0.10220453
5.082155 0.38778773 0.4657926 0.33613634 0.46984023 0.74623144 1.0461019 0.3778725
0.41305098 0.36299217 0.64649415 0.89088607 1.1772306 0.52583843 0.83650184 1.1750382
2.0327337 2.4555264 3.0954955 0.1574128 0.31736857 0.16311494 0.5101151 0.7864095
0.58749366 33.8632 40.12094 42.962807 0.47298548 0.5643561 0.6907705 0.07479445
0.08738612 2.3264775 0.4834968 0.5539024 4.515832 0.26897037 0.35595974 0.62377226
27.391726 32.58332 34.380196 8.1331 9.342234 9.519485 0.040195588 0.06812282
6.5845337 0.649263 0.7468717 0.839422 0.24753447 0.44508168 0.20895167 0.62308097
0.73767114 0.8133914 0.3081562 0.4731871 0.3593248 0.27825573 0.49960566 0.2351127
0.9838853 1.2515104 1.9137892 0.08930682 0.08647431 0.011119918 0.22977553 0.25781986
0.060323894 15.544265 19.67442 21.90995 0.31309792 0.46131375 0.469291 0.033087276
0.022818793 2.2003467 0.20881955 0.24645597 3.381098 0.14416815 0.29744133 0.17580488
12.707776 16.11088 17.944649 3.7044647 4.407642 4.6686907 0.024746876 0.012649062
5.6312118 0.3895901 0.48494443 0.5911864 0.13525997 0.11340562 0.017325647 0.37705505
0.5079328 0.5855969 0.14064132 0.14430523 0.0647488 0.15202567 0.12637885 0.01947418
4.2793384 5.428059 6.773561 0.6961892 1.0532027 0.80216324 2.421277 3.1179159
2.7329938 70.06301 85.19437 92.547005 1.4904143 1.4672396 1.6431631 0.26154652
0.44175184 5.3770394 0.9672754 1.2028855 10.04383 1.1495744 0.9628573 2.0218918
56.756683 69.46989 74.30655 16.61826 19.501785 20.054089 0.13180953 0.36983788
15.034634 1.7239927 1.9431512 1.7406106 1.0896081 1.5388014 1.0820996 1.6749352
1.9162354 1.8552473 1.4239628 1.8484207 1.6421392 1.2183505 1.7224948 1.2127832
8.013819 9.497904 11.115017 0.17238866 0.14576747 0.013016981 0.4950403 0.2879537
0.029440865 138.6485 155.18454 152.32391 1.9292141 2.401954 2.318319 0.11112342
0.08181368 13.023159 1.9284906 2.1947353 22.295362 0.85225964 1.0341511 0.8137186
111.14072 125.15793 120.64347 33.61551 35.83814 34.187023 0.07264043 0.07995664
38.299202 2.621406 3.2421699 3.0356941 0.25568137 0.17704149 0.0018542035 2.4866698
3.0964637 2.9215672 0.30093554 0.19783339 0.17885521 0.28884372 0.20078327 0.00750093
2.0952737 2.6859868 3.1578615 0.052274566 0.061910376 0.005480974 0.13740298 0.12850979
0.01623687 35.607677 42.602337 43.435287 0.5369881 0.6344657 0.62593275 0.031581275
00000000: 450d 753f 089c 9a3f c977 a63f 4464 9a3e
00000010: 8055 ec3e 8d40 3a3f 8f0f 953f 9307 c03f
00000020: 1feb 0440 50b7 7c41 a4f8 9141 9c62 8b41
00000030: eb72 b23e 8cf8 9a3e 5088 f73e da50 d33d
00000040: 52f4 253e a084 e63f 0064 783e 8281 9d3e
00000050: c40b 3540 bac9 cf3e d0f6 aa3e 8596 963f
00000060: aa22 4b41 86ee 6c41 de58 5b41 6f46 7a40
00000070: 241f 8540 5d68 8240 e6e3 113d 9c50 d13d
00000080: 04a1 a240 1d8c c63e 5e7c ee3e 101a ac3e
00000090: e68e f03e 0609 3f3f abe6 853f 8178 c13e
000000a0: 6b7b d33e 1cda b93e a480 253f 1c11 643f
000000b0: 7eaf 963f 599d 063f fc24 563f a767 963f
000000c0: 4f18 0240 5827 1d40 991c 4640 d230 213e
000000d0: 227e a23e 9a07 273e e796 023f 2252 493f
000000e0: fc65 163f eb73 0742 d87b 2042 ead9 2b42
000000f0: 272b f23e a479 103f 56d6 303f d52d 993d
00000100: 7ef7 b23d 02e5 1440 e48c f73e 8ccc 0d3f
00000110: b281 9040 7cb6 893e 5b40 b63e 8aaf 1f3f
00000120: 4122 db41 5255 0242 5285 0942 2d21 0241
00000130: ca79 1541 d04f 1841 21a4 243d fa83 8b3d
00000140: 80b4 d240 1a36 263f fc32 3f3f 5ce4 563f
00000150: ad79 7d3e bfe1 e33e 6df7 553e 3c82 1f3f
00000160: 04d8 3c3f 6b3a 503f a6c6 9d3e 9445 f23e
00000170: 6cf9 b73e 8977 8e3e 50cc ff3e 62c1 703e
00000180: e8df 7b3f 7e31 a03f 0bf7 f43f 7ee6 b63d
00000190: 7119 b13d 5130 363c 474a 6b3e f700 843e
000001a0: 3016 773d 4fb5 7841 3665 9d41 9447 af41
000001b0: 5f4e a03e 5131 ec3e e946 f03e 8686 073d
000001c0: 7aee ba3c 7bd2 0c40 cbd4 553e f45e 7c3e
000001d0: e963 5840 d1a0 133e 3b4a 983e 3206 343e
000001e0: 0d53 4b41 15e3 8041 a48e 8f41 f315 6d40
000001f0: 670b 8d40 ea65 9540 f6b9 ca3c 033e 4f3c
00000200: e332 b440 5b78 c73e a34a f83e fe57 173f
00000210: 9781 0a3e 3541 e83d 84ee 8d3c 5c0d c13e
00000220: e207 023f aee9 153f 4704 103e c0c4 133e
00000230: 059b 843d 9eac 1b3e 7569 013e 5188 9f3c
00000240: 57f0 8840 a9b2 ad40 03c1 d840 7539 323f
00000250: 59cf 863f 925a 4d3f 34f6 1a40 ef8b 4740
00000260: 5fe9 2e40 4320 8c42 8463 aa42 1118 b942
00000270: e5c5 be3f 82ce bb3f 2b53 d23f 6de9 853e
00000280: 4c2d e23e b510 ac40 5c9f 773f 27f8 993f
00000290: 87b3 2041 4125 933f d17d 763f ad66 0140
000002a0: d806 6342 95f0 8a42 f49c 9442 32f2 8441
000002b0: a803 9c41 c66e a041 14f9 063e 645b bd3e
000002c0: dc8d 7041 cbab dc3f 2eb9 f83f 54cc de3f
000002d0: 4778 8b3f 72f7 c43f 3d82 8a3f 4764 d63f
000002e0: 3447 f53f be78 ed3f 6a44 b63f 0d99 ec3f
000002f0: 9e31 d23f e9f2 9b3f b67a dc3f 7b3c 9b3f
00000300: 9a38 0041 6af7 1741 1cd7 3141 a786 303e
00000310: 1144 153e 2d45 553c ec75 fd3e ab6e 933e
00000320: f82d f13c 04a6 0a43 3e2f 1b43 ec52 1843
00000330: 7df0 f63f 9db9 1940 575f 1440 ad94 e33d
00000340: ee8d a73d dc5e 5041 c8d8 f63f 8b76 0c40
00000350: e75c b241 b02d 5a3f 105f 843f dd4f 503f
00000360: 0c48 de42 dc50 fa42 7549 f142 4876 0642
00000370: 415a 0f42 83bf 0842 81c4 943d 4fc0 a33d
00000380: 6232 1942 1ec5 2740 b67f 4f40 d048 4240
00000390: abe8 823e 5d4a 353e bf08 f33a 9925 1f40
000003a0: 762c 4640 f5fa 3a40 3914 9a3e d694 4a3e
000003b0: d225 373e 53e3 933e 219a 4d3e 5dca f53b
000003c0: f718 0640 35e7 2b40 671a 4a40 db1d 563d
000003d0: bc95 7d3d be99 b33b 5eb3 0c3e 1298 033e
000003e0: 2f03 853c 436e 0e42 cb68 2a42 bcbd 2d42
000003f0: 0d78 093f 586c 223f 213d 203f 5e5b 013d

exp_avg f4 [32]
-0.035124507 0.051031157 0.031436242 -0.067814894 0.046536524 0.03223553 0.011828099 -0.007850224
0.036222976 -0.08019232 0.028509585 -0.00930456 0.030278198 -0.030815557 0.03307186 0.011110637
-0.022914307 0.031904645 0.018350307 0.071904324 0.022906093 -0.0017459608 0.012414065 0.03873956
0.02480394 0.035478383 0.028392121 0.016172947 0.043002687 -0.007977974 0.021123232 -0.040677954
00000000: b7de 0fbd 0c06 513d 4ac3 003d 89e2 8abd
00000010: 159d 3e3d 6709 043d a5ca 413c 3a9e 00bc
00000020: 8b5e 143d df3b a4bd ef8c e93c 2772 18bc
00000030: fc09 f83c e870 fcbc 5c76 073d 6409 363c
00000040: c9b6 bbbc 72ae 023d 6253 963c 9342 933d
00000050: 8fa5 bb3c b9d8 e4ba 5d64 4b3c 5fad 1e3d
00000060: a231 cb3c c851 113d 9896 e83c 217d 843c
00000070: 9623 303d 0cb6 02bc a10a ad3c ed9d 26bd
