checkpoints/CNN1D/window480_lr0.00010_batch512_fold0_checkpoint.pth (torch, 456446 bytes, 33 tensors)

conv1.weight f4 [16, 1, 3]
-0.04725612 0.64197373 -0.3577218 0.20436013 0.6799813 -0.34552163 0.25929165 -0.055220563
-0.49431568 -0.05510947 -0.020346541 -0.24134013 0.12656215 -0.021880204 -0.15194145 -0.4449035
-0.33087096 -0.5912949 -0.5728153 0.29252753 0.20818144 0.5337177 0.14154547 0.5765531
-0.27290055 0.25073025 -0.3616079 0.33548984 0.04578739 0.67130995 0.046245176 0.01612338
0.6972872 -0.4731613 -0.0013499318 0.63416076 0.096694306 -0.2991774 -0.3566196 -0.5693684
-0.21278471 -0.35169816 -0.23318939 0.49014983 -0.5326968 -0.42753822 -0.38959163 0.035701998
00000000: a28f 41bd 6458 243f 5027 b7be c843 513e
00000010: 4113 2e3f 36e8 b0be e0c1 843e f52e 62bd
00000020: f216 fdbe 78ba 61bd caad a6bc de21 77be
00000030: 8299 013e 1d3e b3bc 8a96 1bbe 64ca e3be
00000040: eb67 a9be 1a5f 17bf 06a4 12bf 2bc6 953e
00000050: 842d 553e b9a1 083f 4cf1 103e fc98 133f
00000060: 9fb9 8bbe b75f 803e ac24 b9be 53c5 ab3e
00000070: 8f8b 3b3d f8da 2b3f 956b 3d3d 2e15 843c
00000080: 6a81 323f 3342 f2be 32f0 b0ba 5c58 223f
00000090: aa07 c63d c82d 99be d896 b6be 21c2 11bf
000000a0: 3ce4 59be c811 b4be 33c9 6ebe ebf4 fa3e
000000b0: d15e 08bf 4ae6 dabe 8e78 c7be 423c 123d

conv1.bias f4 [16]
0.8379495 0.2974245 -0.31978056 -0.24041925 0.3727087 0.4921405 -0.06793068 -0.032819577
0.39392352 0.3988825 0.48245537 0.5825606 0.2845918 0.27581477 -0.45711765 0.22023927
00000000: dc83 563f 0648 983e 47ba a3be 7730 76be
00000010: add3 be3e d7f9 fb3e 3e1f 8bbd d26d 06bd
00000020: 58b0 c93e 543a cc3e 6404 f73e b122 153f
00000030: 04b6 913e 9837 8d3e 530b eabe 6786 613e

conv2.weight f4 [32, 16, 3]
0.15227723 0.011095464 -0.14227083 0.07502327 0.17914714 -0.15255924 -0.08881038 0.09025539
0.16001275 0.13412753 0.023052678 0.03341552 0.19864354 0.035298422 -0.083449215 0.08005034
0.028731424 -0.010756818 -0.091717295 0.14426818 -0.035781223 0.070697166 0.11595373 -0.10865327
0.012580401 0.10347331 -0.119469784 0.11613796 -0.016018728 -0.23086113 0.016906885 0.111602776
-0.2226677 0.059003998 0.28254515 0.018626664 -0.0024444663 0.14168711 -0.12190866 -0.11884614
-0.10783564 0.07018793 0.04314165 -0.017614452 -0.003819959 -0.14602922 -0.12514432 0.14798455
0.08895455 0.17002092 0.012112767 -0.107080825 0.15729134 0.0016976611 -0.099956565 0.06338552
0.09472931 -0.09827962 0.09216579 0.13601059 0.17864008 0.049911644 -0.08242084 0.056427483
-0.008620339 -0.025236819 -0.02039413 0.045379464 0.11731891 -0.042894527 0.07940029 -0.17642462
-0.09160838 0.037836045 -0.039690033 0.04163561 0.1763628 -0.13144764 -0.018357854 0.21455213
-0.13049139 0.052596852 0.32889482 0.0122738825 -0.062291164 -0.07676627 0.06856216 0.01876268
-0.15585715 0.035696235 0.00737249 0.12456848 -0.055771336 -0.019420566 -0.069611154 0.07204274
-0.061072644 0.15139626 -0.22310743 0.1261074 0.08411022 -0.25696868 0.07517115 0.067459844
-0.060934372 0.0057484633 -0.036657147 0.09741336 0.08110555 0.027453238 -0.09420052 0.124138124
-0.00112539 0.014480967 0.06566869 0.019172523 0.03159382 0.07926261 0.04325002 -0.18780169
0.1408887 0.114802614 0.11639827 -0.065769635 0.07279566 0.0075817755 -0.0075525288 0.007145662
-0.044345684 0.045909822 -0.014562225 0.05969958 -0.05039535 0.07107493 0.061644755 -0.01250222
0.053381376 0.084917165 -0.06699239 -0.0611072 -0.03654037 -0.042389557 0.13101417 -0.044571016
-0.027059529 -0.026013749 0.095013864 0.16410397 0.01610774 0.025958184 -0.0054388638 -0.10541893
0.03215731 -0.07015591 0.14940184 -0.12641256 -0.006691413 0.13575576 -0.046995223 0.001272652
-0.119242884 0.053602826 0.085446954 0.03545618 -0.038519308 -0.030252859 -0.1011918 -0.10977149
0.13088204 0.0076421797 0.006861023 0.14750329 0.07508209 0.04685 0.04608746 0.10046289
0.12920891 -0.015630487 0.1147238 0.27337855 0.13775644 0.15614927 0.030725837 0.1429578
-0.032519363 -0.06809686 -0.05840578 -0.0944522 -0.09761016 0.08958065 -0.13366497 0.12982185
0.18659185 0.26419896 -0.09375997 0.20780867 0.20395136 -0.23162167 0.09968258 0.051718142
-0.13727018 0.10722682 -0.104782596 -0.088754624 0.096017756 0.055457637 0.042344455 -0.044799305
0.06429492 -0.0973699 -0.12352644 -0.0048956755 -0.04922669 0.19727144 0.18383856 -0.23572029
-0.10726653 0.120764256 0.065002985 0.15566958 0.22039448 -0.15004356 -0.037744306 -0.012968173
-0.16715655 -0.11317008 0.18490195 -0.09200124 0.11768286 0.11406784 0.056238394 0.055574358
0.001446688 -0.030605607 0.07595787 0.14182127 -0.121718206 -0.0646249 0.12723225 0.0056875674
-0.053204402 -0.038840093 -0.04178848 -0.061734546 0.15063626 -0.18053606 0.06076721 0.12592237
0.0031017875 -0.04755706 0.094562836 -0.09034421 -0.0026703211 0.028046802 -0.08120871 -0.119636685
00000000: 90ee 1b3e c0c9 353c 72af 11be cda5 993d
00000010: 5972 373e 7d38 1cbe 37e2 b5bd d1d7 b83d
00000020: 62da 233e ba58 093e f8d8 bc3c b6de 083d
00000030: 3669 4b3e 1495 103d 6ce7 aabd 6ff1 a33d
00000040: 2a5e eb3c 5d3d 30bc 47d6 bbbd 0abb 133e
00000050: 558f 12bd adc9 903d 2679 ed3d 9b85 debd
00000060: 071e 4e3c d1e9 d33d 93ac f4bd bdd9 ed3d
00000070: b539 83bc dc66 6cbe 4f80 8a3c ff8f e43d
00000080: 0003 64be 2dae 713d c2a9 903e f296 983c
00000090: 5733 20bb 6d16 113e 3fab f9bd 9b65 f3bd
000000a0: efd8 dcbd b0be 8f3d 4cb5 303d 2f4c 90bc
000000b0: 4758 7abb af88 15be d525 00be 4389 173e
000000c0: ce2d b63d f719 2e3e a174 463c 314d dbbd
000000d0: fb10 213e 0e84 de3a 07b6 ccbd 44d0 813d
000000e0: 7101 c23d d346 c9bd 6bc1 bc3d 5c46 0b3e
000000f0: 6ded 363e 2770 4c3d 42cc a8bd 8120 673d
00000100: 533c 0dbc 72bd cebc 9711 a7bc d1df 393d
00000110: e644 f03d 2cb2 2fbd 9f9c a23d a8a8 34be
00000120: 2d9d bbbd f8f9 1a3d 0492 22bd 1a8a 2a3d
00000130: 7398 343e 369a 06be 3663 96bc 8eb3 5b3e
00000140: 899f 05be cc6f 573d e764 a83e 6518 493c
00000150: 0525 7fbd a237 9dbd 516a 8c3d 31b4 993c
00000160: 0499 1fbe 3736 123d ee94 f13b c21d ff3d
00000170: 7c70 64bd e117 9fbc 4b90 8ebd 258b 933d
00000180: 4f27 7abd 9f07 1b3e 4676 64be 4c22 013e
00000190: fb41 ac3d 6691 83be 55f3 993d 6328 8a3d
000001a0: 5296 79bd 9b5d bc3b ce25 16bd a880 c73d
000001b0: ab1a a63d 9de5 e03c 34ec c0bd 213c fe3d
000001c0: d281 93ba 9441 6d3c 4e7d 863d b20f 9d3c
000001d0: 8568 013d 6f54 a23d ef26 313d 164f 40be
000001e0: 2145 103e a21d eb3d 3762 ee3d 3bb2 86bd
000001f0: e415 953d 8b70 f83b 347b f7bb 2826 ea3b
00000200: d2a3 35bd f00b 3c3d 6696 6ebc 8c87 743d
00000210: 5b6b 4ebd bc8f 913d 367f 7c3d 1dd6 4cbc
00000220: 6ea6 5a3d 0de9 ad3d 4e33 89bd 8b4b 7abd
00000230: 5bab 15bd aca0 2dbd 9428 063e 1990 36bd
00000240: f2ab ddbc c91a d5bc a196 c23d df0a 283e
00000250: 61f4 833c 42a6 d43c 7f38 b2bb e1e5 d7bd
00000260: 62b7 033d e7ad 8fbd ccfc 183e 4b72 01be
00000270: a443 dbbb 8f03 0b3e 107e 40bd 1dcf a63a
00000280: 9d35 f4bd a38e 5b3d d0fe ae3d 803a 113d
00000290: 6cc6 1dbd d8d4 f7bc a53d cfbd e0cf e0bd
000002a0: f105 063e 406b fa3b 6fd2 e03b 1a0b 173e
000002b0: a4c4 993d c9e5 3f3d 34c6 3c3d 7dbf cd3d
000002c0: 574f 043e 820b 80bc 50f4 ea3d 46f8 8b3e
000002d0: 0610 0d3e 98e5 1f3e c0b4 fb3c 8863 123e
000002e0: 0633 05bd 5e76 8bbd e63a 6fbd 2870 c1bd
000002f0: d6e7 c7bd 0f76 b73d 78df 08be 05f0 043e
00000300: ef11 3f3e 1645 873e 3a05 c0bd cccb 543e
00000310: a0d8 503e 3b2e 6dbe 6126 cc3d 67d6 533d
00000320: 8e90 0cbe bc99 db3d 4298 d6bd fcc4 b5bd
00000330: f5a4 c43d 8c27 633d 6171 2d3d 7a7f 37bd
00000340: 0ead 833d df69 c7bd 6efb fcbd e76b a0bb
00000350: eda1 49bd 8601 4a3e 2d40 3c3e a960 71be
00000360: 8eae dbbd 4053 f73d 4920 853d d967 1f3e
00000370: 17af 613e 05a5 19be c699 1abd 7678 54bc
00000380: 162b 2bbe b7c5 e7bd f056 3d3e 256b bcbd
00000390: b603 f13d 669c e93d 3b5a 663d f0a1 633d
000003a0: cb9e bd3a 9cb8 fabc cd8f 9b3d 9839 113e
000003b0: 6547 f9bd 0f5a 84bd 2c49 023e c65e ba3b
000003c0: dcec 59bd ca16 1fbd 662a 2bbd 5ddd 7cbd
000003d0: 6440 1a3e 72de 38be 0ae7 783d cbf1 003e
000003e0: 5c47 4b3b 31cb 42bd 29aa c13d 6306 b9bd
000003f0: 8e00 2fbb 68c2 e53c c150 a6bd 1404 f5bd

conv2.bias f4 [32]
0.39146873 0.20545986 0.24117757 0.2935344 0.4109426 0.029269464 -0.032559384 0.26786646
-0.016193964 0.1100074 -0.14932409 -0.1328254 0.11439888 -0.008488894 0.028534519 0.07634348
0.13000862 -0.13809682 0.17619275 0.015931778 -0.21775478 0.089000374 0.0015659604 -0.09957841
0.029523136 -0.15222012 0.11887768 -0.09026506 0.13082346 0.09274226 -0.31738043 0.11828378
00000000: 976e c83e 1264 523e 41f7 763e 244a 963e
00000010: 1267 d23e 84c6 ef3c fd5c 05bd cb25 893e
00000020: 34a9 84bc 8f4b e13d 6ae8 18be 6203 08be
00000030: f649 ea3d 0115 0bbc 39c1 e93c f859 9c3d
00000040: fb20 053e 4169 0dbe df6b 343e 5c83 823c
00000050: 1cfb 5ebe d445 b63d e940 cd3a c4ef cbbd
00000060: 81da f13c 97df 1bbe 2476 f33d e3dc b8bd
00000070: 96f6 053e a7ef bd3d b07f a2be c43e f23d

conv3.weight f4 [64, 32, 3]
-0.022817783 0.09420762 -0.13442925 -0.02275835 0.17546144 -0.13280861 0.04910041 0.06642592
-0.041395538 0.085073814 0.064634666 0.016709974 0.034502808 -0.009012347 -0.12405344 0.05555026
0.050480574 0.05599368 0.04379681 -0.07025506 0.0785275 -0.04493079 -0.05224228 -0.05808338
0.008712596 -0.0038784482 -0.009881159 -0.0050237025 -0.021302529 0.059104905 0.053820077 -0.09593999
0.02502163 0.06805886 -0.073032096 0.036580008 0.08511153 0.08270066 -0.117378704 -0.018507749
0.055734918 -0.1306319 0.09529764 -0.027493203 -0.125197 0.060990173 -0.07017491 -0.135621
-0.03485866 0.012741889 -0.122359745 0.05233535 0.037092254 0.08510396 -0.010956738 0.20235045
-0.13585468 0.015356165 0.08680829 -0.07302646 0.028485082 -0.10826368 0.029063525 0.010013667
0.079243146 -0.013485833 0.11050522 0.023437444 -0.08651112 -0.060186997 -0.0155145135 0.003460707
0.059324175 -0.10083848 -0.078351274 0.057772744 0.014029375 -0.06779904 0.097099125 0.008511467
-0.12610038 0.033736028 -0.06054293 -0.081098795 0.048116963 0.16083677 0.018026793 -0.009976909
0.07584083 -0.057918496 -0.051432762 -0.04088712 -0.093217626 0.014743221 0.057893775 -0.11644785
0.03677628 0.020577688 0.02022327 0.104313485 0.008387788 0.031391878 -0.008984171 -0.0022777645
-0.034290798 0.07242862 -0.010637712 -0.14909668 0.023720643 0.019376425 -0.15797131 0.046686333
0.042630263 -0.09919225 0.042848516 0.06699361 -0.084533095 -0.069843374 0.07271301 -0.04360348
0.02973484 0.109050326 -0.14771032 -0.055119287 0.08801547 -0.012518924 -0.020607144 0.057762116
-0.10130604 0.060086574 0.07166162 9.011014e-05 0.059167348 -0.11989349 -0.18798418 0.021044984
0.17831942 -0.13377452 0.09391588 0.10549021 -0.098739885 0.014163257 0.05985387 0.03504769
0.062943675 0.088885024 -0.06413193 0.0066599324 -0.032173514 -0.09763908 0.16732767 -0.043520298
-0.037493132 0.093417875 0.05918085 -0.102053225 -0.029579371 -0.011290885 -0.120627016 -0.104056284
0.06125467 -0.07793613 0.0011044566 -0.008775013 -0.05556225 0.029407823 0.01737381 -0.073656805
-0.0091433255 0.117817625 0.044849638 0.029661337 -0.031827226 -0.00014003007 0.06437024 0.09433227
0.009393139 -0.042529326 0.08780329 -0.13555452 -0.19380556 0.033933423 -0.020399587 0.07751056
0.097355835 -0.09897715 -0.037807554 0.18493143 -0.12146277 0.16912708 0.18837671 -0.02157511
-0.018691715 0.019653892 0.0013674648 -0.0528737 -0.06143161 0.23932032 -0.09666473 -0.11019146
-0.036428947 0.051179785 -0.02914599 -0.039117288 0.025692761 -0.06375459 0.085463084 0.027622417
0.037221916 0.043239743 -0.08872893 0.009923974 0.05797859 -0.08345045 0.016614495 0.042601846
-0.02881143 -0.11355055 0.10059711 0.056877226 -0.019952653 -0.12051555 0.031903762 0.051969033
-0.015729748 -0.0023906333 -0.07006214 -0.09668363 -0.024800614 -0.015293963 -0.082495525 -0.10714176
-0.0067273052 0.16904041 0.048296154 -0.034626793 0.020926978 0.054308947 -0.07252535 -0.022428412
-0.076459505 0.09553084 -0.058547463 -0.09559037 0.009849943 0.056671947 -0.0031192012 -0.032790545
-0.073857486 0.0072402023 -0.008738622 0.03356594 -0.049232394 -0.037567668 0.06445854 0.015410592
00000000: 5cec babc edef c03d d2a7 09be b86f babc
00000010: 2aac 333e fbfe 07be 831d 493d 500a 883d
00000020: 5e8e 29bd 2e3b ae3d 2e5f 843d 5be3 883c
00000030: d152 0d3d 86a8 13bc bb0f febd ab88 633d
00000040: b8c4 4e3d a159 653d 4964 333d e3e1 8fbd
00000050: 07d3 a03d 5909 38bd 00fc 55bd d7e8 6dbd
00000060: 47bf 0e3c 902d 7ebb 96e4 21bc df9d a4bb
00000070: a482 aebc fc17 723d 7172 5c3d 2f7c c4bd
00000080: 29fa cc3c 7262 8b3d da91 95bd ebd4 153d
00000090: f44e ae3d f75e a93d 3f64 f0bd 909d 97bc
000000a0: 4c4a 643d 5ec4 05be 692b c33d 6d39 e1bc
000000b0: a433 00be d5d0 793d ddb7 8fbd 3be0 0abe
000000c0: f4c7 0ebd 5bc3 503c bf97 fabd 985d 563d
000000d0: 0cee 173d fc4a ae3d e483 33bc f534 4f3e
000000e0: 7d1d 0bbe 6d98 7b3c 8bc8 b13d e68e 95bd
000000f0: 8c59 e93c 59b9 ddbd a116 ee3c 5d10 243c
00000100: 3b4a a23d aff3 5cbc 9050 e23d e2ff bf3c
00000110: be2c b1bd a486 76bd 9630 7ebc 07cd 623b
00000120: e8fd 723d 6884 cebd a276 a0bd 1da3 6c3d
00000130: 77db 653c 39da 8abd e8db c63d ae73 0b3c
00000140: 7520 01be ca2e 0a3d ddfb 77bd 2017 a6bd
00000150: 4b16 453d 65b2 243e edac 933c 3076 23bc
00000160: 7052 9b3d f23b 6dbd 29ab 52bd 4179 27bd
00000170: e2e8 bebd 8d8d 713c 0622 6d3d 367c eebd
00000180: b9a2 163d 8a92 a83c 45ab a53c 4fa2 d53d
00000190: ef6c 093c c594 003d 5832 13bc 8c46 15bb
000001a0: 8274 0cbd 7555 943d cc49 2ebc cdac 18be
000001b0: cb51 c23c 4fbb 9e3c 3bc3 21be 2b3a 3f3d
000001c0: 129d 2e3d 4e25 cbbd ed81 2f3d f233 893d
000001d0: b01f adbd 0b0a 8fbd 8fea 943d 9099 32bd
000001e0: 7b96 f33c c755 df3d 6041 17be c3c4 61bd
000001f0: 7441 b43d 2c1c 4dbc 50d0 a8bc f897 6c3d
00000200: 8b79 cfbd 571d 763d 54c3 923d 83f9 bc38
00000210: 7659 723d b88a f5bd ed7e 40be 8866 ac3c
00000220: 5e99 363e 30fc 08be f856 c03d 400b d83d
00000230: 2338 cabd 010d 683c 5529 753d 2b8e 0f3d
00000240: 9de8 803d 5a09 b63d 9a57 83bd 903b da3b
00000250: 60c8 03bd fff6 c7bd f257 2b3e 5742 32bd
00000260: 6692 19bd df51 bf3d 9e67 723d 4801 d1bd
00000270: 7050 f2bc 67fd 38bc 4c0b f7bd 761b d5bd
00000280: 2de6 7a3d fa9c 9fbd 6ac3 903a 12c5 0fbc
00000290: 3e95 63bd ade8 f03c 8553 8e3c 61d9 96bd
000002a0: e3cd 15bc 5e4a f13d 41b4 373d 55fc f23c
000002b0: 445d 02bd 09d5 12b9 8bd4 833d 4731 c13d
000002c0: aee5 193c 3b33 2ebd 36d2 b33d cece 0abe
000002d0: f774 46be c6fd 0a3d 091d a7bc dbbd 9e3d
000002e0: 7f62 c73d 88b4 cabd 18dc 1abd aa5e 3d3e
000002f0: 79c1 f8bd a62f 2d3e d3e5 403e 49be b0bc
00000300: 5e1f 99bc 3301 a13c 813c b33a 1892 58bd
00000310: b69f 7bbd 6310 753e 28f8 c5bd 0fac e1bd
00000320: 8536 15bd e5a1 513d 92c3 eebc 7339 20bd
00000330: a079 d23c c491 82bd 4507 af3d 6848 e23c
00000340: 0276 183d 281c 313d 83b7 b5bd 2a98 223c
00000350: f57a 6d3d 12e8 aabd 1f1b 883c 467f 2e3d
00000360: f305 ecbc 318d e8bd dc05 ce3d 18f8 683d
00000370: bf73 a3bc dbd0 f6bd 85ad 023d 7bdd 543d
00000380: acdb 80bc 2cac 1cbb bd7c 8fbd 1102 c6bd
00000390: a82a cbbc 8893 7abc 6af3 a8bd 246d dbbd
000003a0: ba70 dcbb ee18 2d3e 30d2 453d d3d4 0dbd
000003b0: 0e6f ab3c 0f73 5e3d 2c88 94bd cabb b7bc
000003c0: cd96 9cbd aca5 c33d 77cf 6fbd e2c4 c3bd
000003d0: a861 213c d820 683d 836b 4cbb 614f 06bd
000003e0: 9842 97bd 383f ed3b 702c 0fbc 707c 093d
000003f0: e8a7 49bd 8ee0 19bd d702 843d b57c 7c3c

conv3.bias f4 [64]
0.08978206 0.053695463 -0.1811969 0.04317811 -0.13038827 -0.04309787 0.07391362 -0.09666841
0.101814546 -0.041328847 0.15012807 -0.03229968 -0.052248735 0.20934469 -0.015615808 0.02815575
-0.08549391 -0.060196918 0.16795564 0.014961952 0.12537687 0.046049237 -0.052279633 0.14718854
0.108748615 -0.10325989 0.099991746 0.18240578 -0.02218201 0.15070237 -0.11437386 0.09019996
-0.10767081 -0.098330796 0.12532744 0.03450028 0.021758355 0.2604322 0.12093374 -0.059764214
0.004652542 -0.20039858 -0.069979355 0.15315875 -0.14747228 -0.013783913 -0.02569641 -0.16191162
-0.03324125 -0.005764091 -0.027708141 0.013066679 0.087415464 0.09463686 -0.13676524 -0.20644045
0.16227137 -0.047018528 0.058749292 0.092571124 0.21334362 0.03124121 -0.05838406 -0.0022770388
00000000: a8df b73d c6ef 5b3d ae8b 39be 88db 303d
00000010: 8184 05be 6487 30bd 0660 973d 16fa c5bd
00000020: 2584 d03d 7048 29bd 2cbb 193e ab4c 04bd
00000030: c502 56bd 745e 563e 72d9 7fbc e3a6 e63c
00000040: 6e17 afbd 0b91 76bd 90fc 2b3e fa22 753c
00000050: cb62 003e 209e 3c3d 2b23 56bd 98b8 163e
00000060: 98b7 de3d ec79 d3bd 79c8 cc3d 95c8 3a3e
00000070: 0cb7 b5bc b951 1a3e d83c eabd c2ba b83d
00000080: 8382 dcbd a861 c9bd d655 003e 2a50 0d3d
00000090: 943e b23c 5f57 853e 1cac f73d 52cb 74bd
000000a0: 5a74 983b 4935 4dbe 5651 8fbd a6d5 1c3e
000000b0: f902 17be ecd5 61bc 4781 d2bc 29cc 25be
000000c0: fa27 08bd b3e0 bcbb 2ffc e2bc a015 563c
000000d0: e106 b33d f8d0 c13d 300c 0cbe 2065 53be
000000e0: 772a 263e 8096 40bd 19a3 703d ee95 bd3d
000000f0: c076 5a3e 91ed ff3c 2024 6fbd 5f3a 15bb

conv4.weight f4 [128, 64, 3]
-0.009810416 -0.03137088 0.0016625696 0.011158803 -0.07076974 0.087812655 0.013650816 -0.030957308
0.0670603 -0.012604106 0.052739277 -0.013650072 -0.00468992 -0.009708357 0.004926296 0.03777916
0.02234002 -0.01479351 0.006728685 -0.028670423 -0.010044768 0.07128812 0.0660642 -0.04810258
0.03755435 -0.026249629 -0.051645163 -0.06757569 -0.03532949 0.00045458358 -0.11184202 -0.040136486
-0.0028072675 -0.044040937 0.003713322 0.22441135 0.0007482059 0.013198524 0.07218985 -0.0147325145
-0.060064282 -0.09733143 0.061342496 0.0022880498 -0.0010960422 -0.018312864 -0.013511035 -0.022273073
-0.0036613834 0.033220306 0.12082398 -0.033169817 0.04513148 0.04195702 0.007867698 -0.055396665
-0.034093153 -0.054271474 -0.012183059 -0.012650599 -0.0028316865 0.0772084 -0.031373207 -0.021855071
0.038016267 0.01616511 -0.01307846 -0.028463986 -0.021049596 0.06135087 0.020783205 0.009446979
0.021238692 -0.056667376 -0.0064761187 0.027502364 -0.019744879 0.18438226 0.05686512 -0.12035259
0.19443291 -0.016421182 -0.055318736 0.019926451 0.040175855 0.012375214 -0.028924441 0.005225536
0.015429223 -0.03440027 -4.359483e-05 -0.023994382 0.22902167 0.05007774 0.03685566 -0.016939541
0.027030956 -0.046831995 0.042708382 0.0013450158 0.039656322 0.03521589 -0.0009572009 0.066599734
-0.037930626 -0.07923938 0.011602047 0.08270023 -0.0052852198 -0.07792024 -0.06630399 0.062633865
-0.040266797 0.02602728 -0.050091084 -0.014726589 -0.07501657 -0.0041892454 -0.04148327 -0.04057121
-0.06999321 -0.07397086 0.15403895 0.0675225 0.017959531 0.059532315 -0.02452615 -0.038806994
0.07939447 0.050069164 -0.05467495 0.0933464 0.06529703 -0.059021775 -0.03589072 -0.043621965
0.006032803 0.07237945 0.053441096 0.0046302387 0.038519017 -0.091564715 0.019642765 0.10166816
-0.09215717 0.05699572 -0.0044943085 -0.07834799 0.009053314 -0.045661166 -0.0684302 0.057974942
0.008713695 0.01918409 -0.02243211 0.0055427644 0.036533102 -0.042523816 -0.07948451 0.03947497
-0.0075708674 -0.00050099543 0.0058286535 -0.00018651735 -0.061385613 0.017888546 -0.02610335 0.22860415
0.03837669 -0.047936358 0.0019514534 -0.0053188563 -0.029923938 0.024639457 -0.099949054 0.0047181044
0.13177751 0.004053025 0.019496989 0.025287295 0.005125897 0.040139295 -0.12798263 -0.057911053
0.039849635 -0.0043680775 -0.038800184 0.03459895 0.003959242 0.022374677 -0.05573916 0.048345756
0.032713983 0.16215284 0.012963085 -0.058206365 0.020283373 0.0031014176 -0.05523045 0.08446986
-0.054386083 -0.04161206 0.052832168 -0.01043197 -0.01279683 -0.09568981 0.04636268 -0.017708706
0.032343328 -0.0747248 -0.057909064 -0.061946664 0.035127338 0.012661055 0.021106174 -0.1273749
-0.0169661 0.004335053 -0.027416958 0.044783656 -0.07127005 -0.09299851 0.061240457 0.07803246
-0.10161177 -0.061043367 -0.17005636 -0.10306049 0.049302008 0.023130381 -0.06856104 -0.018663466
0.22801007 -0.064575166 0.051846225 -0.089852 0.022248145 0.05046603 -0.01966012 -0.011385142
0.101144634 -0.103033036 0.06955019 -0.053513348 0.0354407 0.014876686 -0.06107364 -0.0103987185
-0.14326401 0.007894737 -0.030477049 -0.053915657 -0.008683562 0.04899101 -0.08076529 -0.046285402
00000000: debb 20bc c07e 00bd 94ea d93a 69d3 363c
00000010: baef 90bd 1fd7 b33d aca7 5f3c 2e9a fdbc
00000020: e956 893d 7481 4ebc 2405 583d 8da4 5fbc
00000030: e7ad 99bb cd0f 1fbc c46c a13b 52be 1a3d
00000040: 6b02 b73c 7a60 72bc 4d7c dc3b 3cde eabc
00000050: d092 24bc 81ff 913d ab4c 873d 3607 45bd
00000060: 97d2 193d 7609 d7bc e189 53bd 2065 8abd
00000070: a8b5 10bd 2d55 ee39 6e0d e5bd 2866 24bd
00000080: 22fa 37bb 4564 34bd 355b 733b 17cc 653e
00000090: 3f23 443a 9f3e 583c 46d8 933d a560 71bc
000000a0: f705 76bd b355 c7bd 4542 7b3d 1bf3 153b
000000b0: 13a9 8fba dc04 96bc 635d 5dbc 0576 b6bc
000000c0: d2f3 6fbb 0412 083d 9072 f73d 13dd 07bd
000000d0: c9db 383d 20db 2b3d 84e7 003c 9de7 62bd
000000e0: 43a5 0bbd c44b 5ebd 749b 47bc 7544 4fbc
000000f0: d193 39bb 701f 9e3d 3181 00bd 6809 b3bc
00000100: f2b6 1b3d b16c 843c 0947 56bc 4e2d e9bc
00000110: 3470 acbc 0d4b 7b3d 8a41 aa3c 80c7 1a3c
00000120: c4fc ad3c 0d1c 68bd 9f35 d4bb a34c e13c
00000130: 03c0 a1bc b4ce 3c3e 66eb 683d 6b7b f6bd
00000140: 6c19 473e b785 86bc e695 62bd cc3c a33c
00000150: 708f 243d 69c1 4a3c f3f2 ecbc f93a ab3b
00000160: daca 7c3c 4ce7 0cbd 98d9 36b8 de8f c4bc
00000170: a884 6a3e 511e 4d3d f6f5 163d cbc4 8abc
00000180: 0670 dd3c e8d2 3fbd fcee 2e3d 3e4b b03a
00000190: ab6e 223d 893e 103d aaec 7aba 7165 883d
000001a0: 255d 1bbd 4248 a2bd 8316 3e3c bd5e a93d
000001b0: a32f adbb a694 9fbd 63ca 87bd 2f46 803d
000001c0: ccee 24bd 2a37 d53c 4f2c 4dbd cb47 71bc
000001d0: 4aa2 99bd f045 89bb 5cea 29bd ff2d 26bd
000001e0: 9a58 8fbd 097e 97bd 63bc 1d3e 3d49 8a3d
000001f0: de1f 933c 28d8 733d 11eb c8bc 15f4 1ebd
00000200: 9199 a23d 5315 4d3d d7f2 5fbd 662c bf3d
00000210: 73ba 853d d1c0 71bd 2602 13bd f2ac 32bd
00000220: d2ae c53b ad3b 943d 0de5 5a3d 42b9 973b
00000230: 1ec6 1d3d 4886 bbbd dde9 a03c 6537 d03d
00000240: e6bc bcbd 5874 693d fe44 93bb e974 a0bd
00000250: 5a54 143c 3407 3bbd 2225 8cbd 2277 6d3d
00000260: e3c3 0e3c f427 9d3c 8bc3 b7bc 14a0 b53b
00000270: bca3 153d 742d 2ebd c6c8 a2bd 82b0 213d
00000280: 0a15 f8bb 3c55 03ba 4afe be3b df93 43b9
00000290: 7b6f 7bbd 008b 923c b1d6 d5bc 3517 6a3e
000002a0: e030 1d3d ea58 44bd e9c7 ff3a cd49 aebb
000002b0: 0c23 f5bc b0d8 c93c 17b2 ccbd 549a 9a3b
000002c0: aff0 063e 3dcf 843b 26b8 9f3c 4d27 cf3c
000002d0: 24f7 a73b 1a69 243d e10d 03be 2434 6dbd
000002e0: 5f39 233d 1722 8fbb f1ec 1ebd a1b7 0d3d
000002f0: 87bc 813b 194b b73c bf4e 64bd 3306 463d
00000300: 19ff 053d 650b 263e 1f63 543c cc69 6ebd
00000310: 5129 a63c 2741 4b3b 5339 62bd 89fe ac3d
00000320: f1c3 5ebd 6871 2abd 8b66 583d daea 2abc
00000330: cca9 51bc 05f9 c3bd cbe6 3d3d d911 91bc
00000340: 707a 043d 5109 99bd 0e32 6dbd c9bb 7dbd
00000350: afe1 0f3d 5070 4f3c dbe6 ac3c 916e 02be
00000360: 7efc 8abc 0f0d 8e3b 8799 e0bc 116f 373d
00000370: 08f6 91bd 0176 bebd 46d7 7a3d 7bcf 9f3d
00000380: d519 d0bd 9c08 7abd 4123 2ebe 6111 d3bd
00000390: e7f0 493d ed7b bd3c bb69 8cbd 20e4 98bc
000003a0: 797b 693e fc3f 84bd b55c 543d 5304 b8bd
000003b0: be41 b63c 78b5 4e3d 430e a1bc bf88 3abc
000003c0: eb24 cf3d fc02 d3bd 5470 8e3d d030 5bbd
000003d0: 442a 113d 58bd 733c 5a28 7abd 635f 2abc
000003e0: cdb3 12be ed58 013c 01ab f9bc aad6 5cbd
000003f0: 8045 0ebc ccaa 483d 4668 a5bd c395 3dbd

conv4.bias f4 [128]
-0.036170486 0.14180231 -0.07996492 -0.07990926 -0.15252319 -0.14388737 -0.037226476 -0.16623524
-0.03767205 -0.158693 -0.11728393 -0.10047563 -0.1013084 0.04457503 -0.15820757 -0.082591556
-0.11893086 -0.09037277 -0.1313067 -0.07819631 0.19047682 -0.11515389 -0.089530684 -0.1079833
0.114709035 0.023198133 -0.1723806 -0.010929466 -0.19868435 -0.17486599 0.066283576 -0.10283529
0.1606932 -0.10462812 0.07280766 0.13256834 0.18154192 -0.07410755 -0.08120422 -0.008280871
0.023569131 0.023486393 -0.06236406 0.0979174 -0.08355761 -0.14408275 0.13035259 -0.09256516
-0.08291089 0.12680613 -0.17543244 -0.12833127 -0.13227019 0.1254369 -0.1735993 -0.0037245494
-0.1477967 0.058433253 0.024832673 0.19245718 -0.111261755 0.12864733 -0.13800797 -0.12254439
-0.055691753 -0.13475418 -0.14434125 -0.07854369 -0.11365973 -0.018576233 -0.13724294 -0.11592003
0.07627215 -0.088349454 -0.085042864 0.09958006 -0.060509704 0.00021014424 -0.13550135 -0.11052343
-0.12663355 -0.120675534 -0.15684433 -0.13459702 0.007851782 -0.17907475 -0.15067683 0.08668671
-0.0786447 -0.070537195 0.1090795 -0.12699004 -0.054033644 0.078526944 0.1594646 -0.15535915
0.093987934 0.10253246 0.117630035 0.0030894652 -0.16317828 0.13507287 -0.0931572 -0.119903386
0.1239897 -0.08359595 -0.10006677 -0.06815668 -0.17025664 0.00865842 -0.091483764 0.118518054
0.11832316 -0.17842495 -0.07670901 0.023005888 -0.08221033 -0.059315965 -0.17354462 0.20840965
0.051500622 -0.17384443 -0.1679842 0.12031111 -0.040211037 -0.1767648 -0.0026316417 -0.12985934
00000000: 8127 14bd a034 113e a6c4 a3bd 77a7 a3bd
00000010: 0a2f 1cbe 3657 13be ca7a 18bd 9239 2abe
00000020: 024e 1abd 6b80 22be 8f32 f0bd 2bc6 cdbd
00000030: c77a cfbd 4f94 363d 2a01 22be c325 a9bd
00000040: 0692 f3bd 5c15 b9bd 4375 06be 6325 a0bd
00000050: 5b0c 433e cdd5 ebbd dd5b b7bd 5926 ddbd
00000060: 92ec ea3d 030a be3c 8a84 30be 8111 33bc
00000070: e973 4bbe 1210 33be afbf 873d 4f9b d2bd
00000080: c28c 243e 4547 d6bd 2f1c 953d ffbf 073e
00000090: 20e6 393e b3c5 97bd 664e a6bd 7eac 07bc
000000a0: 0d14 c13c 8966 c03c 7571 7fbd eb88 c83d
000000b0: 4120 abbd 6e8a 13be 267b 053e cd92 bdbd
000000c0: 2fcd a9bd 77d9 013e 90a4 33be 4669 03be
000000d0: d671 07be 8872 003e 04c4 31be 9217 74bb
000000e0: 0558 17be b557 6f3d e46d cb3c 7f13 453e
000000f0: 34dd e3bd 20bc 033e f651 0dbe 8ef8 fabd
00000100: 091d 64bd 00fd 09be 31ce 13be 84db a0bd
00000110: 6fc6 e8bd 2f2d 98bc 6a89 0cbe 7b67 edbd
00000120: 9334 9c3d 8ff0 b4bd f42a aebd a1f0 cb3d
00000130: 06d9 77bd 2a5a 5c39 dec0 0abe 1c5a e2bd
00000140: 3aac 01be bc24 f7bd cd9b 20be cdd3 09be
00000150: c3a4 003c 5f5f 37be 074b 1abe cd88 b13d
00000160: 7910 a1bd ce75 90bd 1365 df3d ad09 02be
00000170: 6252 5dbd bcd2 a03d b04a 233e 7816 1fbe
00000180: bf7c c03d 8afc d13d 04e8 f03d a078 4a3b
00000190: 3518 27be 8b50 0a3e 34c9 bebd e88f f5bd
000001a0: 50ee fd3d 5a34 abbd cfef ccbd bb95 8bbd
000001b0: c257 2ebe 0cdc 0d3c d75b bbbd 98b9 f23d
000001c0: 6a53 f23d 08b5 36be 9d19 9dbd d876 bc3c
000001d0: e45d a8bd 4cf5 72bd aeb5 31be 5769 553e
000001e0: 51f2 523d 4604 32be 0d04 2cbe ac65 f63d
000001f0: 54b4 24bd d501 35be 9f77 2cbb d9f9 04be

fc1.weight f4 [32, 128]
0.040479336 -0.08631135 0.08231086 0.010280179 0.010725868 -0.017418725 0.018374411 0.15948848
0.062623456 0.11958238 -0.0102399485 0.015430999 0.14023395 -0.083626285 0.09434776 0.18111797
0.1319297 -0.0102818785 0.13720587 0.022546202 -0.16991706 0.03233187 0.0027068157 0.080572605
-0.10570459 0.05174419 0.07016752 0.05735558 0.047672357 0.07038455 -0.15134357 0.041361593
-0.18177235 0.033879936 -0.049311157 -0.07448058 -0.10749789 0.007990698 0.11342855 0.029004503
-0.05092183 0.07766299 -0.015272074 -0.20466416 0.039535146 0.021972138 -0.16030738 0.08730854
0.0027737392 -0.0973642 0.13059208 0.08616498 0.11147499 -0.029618405 0.10479594 0.14877567
0.062596545 -0.22213529 -0.03407489 -0.089186534 0.070856154 -0.1532096 0.038506895 0.11424219
0.12772524 0.1418797 0.028139796 0.110355556 0.028069003 0.14411642 0.114372805 0.1268423
-0.14715841 0.03104209 0.08425833 -0.23752864 -0.001195477 0.09589652 0.07169019 -0.03722984
0.05058612 0.069778174 0.10661105 -0.023486583 -0.12851846 0.12654318 0.007813209 -0.03330351
0.06639058 0.07007841 -0.11781269 0.01936828 0.063803285 -0.13548754 -0.1679346 0.12045597
-0.23097749 -0.14647953 -0.13635893 0.010978198 0.040354807 -0.126475 0.1229412 0.008449528
-0.06791715 -0.016563535 0.23892698 -0.03489056 0.06953614 -0.035929993 0.051369093 -0.18220076
-0.26637387 0.13307606 -0.057393108 -0.19713843 0.12986386 0.13238765 0.09444201 -0.2102949
-0.15774353 0.0017529918 -0.02705692 -0.045125082 0.03717025 0.13166203 -0.1821122 0.017510898
0.035255868 -0.06218757 -0.03093179 0.0791271 0.04364783 -0.0113075515 0.016802777 0.039606713
0.10296718 0.008065086 -0.04025008 0.07904012 0.0052634785 -0.07267391 0.0058583026 0.018488362
0.10585472 -0.082880124 0.07694549 0.034819536 -0.21477075 0.032433502 -0.024073528 0.0471437
-0.013421378 -0.074981175 -0.040450346 -0.016053254 0.052211527 0.02168436 -0.16821317 0.076217696
-0.058096435 0.09407099 -0.0021745393 -0.059818316 -0.18154489 0.011112177 0.023136936 -0.08182214
0.0011737347 -0.02878016 0.07146055 -0.14950468 0.033402033 -0.017881073 -0.22800587 0.1560179
-0.024730034 -0.12211447 -0.0005782842 0.076273024 0.007143238 -0.08591982 0.06028779 0.08368025
0.051388796 -0.1350936 -0.08132686 -0.05988297 0.055294923 -0.057504583 0.104330786 0.06910908
0.11673931 0.115560316 -0.03439417 0.10156272 0.073034115 0.10770922 0.076989226 -0.024140138
-0.09076498 0.033485398 -0.019509058 -0.18659818 -0.070788234 0.047308706 0.01971669 0.06754099
-0.008846735 0.030920908 0.024273276 -0.014267317 -0.124164365 0.11757048 0.005923287 -0.123074144
0.037559997 0.0850676 -0.14772454 0.14159083 0.010020829 -0.0306665 -0.21433021 0.116973914
-0.19042476 -0.03057648 -0.089694634 0.10116316 0.02162423 -0.19049707 0.111856066 0.12246719
-0.0733377 0.018910093 0.11415851 0.08365128 0.104996 0.0099284975 0.051467855 -0.04692149
-0.262802 0.041794457 -0.05188137 -0.09347349 0.063618846 0.07328066 0.09972268 -0.022497863
-0.13332073 0.016470013 0.07401865 -0.042500947 0.059339322 -0.00017563815 -0.22483405 0.019791894
00000000: a9cd 253d 01c4 b0bd 9992 a83d 326e 283c
00000010: 8dbb 2f3c b7b1 8ebc ef85 963c f350 233e
00000020: ba40 803d 9be7 f43d 75c5 27bc 4dd2 7c3c
00000030: 7d99 0f3e 4244 abbd 6639 c13d fd76 393e
00000040: 9418 073e 5375 28bc b27f 0c3e d0b2 b83c
00000050: bdfe 2dbe 6c6e 043d d564 313b 4003 a53d
00000060: a67b d8bd b7f1 533d fdb3 8f3d afed 6a3d
00000070: 1744 433d c625 903d cff9 1abe c66a 293d
00000080: 8822 3abe b0c5 0a3d 7ffa 49bd 4689 98bd
00000090: db27 dcbd 6beb 023c 3a4d e83d da9a ed3c
000000a0: 6993 50bd c60d 9f3d b937 7abc 7b93 51be
000000b0: 9bef 213d eafe b33c 9e27 24be d2ce b23d
000000c0: 9fc7 353b e266 c7bd eeb9 053e 4477 b03d
000000d0: 004d e43d 4ca2 f2bc 419f d63d a658 183e
000000e0: 9e32 803d 6f77 63be 1d92 0bbd 6ea7 b6bd
000000f0: 081d 913d fae2 1cbe 68b9 1d3d cff7 e93d
00000100: 68ca 023e e948 113e 6e85 e63c 1802 e23d
00000110: f7f0 e53c 4193 133e 4a3c ea3d f3e2 013e
00000120: b2b0 16be fb4b fe3c a28f ac3d b53a 73be
00000130: 8db1 9cba 6565 c43d 4ed2 923d 517e 18bd
00000140: 6433 4f3d dce7 8e3d e556 da3d ef66 c0bc
00000150: 589a 03be 8994 013e f902 003c 4369 08bd
00000160: c9f7 873d 4585 8f3d c847 f1bd 3aaa 9e3c
00000170: 4cab 823d 3fbd 0abe 0cf7 2bbe 9fb1 f63d
00000180: 5d85 6cbe bbfe 15be ada1 0bbe e6dd 333c
00000190: 154b 253d aa82 01be 99c8 fb3d e46f 0a3c
000001a0: 2618 8bbd 40b0 87bc 46a9 743e 67e9 0ebd
000001b0: f768 8e3d 542b 13bd 6668 523d d692 3abe
000001c0: 2862 88be 1745 083e 0915 6bbd a8de 49be
000001d0: 08fb 043e a190 073e d06a c13d 8c57 57be
000001e0: 8587 21be a5c4 e53a 79a6 ddbc 14d5 38bd
000001f0: d53f 183d 69d2 063e 9f7b 3abe 0473 8f3c
00000200: 7568 103d 65b8 7ebd aa64 fdbc 640d a23d
00000210: 11c8 323d 4f43 39bc faa5 893c a63a 223d
00000220: 75e0 d23d 6c23 043c 45dd 24bd c9df a13d
00000230: 4279 ac3b 0fd6 94bd 01f7 bf3b e874 973c
00000240: 5cca d83d 0ebd a9bd 9995 9d3d ee9e 0e3d
00000250: ddec 5bbe fed8 043d d935 c5bc c119 413d
00000260: 57e5 5bbc bb8f 99bd 43af 25bd 1d82 83bc
00000270: c1db 553d 66a3 b13c 1340 2cbe 0618 9c3d
00000280: 87f6 6dbd 4ba8 c03d b782 0ebb 0d04 75bd
00000290: e7e6 39be d90f 363c ac89 bd3c 5e92 a7bd
000002a0: 00d8 993a 5fc4 ebbc e959 923d c117 19be
000002b0: 92d0 083d 547b 92bc 5f7a 69be 28c3 1f3e
000002c0: a496 cabc 2717 fabd ff97 17ba 0835 9c3d
000002d0: d311 ea3b bbf6 afbd 54f0 763d 8d60 ab3d
000002e0: 0f7d 523d fa55 0abe b28e a6bd d847 75bd
000002f0: ee7c 623d ed89 6bbd 61ab d53d 1089 8d3d
00000300: 0515 ef3d e3aa ec3d e7e0 0cbd 1e00 d03d
00000310: e992 953d a796 dc3d 87ac 9d3d 8ac1 c5bc
00000320: fde2 b9bd fc27 093d 76d1 9fbc 9813 3fbe
00000330: 6cf9 90bd c6c6 413d e584 a13c ee52 8a3d
00000340: e5f1 10bc d84d fd3c c0d8 c63c 77c1 69bc
00000350: e349 febd cbc8 f03d 2218 c23b 4c0e fcbd
00000360: 83d8 193d ec37 ae3d 1a45 17be 30fd 103e
00000370: 672e 243c 5038 fbbc 6179 5bbe 0590 ef3d
00000380: b5fe 42be 877b fabc d2b1 b7bd a12e cf3d
00000390: 4c25 b13c aa11 43be cb14 e53d 14d0 fa3d
000003a0: 1332 96bd 57e9 9a3c f0cb e93d 5d51 ab3d
000003b0: 2508 d73d 23ab 223c f5cf 523d c030 40bd
000003c0: fc8d 86be aa30 2b3d 8f81 54bd 076f bfbd
000003d0: 994a 823d 2c14 963d 683b cc3d 704d b8bc
000003e0: 3b85 08be 1fec 863c 1797 973d 7915 2ebd
000003f0: ca0d 733d 822b 38b9 e63a 66be 9c22 a23c

fc1.bias f4 [32]
0.022823017 -0.07574312 -0.0039910036 0.07883898 -0.062109385 -0.08323303 -0.02457317 0.063703686
-0.044295497 0.02554653 -0.00051660114 -0.06608372 0.0063149594 -0.054281898 0.08291169 0.06549581
0.0050659464 0.018570958 -0.054379977 -0.046079006 -0.05412527 0.0521233 -0.041400027 -0.015939372
0.020566262 -0.032138184 -0.051898148 0.02827987 0.07493761 0.05772159 -0.03477339 -0.04993253
00000000: 56f7 ba3c 351f 9bbd f7c6 82bb 5576 a13d
00000010: 6966 7ebd 1476 aabd ac4d c9bc 1477 823d
00000020: 326f 35bd f546 d13c 846c 07ba e756 87bd
00000030: b8ed ce3b b256 5ebd 9bcd a93d ab22 863d
00000040: 3d00 a63b 1f22 983c 8abd 5ebd 57bd 3cbd
00000050: 76b2 5dbd 3e7f 553d 1393 29bd 4993 82bc
00000060: 947a a83c 54a3 03bd 2793 54bd 30ab e73c
00000070: e478 993d 796d 6c3d 8b6e 0ebd 0d86 4cbd

fc2.weight f4 [1, 32]
-0.15907022 -0.21970394 -0.1526011 0.23423104 -0.13020293 -0.23148382 0.1377876 0.14193861
0.21751168 -0.15211143 -0.1557219 -0.2317527 -0.17368424 -0.17278294 0.130937 0.21946205
-0.1283994 -0.19475031 -0.17196356 -0.13148199 -0.18439125 -0.20043299 0.11138842 0.14241
0.20729649 -0.189903 -0.121071056 0.1303855 0.2316743 -0.2074026 -0.2232745 0.20903692
00000000: 4ee3 22be 12fa 60be 7643 1cbe 43da 6f3e
00000010: eb53 05be 180a 6dbe 3118 0d3e 5b58 113e
00000020: 62bb 5e3e 19c3 1bbe 9075 1fbe 9450 6dbe
00000030: 48da 31be 03ee 30be 5914 063e a9ba 603e
00000040: 227b 03be a06c 47be 3717 30be 37a3 06be
00000050: 0fd1 3cbe 4e3e 4dbe 9d1f e43d edd3 113e
00000060: 8845 543e ef75 42be 1af4 f7bd c783 053e
00000070: 073c 6d3e 5961 54be 12a2 64be c60d 563e

exp_avg f4 [16, 1, 3]
0.10953735 -0.16426684 -0.27223405 0.06673306 -0.09655932 -0.36819455 -1.1874983 -2.2369885
-2.847103 -0.67576987 -1.4743562 -1.8347018 -0.31580397 -0.85595274 -1.0251442 -0.4848238
-1.1562726 -1.1514723 1.3584998 2.128004 -1.3185269 -0.15427229 -0.09924527 -0.0648494
-0.8965059 -1.2281557 -1.384848 0.015425455 0.0045837513 -0.038575545 -0.14264646 -0.15117767
-0.36427748 -0.319191 0.10016484 0.140634 -0.54484713 -0.86598074 -1.1173131 -0.46901613
-0.53077525 -0.4546203 -0.95807827 -2.0256894 -2.7491095 -0.3154707 -0.4392135 -0.001372336
00000000: 1e55 e03d 9135 28be 4362 8bbe 58ab 883d
00000010: e5c0 c5bd ff83 bcbe f2ff 97bf d22a 0fc0
00000020: f036 36c0 41ff 2cbf b4b7 bcbf 82d7 eabf
00000030: 0fb1 a1be b81f 5bbf ed37 83bf d33a f8be
00000040: be00 94bf 7263 93bf 52e3 ad3f 3831 0840
00000050: 7dc5 a8bf 8ef9 1dbe 1b41 cbbd c3cf 84bd
00000060: 6981 65bf 3534 9dbf b342 b1bf 0cbb 7c3c
00000070: 4b33 963b 6401 1ebd ea11 12be 52ce 1abe
00000080: 9482 babe 016d a3be 3923 cd3d 5c02 103e
00000090: 1a7b 0bbf eab0 5dbf 1e04 8fbf e222 f0be
000000a0: e3e0 07bf fec3 e8be 9e44 75bf e5a4 01c0
000000b0: 69f1 2fc0 6085 a1be 98e0 e0be f4df b3ba

exp_avg_sq f4 [16, 1, 3]
1.2021817 1.6005311 3.6117213 0.59390616 0.8679751 2.7634664 984.3574 1079.1146
1175.7169 460.29633 492.21283 530.0803 204.79063 203.65666 199.9642 138.83752
143.92287 149.65741 671.1261 788.7667 213.70143 0.84050995 0.8107336 0.46997753
215.80069 217.34653 215.51204 0.9703229 0.9620587 0.52543205 9.121873 9.464965
3.5092177 30.391249 23.18038 10.841344 139.4437 141.48518 149.7667 37.084846
40.539146 42.2678 1074.1732 1128.1864 1211.0778 7.8452287 9.061358 5.9427104
00000000: 17e1 993f 34de cc3f 7126 6740 3c0a 183f
00000010: 9e33 5e3f a2dc 3040 e016 7644 abe3 8644
00000020: f1f6 9244 ee25 e643 3e1b f643 2485 0444
00000030: 67ca 4c43 1ba8 4b43 d6f6 4743 68d6 0a43
00000040: 41ec 0f43 4ca8 1543 12c8 2744 1231 4544
00000050: 91b3 5543 a92b 573f 3d8c 4f3f e5a0 f03e
00000060: facc 5743 b658 5943 1583 5743 1567 783f
00000070: 7b49 763f b782 063f 31f3 1141 7f70 1741
00000080: 0697 6040 4721 f341 6b71 b941 2576 2d41
00000090: 9671 0b43 357c 0d43 46c4 1543 e256 1442
000000a0: 1628 2242 3a12 2942 8b45 8644 f705 8d44
000000b0: 7d62 9744 1d0c fb40 53fb 1041 af2a be40

exp_avg f4 [16]
-0.015845977 0.00028269898 0.14926665 0.084527105 0.03594917 0.041297156 -0.09950967 -0.004020814
0.065104894 -0.0059535396 -0.06948084 -0.00035395267 0.0440731 0.032143492 0.13477844 0.013661501
00000000: 6ccf 81bc 3737 9439 5bd9 183e 8c1c ad3d
00000010: 703f 133d 3527 293d bacb cbbd 08c1 83bb
00000020: b755 853d e915 c3bb f84b 8ebd b992 b9b9
00000030: ff85 343d e5a8 033d 5c03 0a3e 7dd4 5f3c

exp_avg_sq f4 [16]
0.004277036 0.0020564012 0.2760523 0.11096656 0.03576242 0.03246674 0.14288093 0.0019444425
0.053578775 0.0033297227 0.041769568 0.015150301 0.033328295 0.009943177 0.25630572 0.0027879952
00000000: 6126 8c3b b0c4 063b ba56 8d3e 7042 e33d
00000010: 9e7b 123d d8fb 043d 614f 123e aadc fe3a
00000020: 6b75 5b3d 7a37 5a3b 9116 2b3d f838 783c
00000030: 4083 083d b5e8 223c 813a 833e ccb6 363b

exp_avg f4 [32, 16, 3]
-0.042659804 -0.02093254 -0.011866164 -0.03778158 -0.013402354 0.007957116 -0.1054908 -0.113988355
-0.072873086 -0.07661146 -0.07761637 -0.03752701 -0.036098827 -0.040620655 -0.025781566 -0.32188827
-0.354753 -0.14969929 -0.045447323 -0.058771815 -0.045351822 -0.012688741 -0.0062062843 0.0711243
-0.101602115 -0.1033087 -0.057408236 -0.017999774 0.0013332828 0.064336546 -0.024297813 0.007922284
0.044989437 -0.058537833 -0.07923684 -0.022876594 -0.15290083 -0.16549091 -0.0831978 -0.25193322
-0.29187235 -0.1144032 -0.08124405 -0.073926814 -0.055157922 -0.16755255 -0.23035862 -0.105090685
-0.07369405 -0.15108523 -0.026210245 -0.08131037 -0.16357896 -0.016971257 -0.114065796 -0.28621325
-0.34894973 -0.13562953 -0.16526298 -0.22934453 -0.03636856 -0.10110176 -0.11192241 -0.69729614
-0.6774562 -0.9033971 -0.23671256 -0.06804259 -0.13275173 -0.13927752 -0.17735188 0.012760266
-0.21410267 -0.23179099 -0.27046004 -0.14096811 -0.14859518 0.011198706 -0.15636022 -0.11322095
0.005594788 -0.26720217 -0.08264997 -0.32791018 -0.25828052 -0.34153375 -0.46858102 -0.6143333
-0.5302642 -0.6724069 -0.12830575 -0.21440113 -0.21468693 -0.47760943 -0.35088083 -0.6226519
-0.034012552 -0.026882093 -0.003473824 -0.043100484 -0.031505898 -0.0036950423 -0.03509638 -0.07434684
-0.015891943 -0.03828226 -0.04279406 -0.01184266 -0.0107678445 -0.027873663 -0.0066196895 -0.18027002
-0.17194065 -0.06482993 -0.06103302 -0.016003087 -0.024706371 -0.063882165 -0.04823632 -0.0040944056
-0.06047081 -0.054230373 -0.018199863 -0.055248324 -0.03786976 -0.00460171 -0.045543343 -0.02587303
-0.005296481 -0.054019272 -0.039181873 -0.052296583 -0.07148213 -0.086662635 -0.031371348 -0.15640193
-0.13169006 -0.052314755 -0.04433322 -0.04740531 -0.0070820525 -0.11616861 -0.11763318 -0.05408609
-0.019783856 -0.03283086 -0.04308657 -0.009156504 -0.034734257 -0.04359646 -0.03581528 -0.10039469
-0.104757294 -0.048024997 -0.059099734 -0.075241365 -0.011641812 -0.036882404 -0.03421887 -0.24857438
-0.24142212 -0.32215762 -0.08388756 -0.04029739 -0.07757652 -0.0028397848 -0.03498859 -0.062074024
-0.0824511 -0.07550459 -0.09494117 -0.01184542 -0.035427105 -0.061994247 -0.021290865 -0.036286533
-0.060685337 -0.06916065 -0.03883859 -0.16901305 -0.09071715 -0.12581061 -0.15543401 -0.22110547
-0.1877842 -0.25139937 -0.052861717 -0.05979079 -0.0698985 -0.17010723 -0.12514554 -0.23586413
0.01639367 0.011839324 0.004496763 0.028594285 0.022907868 0.012301951 0.019779243 0.033878926
0.009187917 0.008359122 0.019649385 0.0047796452 0.006594511 0.010619438 0.0038334362 0.014397547
0.06699744 0.020029781 -0.014516803 0.015053778 -0.005773858 0.053159427 0.039611623 0.0272321
0.0064409417 0.015553782 0.004424296 0.04288363 0.03526373 0.020991884 0.025069347 0.028197752
0.0121584935 -0.012352125 0.03717045 -0.0051252213 0.013796706 0.036941387 0.011907068 0.0038781005
0.04557101 0.013750563 0.012029392 0.019454176 0.0025412801 -0.004834846 0.03425333 0.0070712054
0.11340007 0.1773977 0.032260504 0.13547145 0.19709948 0.010110932 0.12895302 0.5850378
0.45675278 0.21988976 0.33560875 0.33844832 0.03127335 0.20227149 0.1343281 1.123642
00000000: 0cbc 2ebd b87a abbc 4d6a 42bc dcc0 1abd
00000010: 8c95 5bbc 905e 023c 900b d8bd ba72 e9bd
00000020: 7c3e 95bd 78e6 9cbd 55f5 9ebd ecb5 19bd
00000030: 5ddc 13bd d861 26bd dd33 d3bc 8ace a4be
00000040: 2fa2 b5be c54a 19be f926 3abd b7ba 70bd
00000050: d5c2 39bd 70e4 4fbc 165e cbbb 9ea9 913d
00000060: c514 d0bd 8393 d3bd e624 6bbd 4374 93bc
00000070: 8cc1 ae3a e1c2 833d 350c c7bc 78cc 013c
00000080: d846 383d 5ec5 6fbd ed46 a2bd b267 bbbc
00000090: 0992 1cbe 7376 29be 9c63 aabd 64fd 80be
000000a0: 4b70 95be 3a4c eabd 4863 a6bd f166 97bd
000000b0: 46ed 61bd e592 2bbe 21e3 6bbe c939 d7bd
000000c0: e8ec 96bd 16b6 1abe deb6 d6bc 0d86 a6bd
000000d0: 3e81 27be 4e07 8bbc 549b e9bd 8b8a 92be
000000e0: 8aa9 b2be 78e2 0abe b33a 29be 4bd9 6abe
000000f0: 33f7 14bd 710e cfbd 9437 e5bd 0082 32bf
00000100: c56d 2dbf 0845 67bf c764 72be ea59 8bbd
00000110: 12f0 07be c49e 0ebe bb9b 35be 6f10 513c
00000120: bb3d 5bbe 9e5a 6dbe bd79 8abe f259 10be
00000130: 5629 18be c77a 373c e51c 20be 63e0 e7bd
00000140: 7c54 b73b b9ce 88be 6344 a9bd d8e3 a7be
00000150: 583d 84be 83dd aebe dae9 efbe f244 1dbf
00000160: 65bf 07bf dc22 2cbf 9562 03be f88b 5bbe
00000170: e4d6 5bbe 3989 f4be a7a6 b3be 1d66 1fbf
00000180: bf50 0bbd d637 dcbc 18a9 63bb 228a 30bd
00000190: 540c 01bd 8628 72bb 39c1 0fbd 2843 98bd
000001a0: d22f 82bc dccd 1cbd d348 2fbd b707 42bc
000001b0: 9d6b 30bc 4f57 e4bc fbe9 d8bb b498 38be
000001c0: 3611 30be 8ec5 84bd c3fd 79bd e818 83bc
000001d0: 0465 cabc a7d4 82bd 7393 45bd 5d2a 86bb
000001e0: 3db0 77bd ab20 5ebd e117 95bc 114c 62bd
000001f0: 521d 1bbd f1c9 96bb a88b 3abd adf3 d3bc
00000200: 1a8e adbb 5043 5dbd 2c7d 20bd f134 56bd
00000210: 3965 92bd 2e7c b1bd 3e7f 00bd d427 20be
00000220: c2d9 06be ff47 56bd c096 35bd 122c 42bd
00000230: 9010 e8bb cfe9 edbd aae9 f0bd 6089 5dbd
00000240: c111 a2bc a779 06bd 8b7b 30bd 2905 16bc
00000250: 8245 0ebd 3492 32bd 0bb3 12bd bb9b cdbd
00000260: fe8a d6bd dcb5 44bd 9012 72bd 2518 9abd
00000270: 4cbd 3ebc 0112 17bd 1629 0cbd 488a 7ebe
00000280: 5c37 77be d8f1 a4be 3ecd abbd e00e 25bd
00000290: 70e0 9ebd af1b 3abb 3250 0fbd 5541 7ebd
000002a0: 1fdc a8bd 27a2 9abd 8470 c2bd 4b13 42bc
000002b0: 031c 11bd aeed 7dbd 2e6a aebc 30a1 14bd
000002c0: 3091 78bd 19a4 8dbd 3715 1fbd c211 2dbe
000002d0: eac9 b9bd 7fd4 00be 182a 1fbe 7969 62be
000002e0: 804a 40be 6bb7 80be 8785 58bd 30e7 74bd
000002f0: f226 8fbd 9730 2ebe 2726 00be 5e86 71be
00000300: 054c 863c b9f9 413c 9559 933b 903e ea3c
00000310: 48a9 bb3c 1f8e 493c 1408 a23c a1c4 0a3d
00000320: eb88 163c b3f4 083c bff7 a03c 929e 9c3b
00000330: c516 d83b 27fd 2d3c 633a 7b3b b0e3 6b3c
00000340: f435 893d 7f15 a43c e3d7 6dbc 1fa4 763c
00000350: a232 bdbb b3bd 593d cc3f 223d da15 df3c
00000360: 890e d33b 4ad5 7e3c aff9 903b bfa6 2f3d
00000370: b370 103d 2cf7 ab3c 3b5e cd3c f9fe e63c
00000380: 6b34 473c 9160 4abc 0b40 183d 79f1 a7bb
00000390: 940b 623c da4f 173d dd15 433c bb27 7e3b
000003a0: aba8 3a3d 0b4a 613c ed16 453c 5d5e 9f3c
000003b0: 9b8b 263b a16d 9ebb 384d 0c3d 92b5 e73b
000003c0: 4c3e e83d bea7 353e 9723 043d 07b9 0a3e
000003d0: 72d4 493e 53a8 253c 430c 043e 0ac5 153f
000003e0: 80db e93e c82a 613e e9d4 ab3e 1949 ad3e
000003f0: 7c18 003d 4220 4f3e 4e8d 093e 80d3 8f3f

exp_avg_sq f4 [32, 16, 3]
0.06803775 0.1270587 0.011098759 0.14509119 0.23400895 0.022424404 1.4710251 2.0309057
1.2420474 1.0988361 1.5353478 1.0304164 0.08771813 0.12089015 0.06741936 18.702559
26.77254 18.508467 0.08059466 0.3171742 0.19184871 0.49896905 0.42226362 0.04964052
1.6677655 2.1971111 1.4885988 0.3842073 0.3062791 0.032859325 0.23401985 0.16513357
0.015422731 0.070690334 0.7155798 0.30942893 3.6939054 5.294319 3.4864593 12.085755
17.411613 12.388288 1.103966 1.3451632 0.8434302 5.360622 8.351493 6.3200345
0.2104824 0.79869664 0.09098124 0.51183355 1.3499501 0.17413285 0.6315327 2.142464
2.6538029 0.39909244 1.0078435 1.4774258 0.049009744 0.18759368 0.1896435 6.8569336
14.633974 23.23717 0.23253797 0.1364056 0.7274054 2.1684668 2.133332 0.12298926
0.63284683 1.4549108 1.8126303 1.7337837 1.5766336 0.06235589 1.1411175 0.90480816
0.015186575 0.563219 0.26894364 2.8240342 1.3660429 3.5012732 5.3925347 4.507552
8.616377 14.03292 0.46089914 1.4644673 1.2348088 2.1695275 3.3510134 9.943889
0.020779025 0.033224642 0.00072185777 0.038628556 0.058052346 0.0005987952 0.37016687 0.4473003
0.31094545 0.27779698 0.34253395 0.30835637 0.022818057 0.028046811 0.014205705 4.848228
6.0828776 5.700593 0.03949589 0.041207787 0.2860818 0.111961514 0.07988808 0.0011017551
0.41821995 0.49707085 0.4527015 0.08648074 0.056753512 0.0007744387 0.054412648 0.030223323
0.00056021573 0.022749461 0.041323587 0.9793217 0.9388664 1.1687586 1.0123876 3.198627
4.0287147 3.8560717 0.26879516 0.30122843 0.23601168 1.4864826 2.0223222 2.1719735
0.04092891 0.04958405 0.08038556 0.09436146 0.10709447 0.16361433 0.8937029 1.0052378
0.9455003 0.81472045 0.9161463 0.8929558 0.047175944 0.052992117 0.048932917 15.089006
16.741388 16.480038 0.104350924 0.12757793 0.66796297 0.34901282 0.39535204 0.38973734
1.251308 1.417829 1.3251995 0.27002048 0.3074425 0.29343206 0.1624741 0.18813543
0.16971816 0.048003513 0.09087511 1.9975188 2.7417178 3.023971 2.9699337 10.238849
11.324037 11.124556 0.6896339 0.82273763 0.6992879 4.9361873 5.3978505 6.3065023
0.009358079 0.03157587 0.0022332899 0.02342762 0.057738904 0.005988601 0.08223975 0.07587634
0.012942544 0.083522044 0.07874038 0.011928684 0.0039973017 0.0039113415 0.0008125069 1.5729315
1.4887162 0.22607833 0.013432491 0.050611064 0.0027487818 0.098891824 0.11180953 0.018733637
0.12992707 0.12136212 0.01810774 0.07773763 0.08847025 0.013198383 0.04810825 0.055452608
0.006884116 0.013928958 0.11836599 0.0020496927 0.27180642 0.25578028 0.03889094 1.0868965
1.0252147 0.15632938 0.07010864 0.06710122 0.009758776 0.53260595 0.54590327 0.07709601
0.54332864 0.83283424 0.022016821 0.95271474 1.2814133 0.0054846834 30.03205 32.684135
28.483803 27.482733 30.214796 29.137362 1.5223957 1.6859655 1.2751997 503.1166
00000000: 6057 8b3d ad1b 023e 92d7 353c c992 143e
00000010: 0ba0 6f3e 62b3 b73c 8d4a bc3f 5cfa 0140
00000020: 69fb 9e3f a9a6 8c3f 4786 c43f afe4 833f
00000030: 90a5 b33d 4195 f73d 2913 8a3d d79e 9541
00000040: 292e d641 5711 9441 d00e a53d a864 a23e
00000050: fd73 443e df78 ff3e f032 d83e dc53 4b3d
00000060: 5779 d53f 789d 0c40 688a be3f d2b6 c43e
00000070: 9dd0 9c3e 8097 063d e6a2 6f3e c618 293e
00000080: 9faf 7c3c 18c6 903d 3d30 373f 786d 9e3e
00000090: f268 6c40 106b a940 2622 5f40 415f 4141
000000a0: fc4a 8b41 6d36 4641 c24e 8d3f 4f2e ac3f
000000b0: 0beb 573f 378a ab40 b79f 0541 b93d ca40
000000c0: b388 573e 6277 4c3f 5f54 ba3d 8607 033f
000000d0: 2acb ac3f e24f 323e 21ac 213f 211e 0940
000000e0: e8d7 2940 d855 cc3e 0401 813f 4a1c bd3f
000000f0: 71be 483d 8f18 403e e831 423e 006c db40
00000100: c224 6a41 b9e5 b941 6f1e 6e3e e9ad 0b3e
00000110: 3e37 3a3f 29c8 0a40 8388 0840 cbe1 fb3d
00000120: 4002 223f 843a ba3f 4504 e83f a0ec dd3f
00000130: 21cf c93f e468 7f3d 2310 923f 82a1 673f
00000140: 1dd1 783c 1f2f 103f fbb2 893e fabc 3440
00000150: 7eda ae3f dc14 6040 a58f ac40 de3d 9040
00000160: aedc 0941 d786 6041 f9fa eb3e aa73 bb3f
00000170: 370e 9e3f 8ad9 0a40 0177 5640 2b1a 1f41
00000180: c638 aa3c 9016 083d 0e3b 3d3a fa38 1e3d
00000190: 4cc8 6d3d 77f8 1c3a 8386 bd3e 8b04 e53e
000001a0: 3e34 9f3e 683b 8e3e 9c60 af3e e3e0 9d3e
000001b0: efec ba3c 6dc2 e53c 0cbf 683c af24 9b40
000001c0: efa6 c240 426b b640 71c6 213d 7fc9 283d
000001d0: 5079 923e 144c e53d 5d9c a33d c468 903a
000001e0: ed20 d63e 1280 fe3e 7ec8 e73e d01c b13d
000001f0: 5f76 683d b403 4b3a ccdf 5e3d e796 f73c
00000200: 71db 123a 145d ba3c ec42 293d d4b4 7a3f
00000210: 8c59 703f e299 953f eb95 813f 4eb6 4c40
00000220: 3beb 8040 e1c9 7640 859f 893e 9d3a 9a3e
00000230: 0cad 713e 1045 be3f ba6d 0140 9d01 0b40
00000240: 13a5 273d a518 4b3d 2fa1 a43d 9540 c13d
00000250: 5854 db3d 848a 273e b7c9 643f a2ab 803f
00000260: 4f0c 723f 8591 503f 9088 6a3f c098 643f
00000270: 903b 413d 430e 593d e26d 483d 926c 7141
00000280: 5dee 8541 1ed7 8341 f0b5 d53d caa3 023e
00000290: 9fff 2a3f cfb1 b23e 956b ca3e a78b c73e
000002a0: dc2a a03f 6c7b b53f 23a0 a93f 2040 8a3e
000002b0: 1a69 9d3e ba3c 963e 9c5f 263e 93a6 403e
000002c0: 99ca 2d3e 559f 443d bb1c ba3d b2ae ff3f
000002d0: 4e78 2f40 be88 4140 6513 3e40 53d2 2341
000002e0: 412f 3541 2efe 3141 d98b 303f ef9e 523f
000002f0: 8804 333f 3ff5 9d40 31bb ac40 dece c940
00000300: a152 193c b355 013d 635c 123b 48eb bf3c
00000310: a17f 6c3d 073c c43b 506d a83d 0e65 9b3d
00000320: f70c 543c 9b0d ab3d a342 a13d 8770 433c
00000330: ccfb 823b b62a 803b 6afe 543a d255 c93f
00000340: 418e be3f 1481 673e f313 5c3c 8c4d 4f3d
00000350: e824 343b cc87 ca3d 65fc e43d 4977 993c
00000360: 9a0b 053e b48c f83d af56 943c e834 9f3d
00000370: e42f b53d 083e 583c 280d 453d 4622 633d
00000380: 2794 e13b 4936 643c de69 f23d 2354 063b
00000390: 362a 8b3e a2f5 823e 1b4c 1f3d 6d1f 8b3f
000003a0: 3c3a 833f cf14 203e 1e95 8f3d 5d6c 893d
000003b0: 46e3 1f3c dd58 083f 51c0 0b3f 83e4 9d3d
000003c0: 9617 0b3f a034 553f 9f5c b43c 1de5 733f
000003d0: 5a05 a43f dcb8 b33b a341 f041 8ebc 0242
000003e0: d4de e341 a3dc db41 e7b7 f141 5119 e941
000003f0: dddd c23f b8cd d73f be39 a33f ed8e fb43

exp_avg f4 [32]
-0.021688662 -0.05443082 -0.013596851 -0.022078998 -0.00080111437 0.07300613 0.050300706 0.006998937
0.016052432 0.016443329 0.01934175 0.03320067 -0.06340605 0.10227755 0.12735198 0.09216164
0.05350621 0.0 -0.12801203 0.0044001546 0.047027215 -0.010349873 0.026736123 0.029976716
0.037721213 0.013777827 -0.0006545209 0.029578958 -0.022521388 -0.052306954 0.09168679 0.06526606
00000000: 6cac b1bc daf2 5ebd 54c5 5ebc 04df b4bc
00000010: e001 52ba 3d84 953d 1d08 4e3d 5757 e53b
00000020: 6480 833c 29b4 863c 9772 9e3c 6dfd 073d
00000030: 08db 81bd e476 d13d 8f68 023e 3ebf bc3d
00000040: 5429 5b3d 0000 0000 9615 03be 2c2f 903b
00000050: 9c9f 403d 8492 29bc b705 db3c bb91 f53c
00000060: 8f81 1a3d 65bc 613c 2794 2bba 924f f23c
00000070: c67e b8bc d13f 56bd 49c6 bb3d 36aa 853d
